DRLND-2-continuous-control-master/checkpoint_critic.pth (torch_old, 609702 bytes, 9 tensors)

fc1.weight f4 [512, 33]
00000000: 887c 7f3f ff14 e9bd 3583 81bd 3c28 b13f
00000010: be78 7fc0 fe54 41bf 95a3 9e3f 0e9d fcbe
00000020: 3020 2940 01ef e7bd a927 443e 51c2 393f
00000030: 4975 2b3f 7927 07bf 590e 2e3f e990 d33e
00000040: 4d80 da3e 8f2f 573f 21e2 6fc0 1c1c ccbf
00000050: 6055 8dbd 18c1 cfbe a7e2 e33d 7ea3 49bf
00000060: ea88 75be 2329 ea3e c698 b1be 24b2 023d
00000070: c18e f1be 380a 913c 10ac 0dbc 1e58 9e3c
00000080: adbe 0fbf b831 f63c 7ebf 1c3d cc44 c7bc
00000090: 99c8 45bc c437 253d 10ac cd3c 45d7 c43c
000000a0: 8098 c2b9 187a 1abb 3743 053d d990 09bc
000000b0: feea 663d 99a0 d53c 9d02 323d 678c 4ebb
000000c0: e445 66bd 42b3 62bc f5f3 01bd 5908 0abd
000000d0: ab55 283d cd7f 0bbd 7cb3 b43b a627 86bc
000000e0: 5ca7 733c b09b 8ebb 3376 593d ab3d 933b
000000f0: 0094 c93a 6d66 48bc 0621 27bd 20f7 b5bb
00000100: 1335 0d3d 612c 19bd 3cee 02bf 8749 e93e
00000110: a171 053f 6d6f f43e 4998 de3f 8ae2 46c0
00000120: f4f6 0240 ea96 07bf 078a 0d3f b894 dc3e
00000130: f821 f13e 8bbb 163e e748 c7be 3f88 123f
00000140: 84bc 6f3d 532d 16bf 8ea3 abc0 d611 d23f
00000150: a73b 983f 67b1 18bf 9fbb 07be 6a76 e5bd
00000160: 70ad ac3d 46c5 273e 06c9 a93d 043f d8bc
00000170: 8009 623e 192e f0ba 1464 043f 6460 12bd
00000180: 9f2f cf3c 7b11 343d 3c57 3dc0 3622 453e
00000190: 7962 ff3f 39e1 173f 252a 8e40 f2a6 07bf
000001a0: eaa6 5dc0 035c 58bf bb8c 13be 5062 573f
000001b0: c3aa f03e 4014 1bbe 9623 e83e 60a9 e3be
000001c0: be3a d2bd 8a44 d6be d87e 19bf 1b13 bf3e
000001d0: 4979 363e 0eaa 15c0 f3bd 04c0 e053 c93d
000001e0: de3b 063c c10c e0be 9e4a 163e a661 38be
000001f0: 1340 a6bc 8108 ad3e 83f1 063d adb0 383e
00000200: 3a25 d03c 98e8 b03c ed12 cabc 2a8f 86be
00000210: 2862 0fbf 9c17 a13e 0a5a 6bbf f2a9 183f
00000220: 4bf6 6340 91e7 d33f 7b4c 06be 5570 1b3e
00000230: 3310 0f3d 42f7 1f3f 3d2c 3a3d 0bf7 ea3d
00000240: 4fcd 563a 19cd 5cbf 72f0 9c3e eb2d 343f
00000250: 4bb8 0c40 d4cf 13c0 7522 953f 5b35 7840
00000260: d9d0 d2bb 3e4d 4fbd e4b6 fe3d 6bac 8ebe
00000270: b550 d73d 01b2 6a3e 027a 203f 75b7 e4bb
00000280: 654c ff3e 8807 863b 6b7f 953b 2207 eb3c
00000290: 125a cebf cc8c 943e be12 1e3f 1a98 28bf
000002a0: bd30 4d40 0842 3e40 d712 843f 3d26 cd3e
000002b0: 6b9a 413e 1100 833d 1942 893f ef49 e5bc
000002c0: ec68 2cbc b070 3abe c5cf 88bf 7b41 90bd
000002d0: fdfd 313f bffc 2840 be42 823f b5b6 0940
000002e0: 5cf2 80bf 4ad4 10be a750 59be 25b4 0f3e
000002f0: 93ee 10be 5b24 f8bd ebb0 003e 2762 a43d
00000300: 0ea0 c13c df5d 66bf 5518 003d 699c ccbb
00000310: fb17 33bd c8b0 41c0 d99b 393f 94ec d9be
00000320: c2f4 95be a8cf 1840 fae4 3dc0 b0e8 863d
00000330: f349 7840 4440 1a3e 85ce c4bf a977 693f
00000340: 6f18 2bbf bf85 883e 4767 2f3e 0d81 9d3d
00000350: 3fec 203f c274 af3e f4e1 013e 6a4f db3e
00000360: 5b6f 36c0 b152 b33f c4e9 173e 34c5 793e
00000370: 80a1 15be 3ac7 a5be 3561 413d 22cb d13e
00000380: 5ed7 f0be cb6a e83b 943f babd 18aa 8f3b
00000390: 9c95 183c 8c5d 03bd 24db 7f40 0de1 8cbd
000003a0: 9cfa 17be 15e3 793f 7d67 b8bf a27e a6be
000003b0: c016 0bbf 5f6b 0dc0 9c15 9d3e fad6 8bbc
000003c0: e41c 103e eaab a03e c6b3 ee3e 6a26 773e
000003d0: e558 05bf b903 853f 7881 e0be 6418 24bf
000003e0: 9fb6 5d3e c084 6bc0 06e9 42c0 3a0e a1bc
000003f0: b250 f43d 3a40 b9be 17c0 72bd d4ce 0b3f
0.99799395 -0.11380958 -0.06323854 1.3840404 -3.9917445 -0.7552031 1.2393671 -0.49338573
2.6425896 -0.11324883 0.19155754 0.7256213 0.6697584 -0.52794605 0.6799064 0.41321495
0.4267601 0.84056944 -3.7481768 -1.5946078 -0.069010496 -0.40577006 0.11127215 -0.78765094
-0.2397801 0.4573451 -0.3468687 0.03190817 -0.47179225 0.017705068 -0.00864698 0.019329127
-0.56150323 0.030053005 0.03826856 -0.024324797 -0.012071752 0.040336385 0.02510646 0.02402843
-0.00037116185 -0.0023571309 0.032534804 -0.008396351 0.05637645 0.026077555 0.043459523 -0.0031516792
-0.056218997 -0.013836684 -0.031726796 -0.033699367 0.041097324 -0.034057427 0.0055145603 -0.016376328
0.014871445 -0.0043520555 0.05309124 0.0044934354 0.001537919 -0.012231451 -0.040802978 -0.0055531412
0.034474444 -0.03739584 -0.51144767 0.4556391 0.5212651 0.4774126 1.7390224 -3.1075768
2.0463228 -0.5296465 0.5528874 0.43082213 0.4709623 0.1471998 -0.38922808 0.57239145
0.058529392 -0.5866291 -5.363715 1.6411693 1.1893204 -0.59645694 -0.13255166 -0.11204226
0.08431518 0.16383848 0.08290295 -0.026397236 0.22073936 -0.0018324285 0.5171521 -0.035736457
0.025291262 0.043961983 -2.9584494 0.19251332 1.9951926 0.5932804 4.4426446 -0.52989113
-3.4633126 -0.845154 -0.14409153 0.8413439 0.4700528 -0.15144444 0.4533965 -0.4446516
-0.102651104 -0.41849166 -0.59959173 0.37319264 0.17819704 -2.3385043 -2.0740936 0.09830451
0.008192984 -0.4375973 0.14676902 -0.18006 -0.020294225 0.3379555 0.032945167 0.18036146
0.025408376 0.021595284 -0.024667228 -0.262811 -0.5600915 0.31463325 -0.91934264 0.59634316
3.5619075 1.6555043 -0.13115112 0.1517957 0.03492756 0.6248666 0.045452345 0.11472901
0.00081940455 -0.86250454 0.30652195 0.70382565 2.1987484 -2.3095598 1.165114 3.8782566
-0.006433588 -0.050610773 0.12437227 -0.2786592 0.105134405 0.22919466 0.6268617 -0.0069798776
0.49862972 0.0040902533 0.0045623085 0.028689925 -1.6121237 0.2901367 0.6174735 -0.6585709
3.2060997 2.9727802 1.031825 0.40068236 0.18906562 0.06396497 1.0723296 -0.027989356
-0.010523062 -0.1820705 -1.0688406 -0.070437394 0.6952818 2.6404264 1.0176618 2.1517766
-1.0073962 -0.14143482 -0.21222173 0.14033563 -0.14153509 -0.12116309 0.12567489 0.080265336
0.02363589 -0.89986986 0.031273205 -0.0062442315 -0.04372404 -3.0264149 0.7250343 -0.42563307
-0.29288298 2.3876743 -2.9671006 0.0658735 3.8795135 0.15063578 -1.5375525 0.9119821
-0.6683416 0.2666454 0.17129241 0.0769063 0.6286048 0.34268767 0.1268385 0.42834026
-2.8505466 1.400961 0.14835268 0.24391633 -0.14612389 -0.3237856 0.047211844 0.4097529
-0.47039312 0.007092809 -0.09094158 0.0043842904 0.009313013 -0.032071635 3.9977503 -0.068788625
-0.14841694 0.97612125 -1.4406582 -0.32518488 -0.5433159 -2.2096784 0.3068055 -0.017070282
0.14073521 0.3138116 0.4662153 0.24135748 -0.5208877 1.0391761 -0.43848777 -0.6409972
0.21651696 -3.6799774 -3.0454726 -0.019660104 0.11929454 -0.36181813 -0.059265222 0.5461247

fc1.bias f4 [512]
00000000: 8acc 583d 2896 e0bc 713d 1a3e edb2 843d
00000010: 811e 803d ae5e 7dbd 310a da3c f604 8fbd
00000020: 7546 18be 9821 b03d 1342 9fbd cf9a 14be
00000030: 9905 67bd 2a61 6fbd 0a77 2ebe f7dd 53bc
00000040: c89d debd 6924 233e 148e 543d 27ed ba3d
00000050: ee01 263d 98c2 1cbd 0328 09be 9e31 2a3e
00000060: 63ce a03d d1e0 d7bc 1a64 41bd 1ecb 063e
00000070: 32b0 20be 42a0 823d a464 813d d069 a93d
00000080: bf4a 20be f883 0ebe 5a7e 0d3e 5aa4 87bd
00000090: fbb6 d83d b3d4 f2bd 3412 553d b646 113e
000000a0: 2f03 87bd 3b52 803d 5159 98bd 267f 053e
000000b0: f3d6 48bc ccea e13d 6b23 aebd 86b1 4cbc
000000c0: cc68 77bd d6d2 76bb 5e9f 153e ae86 72bc
000000d0: bf58 8e3d d1b3 353d 51b2 143e 2d45 f63b
000000e0: 3c86 7bbd 8ec7 223e ce1d 0ebe e9b5 933d
000000f0: 208f 0ebe f654 bdbd 0d57 30be 31b8 b23d
00000100: f951 05be a5ab 0ebc 67c4 bd3d 4f69 453d
00000110: de33 803d c612 d03d c095 ee3c c529 bfbd
00000120: 4bda 8dbc 8145 883d 0eae 883d e2a8 12be
00000130: 90cb 1ebd 37f9 c3bd 65d7 983c 5e39 bdbd
00000140: 2137 87bd b6c0 8ebd 99b6 d33d 7b47 59bd
00000150: 9d3f 16be 9671 b9bd 0233 93bd 591a c53d
00000160: d442 20bd d2dd 1fbe 310c ce3d b001 1b3e
00000170: 2778 00be 3545 cbbd 52f1 053e d3ec 0dbe
00000180: e187 863c 1ae1 ecbd 23c0 f6bd b5bb 31be
00000190: 24f5 f43d c344 e53c 1140 133e 8ece dbbd
000001a0: 18cc fbbd 2e54 c63d f28f 193e c095 66bd
000001b0: ea12 313e d1df 173e 0886 d0bc 22c9 c43d
000001c0: aab3 933d f5c1 13be f463 963d d268 ff3d
000001d0: 345f 1abd 1272 aabd 6091 a73d e1fa 78bd
000001e0: afca 1e3e 5868 103e 40fe 263e 65a5 283e
000001f0: 30a0 39bd 62ce 15bd 36f0 03be c92e c5bb
00000200: bd42 1bbd fa03 d63d b993 e23d 4d67 dfbd
00000210: b056 edbc 1fe0 8c3c 4d40 103e 15bc c5bd
00000220: 2a99 45bc 0a5c 4e3d ba00 6abd 9aba a9bd
00000230: 00db 103d 79d4 b33d 9995 72bd fb01 2a3e
00000240: 4e2d a2bd a103 32be c1cd 0b3e 0f16 2abd
00000250: 8798 58bd 2c7b 0f3d 97c1 96bd 6678 d5bd
00000260: 2266 fcbd 3cab 2e3e 9e04 283e 6d3d abbd
00000270: 31ea e0bd ccd1 eb39 2406 e43d c7e6 97bd
00000280: 3385 c23c a68c 153e 552c d3bd 5c69 d3bd
00000290: acce ffbd 8d26 4ebd c226 2ebd 6858 19be
000002a0: 5666 f2bc fe52 453d 2ff1 273e 3c5e 45bd
000002b0: 95bd 093e 7daa b43d fa19 f33d 9fc5 af3d
000002c0: 58e3 e1bd fddd 5abd b8db fcbd 90aa d8bd
000002d0: c48f 023e cec3 f2bd 735d f53d 8485 08bd
000002e0: ee5b 063e 1a28 183e d55a 4ebc 89c1 083e
000002f0: 3767 9c3d 057f 05be f608 04bd 6f14 88bd
00000300: 1c5f 57bd 2246 a2bd 99cf 08bd edd8 893c
00000310: 3c5e dabb 6f1e ad3d d996 02be 9893 06bd
00000320: e487 953c e1c0 323c 4b94 96bd c3c7 2d3e
00000330: f62c 173e a4b0 c3bd 95ee eb3d fc51 2c3e
00000340: a82b 28be cb52 28be 14ff 233e c812 fb3d
00000350: 28b6 1cbe 2179 853c b153 073e c9e8 82bb
00000360: 4cfa 293e cc84 9dbd 00ef f73d 5341 083d
00000370: c64c d4bd 5532 1fbe 4ac8 d1bc e43a 9b3d
00000380: edd9 ad3d e7dc d43d 5119 2b3d e13b 443d
00000390: f8bb 02bd 2584 eb3c c40e 31be 6556 023e
000003a0: a738 5cbc 8ddb 5f3c dc28 e83d 28a5 e5bd
000003b0: 3508 11bd c280 15be dbb3 d6bd 8bb2 d93d
000003c0: d8ab 643d 4e16 ebbd dab6 a53d 3026 ddbb
000003d0: 6acc 84bd de23 d0bd 4081 1d3d a20c 96bd
000003e0: a83f 103e bd7b f7bb 4479 fe3d 97a3 f63d
000003f0: d2d2 13be 350b 2dbe 64bd c23d 81e1 31bd
0.05292944 -0.02741535 0.150625 0.0647944 0.06255818 -0.06185787 0.026616188 -0.06983368
-0.14870627 0.086001575 -0.077762745 -0.1451218 -0.056401823 -0.058442272 -0.17037597 -0.0129313385
-0.10869938 0.15931858 0.05189331 0.091272645 0.040529184 -0.038271517 -0.1339417 0.1662049
0.07851865 -0.026352318 -0.047214605 0.1316342 -0.15692213 0.06378223 0.06318024 0.08272135
-0.15653513 -0.1391753 0.1381773 -0.066231444 0.10581776 -0.118569754 0.052019313 0.1418713
-0.06592404 0.06265684 -0.07438911 0.13036785 -0.012258279 0.11031112 -0.08502849 -0.012493497
-0.060402676 -0.003766229 0.14611575 -0.014802618 0.06950521 0.04436094 0.14521147 0.0075155706
-0.061407313 0.15896437 -0.13878557 0.07212431 -0.13921785 -0.09244721 -0.17220707 0.08726538
-0.13019551 -0.008707915 0.092659764 0.048196133 0.06259893 0.10159831 0.02912414 -0.09334139
-0.017316004 0.06653882 0.06673823 -0.14322236 -0.03876835 -0.09569018 0.018657396 -0.092394575
-0.06602312 -0.069703504 0.10337562 -0.053046685 -0.14672704 -0.09054868 -0.07187463 0.09624166
-0.039126232 -0.15611961 0.10060919 0.15137362 -0.12545834 -0.099253096 0.13080338 -0.13859873
0.016422214 -0.11566372 -0.12048366 -0.17356761 0.11960819 0.02798689 0.14379908 -0.107327566
-0.12294787 0.09684025 0.14996317 -0.056295156 0.17292371 0.14831473 -0.025454536 0.096086755
0.072120026 -0.14429457 0.07343283 0.12471165 -0.03768845 -0.083225384 0.08182025 -0.06078613
0.15507005 0.14102304 0.16307926 0.16469343 -0.045318782 -0.036573775 -0.12884602 -0.00601754
-0.037905443 0.10449977 0.11063332 -0.10908375 -0.028972 0.017196713 0.14087029 -0.096550144
-0.012060443 0.050380744 -0.0571296 -0.082875445 0.035365105 0.0878076 -0.0592247 0.16602318
-0.079187974 -0.17384197 0.13652708 -0.041524943 -0.052879836 0.035029575 -0.07361143 -0.10423355
-0.12324168 0.17057508 0.16408011 -0.083613254 -0.109821685 0.00044979004 0.11133984 -0.07417064
0.023745155 0.14604434 -0.1031119 -0.1032283 -0.124905914 -0.050329734 -0.04251743 -0.1497513
-0.029589813 0.04817485 0.16400598 -0.048185572 0.13451226 0.088215806 0.11870189 0.08582615
-0.110296905 -0.05343436 -0.123465955 -0.10579407 0.12750155 -0.11853753 0.11980715 -0.033330455
0.13121006 0.14859048 -0.012594898 0.13355078 0.07636874 -0.13036735 -0.03223511 -0.066445224
-0.052580938 -0.07923533 -0.033401106 0.016827071 -0.0066640656 0.0845307 -0.12752856 -0.0328556
0.018253274 0.010910244 -0.073525034 0.16970734 0.14763245 -0.09555176 0.11520115 0.1682815
-0.16422904 -0.16437833 0.16015273 0.122594416 -0.15303862 0.01629311 0.1321552 -0.0039950353
0.16599387 -0.076913446 0.121061325 0.033265423 -0.10366206 -0.15546544 -0.0256082 0.07579592
0.08488832 0.10393696 0.04177219 0.047908667 -0.031917542 0.028749535 -0.17290789 0.1272827
-0.013441241 0.013663185 0.11335918 -0.11213142 -0.035408217 -0.14599898 -0.104835235 0.106297575
0.055827945 -0.11478864 0.08091517 -0.006748937 -0.064843014 -0.10163091 0.03845334 -0.07326628
0.14086783 -0.0075525925 0.12425473 0.12042921 -0.1443589 -0.16898806 0.0950878 -0.043427948

bn1.weight f4 [512]
00000000: 1865 d83e 05d8 9a3b 3e57 213f 03d2 a43e
00000010: 8030 173f c8bc 463f 3027 033f 69da 323f
00000020: d051 183f 528d 843f 695b 183f 6698 4e3f
00000030: 5b41 233f 57af 053f 49f9 343f 36c1 383f
00000040: 1d00 0d3f ea1c 333f deb0 8f3e 2ff2 103f
00000050: d645 4d3f 2a89 653f bb4c 423f 2449 0dba
00000060: 6a86 e83e b95b 093f 4a3a 203f 2698 be3e
00000070: f1ec e93e ec79 013f 186c ec3e ac25 6bb8
00000080: ecb4 943e 2d38 e23e 7eb3 453f a450 0d3f
00000090: f489 2c3f 4ba8 1d3f 093c 033f 0e0a 6c3f
000000a0: c65b 0d3f 3a40 d43f 7410 363f 51a7 de3e
000000b0: 9703 8a3f 3458 963f 7414 e43e c486 c13f
000000c0: 28b2 2d3f 7347 123f e71e 223f 74a1 173f
000000d0: 0abe 523f c0c2 2b3f e98a 133f 6726 a53e
000000e0: 09fe 233f 6c09 193f 3062 243f 97f7 1e3f
000000f0: ec32 053f d6cc 4c3f ebf3 1b3f dac8 1e3f
00000100: 9315 e13e 4876 3f3f 8e2e 503f a1e1 e23e
00000110: d25d f33e 689f 663f 32dd 803f f931 f43e
00000120: 159f 673f 719a 063f 2e9e 433f 37a6 173f
00000130: 094b ad3e 13be b13e 847c 273f 953c ba3e
00000140: 2857 423f ea38 053f 4349 893f 48d4 f43e
00000150: e5f6 f83e 7e18 083f 36fb e73e b2e2 0d3f
00000160: 3648 543f ae00 633f dfaa fe3e cc7d 033f
00000170: 9806 0d3f dbde 193f ba76 233f 530d 3b3f
00000180: 02e8 263f d4be 1e3f b895 183f eb77 073f
00000190: 733b 1d3f ce3c 183f c359 303f 5dba 103f
000001a0: 983c 033f a024 1d3f 3d3d 3e3f c9d5 1a3f
000001b0: 5735 0b3f f5e8 f13e 57bb 093f 4b70 463f
000001c0: d26b 373f ecff 233f 2fea 143f 20f3 f63e
000001d0: 69b2 2b3f a3c6 d93e 85d2 5abb 76cb 6f3f
000001e0: f853 2b3f 18c8 253f a3dc 2f3f b80d 093f
000001f0: 6a98 1f3f 1c56 f53e f95b e03e c773 f53e
00000200: 6e9e bd3e 5947 be3f 73cb cf3f 1db4 ff3e
00000210: 4d3f 53bb ad62 703e d102 4b3f b231 153f
00000220: 6c34 db3e a0da dd3e c0df 8c3f d2c7 053f
00000230: e341 173f 247c 0d3f 620d 4f3f 2f74 d23e
00000240: c611 5e3f b597 143f 770a 0e3f cfb1 1e3f
00000250: 117c 933f 55cf 473f c74f 683f a8c4 083f
00000260: 894c 1e3f 765e ae3e cf40 fb3e 3dcd 003f
00000270: f777 3a3f a27a 843f ae64 443f d351 043f
00000280: 856f 293f 6aa6 843f 2585 173f 879b 353f
00000290: 171f fc3e 2c13 103f 9bb8 053f 9483 983f
000002a0: 88a8 0a3f bd5f 153f f013 ed3e 2691 1e3f
000002b0: 784b a53e a88f cd3e f0dc 213f e1bb 473f
000002c0: a312 1d3f 894c 563f ad2c 1d3f db86 1a3f
000002d0: 2951 463f 3c3f ee3e 1780 103f 603b 293f
000002e0: 3f27 2e3f 9b55 3b3f 2f42 193f b9ae a03e
000002f0: 11e0 3d3f 4858 3f3f 0fc3 123f 63f8 453f
00000300: a6f2 333f c5d3 ed3e 1ddc fa3e 54d3 ef3e
00000310: df8f 3a3f 56da 173f e89f 283f 233e 133f
00000320: 67de 9e3e 00ac 913f 4f50 093f 0aca f53e
00000330: 0aa7 d23e 8a43 343f 4187 073f 9ed9 0f3f
00000340: 04f1 7d3e 08e7 573f 7ea7 2b3f 548b d13e
00000350: 74b2 643f e046 303f 2abc b43e e61b 143f
00000360: faac bf3e a2fa ef3e 5f29 4f3f 27b6 343f
00000370: 2d08 f53e 53d7 993f bbf3 043f 789d 1f3f
00000380: e9fe 473f 4b06 293f d6ac ad3f 4690 a23f
00000390: 465e de3e faf2 1a3f d4e7 303f 38b9 453f
000003a0: f8cd 213f 593c f53e 292c 323f c85b 063f
000003b0: 6ff1 183f 9f33 303b 0022 ecba 2b9d 0c3f
000003c0: bf4f 1a3f 5af0 793f 0022 123f 9097 263f
000003d0: 5afc 5c3f cebb 153f 568f af3e ad4f 303f
000003e0: f911 7c3e 7337 3c3f 461e 273f 4ca8 433f
000003f0: 5631 103f d729 fb3e bb36 7d3f ca12 cf3e
0.42264628 0.0047254586 0.63023746 0.32191476 0.5905838 0.7763181 0.5123167 0.6986452
0.59499836 1.0355628 0.5951448 0.8070129 0.637716 0.5222067 0.7069288 0.72169816
0.550783 0.69965994 0.28064626 0.5661954 0.80184686 0.8966242 0.7589833 -0.0005389622
0.4541505 0.5365558 0.6258894 0.37225455 0.45688584 0.50576663 0.4617622 -5.606345e-05
0.29044282 0.44183484 0.7722701 0.5520117 0.67398 0.6158492 0.5126348 0.9220284
0.5521816 1.65821 0.71118855 0.43487027 1.0782346 1.1745667 0.44546854 1.5119252
0.6784997 0.5714027 0.63328403 0.5923073 0.82321227 0.6709404 0.57633835 0.3225586
0.640595 0.5978 0.6421232 0.6209654 0.52030826 0.80000055 0.60919064 0.62025225
0.43961772 0.7478986 0.81321037 0.44312766 0.47532517 0.90086985 1.0067503 0.47694376
0.90477115 0.5257941 0.7641324 0.59238 0.3384631 0.34715328 0.6542437 0.36374345
0.7591424 0.5203997 1.0725483 0.47818208 0.48625866 0.5316237 0.45308846 0.55424035
0.82922685 0.8867291 0.4973974 0.51363826 0.55088186 0.60105675 0.6385304 0.73067206
0.65197766 0.6200993 0.5960345 0.52917355 0.6141884 0.5946778 0.68886966 0.5653437
0.51264334 0.6138401 0.7431219 0.6048246 0.54378265 0.47248045 0.5380148 0.77515095
0.71648896 0.6406238 0.58169836 0.48232365 0.6706911 0.4253436 -0.003338964 0.9366983
0.66925 0.64758444 0.6869604 0.5353656 0.6234194 0.4791726 0.4382017 0.47939894
0.37034935 1.4865524 1.6233963 0.49942103 -0.0032233775 0.23475142 0.7930117 0.58278954
0.42813432 0.4333086 1.1005783 0.52258027 0.5908491 0.5526755 0.80879796 0.41104266
0.8674587 0.58043987 0.5548472 0.61990064 1.1522237 0.7805074 0.9074673 0.53425074
0.61835533 0.34056443 0.49072883 0.5031317 0.728393 1.0349925 0.76716125 0.51687354
0.6618579 1.0363286 0.5918754 0.7094044 0.4924247 0.56279254 0.5223481 1.1915154
0.5416341 0.5834921 0.46304274 0.6194023 0.3228414 0.40148664 0.6322775 0.78021055
0.6135656 0.83710533 0.61396295 0.60362023 0.7746759 0.4653262 0.5644545 0.66106224
0.68028635 0.731775 0.59866613 0.31383303 0.74170023 0.7474408 0.57328886 0.77332133
0.7029213 0.4645063 0.48996058 0.46840918 0.7287578 0.5931753 0.65869 0.5751669
0.31029055 1.1380615 0.53638166 0.48005706 0.41143066 0.70415556 0.52940756 0.5619143
0.24798971 0.843369 0.6705245 0.4092661 0.893348 0.68858147 0.35299808 0.5785507
0.37436658 0.46870905 0.809225 0.7059044 0.478578 1.2018837 0.51934403 0.62349653
0.7812334 0.6602523 1.356837 1.2700279 0.434313 0.60527 0.6910374 0.77235746
0.6320491 0.47897604 0.69598633 0.524838 0.597434 0.0026886237 -0.0018015504 0.5492732
0.6027793 0.9763237 0.5708313 0.65075016 0.8632256 0.5848969 0.34289044 0.68871576
0.24616231 0.7352211 0.6528057 0.76428676 0.5632528 0.4905536 0.9891164 0.40444022

bn1.bias f4 [512]
00000000: e4ec 98be dec3 a1bd e771 4ebf d320 1dbe
00000010: d772 10bf 6b3b 75bf 3a7e d2be 3509 85bf
00000020: aa3e 33bf 25ee 62bf 3bb5 1fbf a28d 8ebf
00000030: 62cf 22bf 24c4 f4be 238b 67bf d5ec 7dbf
00000040: 5c87 e3be 1536 70bf 726b fabd ccc0 23bf
00000050: d5a5 76bf 10e8 92bf ad92 61bf 4679 02bd
00000060: a1ce d7be f5e8 40bf 3151 40bf 38cc b1be
00000070: beb2 05bf 32e5 05bf 3a09 02bf 28a6 5bbd
00000080: b4f4 f5bc 7c93 ddbe eb59 5dbf 2684 0dbf
00000090: 1c79 3fbf 61e0 15bf 6b5a 20bf 4155 0fbf
000000a0: bb01 0dbf 57b6 f1be 6dbd 26bf 5f0e 9fbe
000000b0: ee47 3bbf d80c 90bf cefc 6dbe e9fb 0cbf
000000c0: 6294 13bf ee36 e3be bda0 4fbf 7d51 13bf
000000d0: 2af3 62bf 36a0 3cbf e9e6 34bf c6c3 6cbe
000000e0: 2832 b3be d8de ffbe c3a5 6bbf 50ef 38bf
000000f0: c58b 33bf e622 8fbf 687f f3be 6a00 29bf
00000100: 2e25 8cbe 2d53 66bf cb4c 50bf e248 aabe
00000110: d051 f7be 93dc 91bf 5b0b 8abf 3b93 67be
00000120: 3b07 2cbf 9c89 b6be 4318 5cbf d49e cabe
00000130: 1dda d0bd 1593 72be 8e6c 05bf 4c23 4abe
00000140: a8de 2cbf ae6e a8be 57e8 37bf 766e d3be
00000150: 5b1e 09bf 519c aabe 9aed b8be 904c 15bf
00000160: 743c 83bf 58f0 75bf 420d 05bf 9fcd bdbe
00000170: ddde 34bf 5cec 24bf a3c3 29bf 4383 68bf
00000180: e8f9 39bf a393 63bf d180 10bf 9db9 d6be
00000190: 2f81 44bf 0925 59bf be7e 20bf 537c 0fbf
000001a0: ba5f 04bf ca5f 26bf 67fe 2ebf 0736 30bf
000001b0: 9783 c4be c8b6 04bf 45bd 0bbf fc34 0abf
000001c0: c41e 28bf f135 0bbf ad51 1fbf 3123 bbbe
000001d0: 179a 6dbf 8e37 4fbe 7fe8 2bbd da83 9fbf
000001e0: 3c4d 40bf 28d3 0abf 6a61 2fbf 9a62 b4be
000001f0: fb3b 31bf cebd 17bf a246 5bbe 6629 02bf
00000200: e5bc 59be a963 53bf 0cb3 f63d dc56 19bf
00000210: bebc 02bd 3ce0 d13b cae8 1cbf 48a5 bbbe
00000220: 7eb9 72be 782b 48bd 4f67 65bf 3e67 4cbf
00000230: 22ff f7be c1f0 f3be 57e4 85bf 0b8b a4be
00000240: de6d 4dbf 9fe0 4bbf 0ff7 a7be a4f6 2dbf
00000250: 7b9a 93bf d202 49bf 65af a0bf b3dd 85be
00000260: f217 3dbf b859 dcbd be75 0fbf 42e6 e0be
00000270: 640e 6dbf e595 2fbf 5e21 43bf 96c2 f9be
00000280: 633c f6be 5e68 8abf 6d56 cdbe aa85 89bf
00000290: 2123 e3be ba67 edbe 83cc 16bf 84e4 16be
000002a0: 59f1 0fbf 30a8 853c 74b8 06bf be68 07bf
000002b0: e364 24be fdaf 91be 2036 24bf bc77 29bf
000002c0: 4b2a 1fbf 3025 15bf 976c 1dbf 93d2 2abf
000002d0: 880a 8fbf b322 d4be 1f85 1ebf b8f2 41bf
000002e0: d810 5fbf 00b7 69bf 3a1e 1cbf a49e 07be
000002f0: 2df6 7dbf 1332 26bf 680f 22bf 3cff 2abf
00000300: f5bd 5bbf 464c 99be 7933 3fbf 5cae 01bf
00000310: 8dbb 69bf 18bf 33bf ffdc 29bf 5135 1bbf
00000320: 0387 36be ed63 87bf c41b e2be 0f01 0fbf
00000330: 648c dcbe 24c5 2bbf d599 ebbe 763f a9be
00000340: ec58 c8bd 8630 9fbf 85e3 fbbe 702a c3be
00000350: 93be 69bf c49e 4dbf deae 7bbe dd93 2cbf
00000360: ac0d c4be 5c98 d9be be79 72bf c6bf 4fbf
00000370: b407 7cbe 1c7f 81bf 3a57 38bf b1d8 4bbf
00000380: 47f8 0fbf f1aa 3ebf 4a79 08bf 0d71 00bf
00000390: 27a8 29be 7c1f 08bf 36d7 99bf 5773 0abf
000003a0: 324a 37bf 2390 0fbf 83af 37bf e739 0dbf
000003b0: bb3a 75bf 58f4 59bd 32cf 12bd 66c4 0dbf
000003c0: 3dcd 47bf 7763 72bf c32c 22bf d9f5 07bf
000003d0: 69d2 6ebf 9a0d 27bf 9c36 16be 817a 3fbf
000003e0: ba25 f9bd 21a7 5abf bac3 46bf 1817 6dbf
000003f0: 51e7 03bf dd3d c4be 09c1 aebf 7b8b b7be
-0.29868233 -0.07898687 -0.8064255 -0.15344553 -0.5642523 -0.9579379 -0.41111928 -1.0393435
-0.7001749 -0.8864463 -0.6238591 -1.1136973 -0.6359769 -0.47805893 -0.9044668 -0.991895
-0.44439209 -0.9383252 -0.12227525 -0.6396606 -0.9634679 -1.147707 -0.88114434 -0.031853937
-0.42149833 -0.75355464 -0.7512389 -0.3472612 -0.52225864 -0.5230285 -0.5079533 -0.053625256
-0.03002391 -0.43276584 -0.8646533 -0.5527977 -0.74794173 -0.585455 -0.62637967 -0.5598946
-0.55080765 -0.47209427 -0.6513279 -0.31065652 -0.7315663 -1.125392 -0.23240969 -0.55071884
-0.5764829 -0.44377846 -0.8110464 -0.57546216 -0.8865229 -0.7368196 -0.7066484 -0.23121557
-0.34999204 -0.49974704 -0.9204981 -0.7224016 -0.70135146 -1.1182525 -0.4755814 -0.66016257
-0.27372116 -0.89970666 -0.81367177 -0.3325873 -0.48304605 -1.1395439 -1.0784715 -0.22614758
-0.6719853 -0.35651863 -0.8597452 -0.395743 -0.10197852 -0.2368892 -0.52118766 -0.19740027
-0.67527246 -0.32896942 -0.718389 -0.41295213 -0.53561944 -0.33322385 -0.36118776 -0.5831995
-1.0252824 -0.9606986 -0.51973355 -0.3707094 -0.7065256 -0.64423156 -0.6631414 -0.9082529
-0.7264695 -0.8889715 -0.5644656 -0.41938487 -0.7675962 -0.84822136 -0.62693393 -0.5604908
-0.5170857 -0.6498991 -0.6835694 -0.6883244 -0.38381645 -0.518414 -0.5458568 -0.539871
-0.65671945 -0.54379183 -0.62234 -0.36550286 -0.9281325 -0.20236036 -0.041969772 -1.2462113
-0.7511785 -0.5422845 -0.6850802 -0.35231477 -0.6923215 -0.59273994 -0.21413663 -0.5084442
-0.21263464 -0.82573944 0.12045869 -0.5989816 -0.03191828 0.0064049046 -0.6129271 -0.36649537
-0.23703572 -0.04886958 -0.8961076 -0.79845035 -0.48436838 -0.47644618 -1.0460309 -0.3213733
-0.8024577 -0.7963962 -0.32805678 -0.6795447 -1.1531519 -0.7851993 -1.2553526 -0.26145706
-0.7386466 -0.107593 -0.56039035 -0.43925673 -0.92600083 -0.68588096 -0.7622279 -0.4878127
-0.48092946 -1.08131 -0.40105 -1.0743916 -0.4436274 -0.463682 -0.5890581 -0.1473561
-0.5622764 0.01631555 -0.52625203 -0.528942 -0.1605411 -0.2845458 -0.6414509 -0.66198325
-0.6217391 -0.5825987 -0.6149382 -0.6672756 -1.1175089 -0.41432723 -0.61921877 -0.75760984
-0.87135077 -0.9129486 -0.6098362 -0.1324411 -0.9920376 -0.6492016 -0.6330476 -0.66795707
-0.85836726 -0.29941005 -0.74687916 -0.50656676 -0.91301805 -0.7021346 -0.6635284 -0.6062823
-0.1782494 -1.057737 -0.44161808 -0.5586099 -0.4307586 -0.6709769 -0.46015802 -0.3305623
-0.097825855 -1.2436683 -0.4919702 -0.38118315 -0.9130642 -0.8032038 -0.24578425 -0.6741312
-0.3829168 -0.42499053 -0.94717014 -0.81152 -0.24612314 -1.0116916 -0.720081 -0.7962752
-0.56238216 -0.74479586 -0.5331007 -0.501725 -0.16568051 -0.5317304 -1.2018802 -0.54082245
-0.7159759 -0.5607931 -0.71752185 -0.55166477 -0.9579274 -0.05321154 -0.035842128 -0.55377805
-0.78047544 -0.9468302 -0.6334955 -0.5310951 -0.9328981 -0.6525513 -0.1466927 -0.747963
-0.12165399 -0.8541127 -0.77642405 -0.92613363 -0.51524836 -0.38328448 -1.365266 -0.35848603

bn1.running_mean f4 [512]
00000000: e7ee c1bf 5a49 59bd 039d d5bf 6acf b8be
00000010: e0fc 52bf 7047 223d ad13 c33d 12f8 86c0
00000020: 6c5d d7bf cbac a63e 4df7 8c3f a331 73c0
00000030: 0081 f93f cad8 2940 e155 adbf 49f1 8fc0
00000040: 4528 1040 9298 9d3f 7e63 9140 6648 a03e
00000050: 01fb 083f d717 45bf 23ae 9a3f 2faa 5e3e
00000060: 8935 7140 c90e 7f40 95c5 5ec0 4569 0240
00000070: f56d dcbf 7802 72bf 0618 4abe 36ef da3d
00000080: 64bd f23f 8d36 8dc0 8b31 dabf 451f 22c0
00000090: 4d60 0040 fd8a 5cbe 4adc a8be 590d d8bd
000000a0: 4db5 da3d dfb3 b43e 717d 343f 8d49 1fbf
000000b0: 952b b83e 4353 c7bf 14e6 0240 a195 2b3f
000000c0: 9d03 16bd 1a86 9d3f cb23 84bd 9a38 c33e
000000d0: d1f8 973f 42e3 373e ccc0 ebbe 6b66 cf3f
000000e0: 28eb d93e 0187 10bf f62f d8bf d1ed 75bf
000000f0: 803e 9e40 161a 9dbf 3929 133f 603f 253e
00000100: 4087 213f 7d2b b23d 6a95 e5bf 0391 afc0
00000110: 76b9 64bf 81b4 9cbf bac9 f2be abd9 293e
00000120: 1b90 cdbf e2d0 e53f a7fe ab3e b683 0040
00000130: a346 bcbe 6b85 2940 c066 5040 1e53 00c0
00000140: 531c dbbf 8433 88be 052d 1dbf 0a2d 963f
00000150: 3c11 8d40 30e7 eb3e 3e8c 27c0 96d4 d5bf
00000160: 6311 023e 07c4 91bf ded6 a03f 5039 893f
00000170: 9269 e5bf 67ca e2bf 698c d0bf f7a3 1abe
00000180: 6773 e93f 3b0a 22c0 3b06 a7be 9491 753e
00000190: 7bfc 48c0 2e12 05c0 f59d 3940 459e 163f
000001a0: 8721 aebf be8d c7be b03b 4a40 86d4 8b3f
000001b0: 7cd7 3f40 c2dc 563f cb16 2dbf 6848 9a3f
000001c0: 649a 803e 0fcf 3640 c7c3 803d 8259 16c0
000001d0: 5a35 5b3f 129b 5740 5bd9 843e d682 0fbf
000001e0: e424 35bf d7d4 1840 e744 2540 2377 08c0
000001f0: a34e e6be e5dc 84bf 5c5c e8bf fe48 3240
00000200: a8d6 d0bf 7715 373f 042d 8d3f 1f2a e73d
00000210: c4fa 4fbd e90e fb3f efa2 d33e 40b5 b83f
00000220: e9a3 1540 6a7a 01c0 4275 213f 238f 33c0
00000230: eac5 413f 210c 71bf 75da 4ac0 0d19 f03f
00000240: 6de8 473e 9670 24c0 b838 423f 3d74 ab3e
00000250: 5628 0dbf d65d a7bf 506d 7abf 97d5 1240
00000260: 441c 5540 930e cebf 12f0 23c0 47a4 5440
00000270: 509c 62bf dd51 2fbc 2505 82be 5b6b c63f
00000280: 0e9b 523e 7690 3cbe 0643 743e 1c69 03bf
00000290: eec9 7abf 1ccf 0840 788a 843e 6f23 02bf
000002a0: b869 e3be f224 8240 812a 763e c903 31bc
000002b0: 09f2 ee3f a8f3 0abd 385e 66be aa56 c13f
000002c0: bad9 cabe 48af 123d 388b c23f 4d4b 263f
000002d0: 5f19 12c0 4f3b a03f f8e3 46bf d240 b23f
000002e0: 2006 aabf 1cef 533e 253b bbbf 14aa 90be
000002f0: e86c 4cc0 2caf d33e 5e51 23bf d19c 033f
00000300: 85a6 2fbf 626c 043e 399f 41bf 92b1 e23e
00000310: 33ed fdbe a401 a63f 55c9 313f 4422 39c0
00000320: f831 08c0 b840 1e3d 5bdf a43f b656 cdbf
00000330: 7372 60c0 d526 c23f 78d1 d73e 6a17 253f
00000340: 8849 7cc0 ffa7 303e 399e 113f 5e34 34bf
00000350: c8e2 843f 495e adbd dc55 80bd 683d 35c0
00000360: d8f5 aebe 602d 033f 95b5 8bbf 70e9 8d3f
00000370: aaab 0940 8de6 cc3e 95fe 2dc0 08e2 80c0
00000380: 2793 52bf 24e9 05c0 ec05 0d3f 3144 84be
00000390: 8703 8d3e 84b8 863f adbf 94bf 41d5 103f
000003a0: 7b68 97be 1da8 b4bf a326 e5bf 0207 913f
000003b0: b005 2bc0 bf45 dc3b 5cc8 573e 6c20 333f
000003c0: 62de ae3f 9168 6bbf 18f9 6840 3283 3e3f
000003d0: be08 69c0 87e1 40c0 a802 babc 4cc7 a9bd
000003e0: 3c27 a6bf 3c36 e6bf 57fb 77be e061 cfbd
000003f0: ca82 22bf 5e07 2640 e837 903f ef64 3fbf
-1.5151032 -0.05304847 -1.6688541 -0.36095744 -0.82417107 0.03961891 0.09525237 -4.217782
-1.6825385 0.32553706 1.101297 -3.7999046 1.9492493 2.6538568 -1.3541833 -4.4982038
2.2524579 1.2312186 4.543395 0.31305236 0.53508 -0.769895 1.2084392 0.21744607
3.7688925 3.9852774 -3.4808095 2.0376751 -1.7221056 -0.94535017 -0.19735727 0.10690157
1.8964047 -4.412909 -1.7046369 -2.5331585 2.0058777 -0.21537395 -0.32980567 -0.10549421
0.10679112 0.3529348 0.7050391 -0.62221605 0.3597075 -1.5572284 2.0452929 0.6702519
-0.03662454 1.230655 -0.064521395 0.3812912 1.1872808 0.17957786 -0.4604553 1.620313
0.42562222 -0.56456 -1.6889637 -0.96066004 4.9451294 -1.2273586 0.57484776 0.16137457
0.63097 0.08699701 -1.7936223 -5.4864516 -0.8934549 -1.2242585 -0.4741953 0.1658694
-1.6059602 1.7954371 0.33592722 2.008039 -0.36772642 2.6487682 3.2562714 -2.005073
-1.7118019 -0.26601803 -0.6139682 1.1732495 4.408354 0.4607482 -2.6179347 -1.6705501
0.12701945 -1.1387948 1.2565572 1.0720615 -1.7922843 -1.7718018 -1.629285 -0.1510161
1.8238343 -2.5318744 -0.3262194 0.23981315 -3.1404102 -2.0792346 2.900266 0.5883525
-1.3603982 -0.38975328 3.159893 1.0924232 2.9975271 0.839306 -0.67612904 1.2053347
0.2511779 2.8563879 0.062873416 -2.3492131 0.85628283 3.3688397 0.2594708 -0.56059015
-0.70759416 2.3879907 2.5823305 -2.1322715 -0.4498187 -1.0379912 -1.8153186 2.785705
-1.6315508 0.7151713 1.1029363 0.11287331 -0.050776258 1.9613925 0.41335246 1.4430313
2.3381293 -2.0230966 0.63069546 -2.8056114 0.7569262 -0.9415913 -3.1695836 1.8757645
0.19522257 -2.5693717 0.75867796 0.3348712 -0.5513967 -1.3075511 -0.9782305 2.2942865
3.3298502 -1.6098198 -2.5615277 3.3225267 -0.88519764 -0.01070067 -0.2539455 1.5501512
0.20566961 -0.18414482 0.23853692 -0.5133226 -0.9796437 2.137641 0.25886893 -0.5083532
-0.44416595 4.06701 0.24039651 -0.010804125 1.8667613 -0.033923775 -0.22496879 1.5104573
-0.39619237 0.035811692 1.5198736 0.6495865 -2.2827985 1.25181 -0.776916 1.3926032
-1.3283119 0.20696682 -1.4627424 -0.2825476 -3.194147 0.41344583 -0.6379603 0.5141116
-0.68613464 0.1293197 -0.7563358 0.442761 -0.4959503 1.2969251 0.69447833 -2.8927164
-2.1280499 0.03863594 1.2880663 -1.6042087 -3.5069854 1.51681 0.42152 0.6448885
-3.941988 0.17251585 0.56882054 -0.70392406 1.0381708 -0.08465249 -0.062663764 -2.831873
-0.3417194 0.5124111 -1.091479 1.1086864 2.1511025 0.40019646 -2.7186635 -4.0275917
-0.82255787 -2.0923548 0.5508716 -0.25833276 0.27541754 1.052506 -1.1620995 0.565754
-0.295719 -1.4113804 -1.7902416 1.1330264 -2.6722221 0.0067221816 0.21072525 0.69971347
1.3661616 -0.9195643 3.6402035 0.7441894 -3.6411586 -3.013765 -0.022706345 -0.08289966
-1.2980723 -1.7985301 -0.24216972 -0.1012609 -0.6348082 2.5941997 1.1267061 -0.7476339

bn1.running_var f4 [512]
00000000: 8eba 3d42 fb3d 983e 1fec 0642 1ff4 8641
00000010: 7f5a 0f42 8063 2342 8860 df41 9624 6242
00000020: fe45 4142 dc3e 3f42 d77c bf41 8eaa e841
00000030: 355a b742 6749 2442 ede0 be41 14dc d041
00000040: e49b db41 5d8d a441 fcac 8d41 e017 1542
00000050: e089 2d42 5d7e 1842 25e1 c742 96b5 333e
00000060: c8f6 0942 4032 9942 89cd ed41 ef39 4d42
00000070: e52e aa42 ea3a 2b42 0e41 8341 c8cd 823e
00000080: aff4 6a41 004d f041 55fa fd41 dc7a 0a42
00000090: 9cb1 d141 1c14 d441 c13f f641 d203 ca41
000000a0: 1c66 b641 209b fd41 f662 a441 3168 9541
000000b0: 3c01 0042 dcac ae41 8983 e441 ee43 5d42
000000c0: a9d1 9d41 0358 b741 f343 ae41 d7d5 8d42
000000d0: 28b6 2f42 f5a4 7942 d743 a441 55fc df41
000000e0: 82d2 a741 b586 fb41 85b9 a841 ca48 f841
000000f0: 8b55 e041 e9fe 5842 7362 8b41 302c 0242
00000100: 145e 9a41 763f 1e42 5f78 9f42 d65d 6b42
00000110: 85f6 1c42 b0cf b241 d66e 6642 2b42 aa41
00000120: 9c6c ec41 2dbb cd41 ca69 7f41 60f0 c341
00000130: 081b 6341 f753 9041 6def 0d42 4869 3742
00000140: 61d1 2f42 9a84 b141 02e2 e341 0683 6041
00000150: 9ef5 2342 2f1a c041 774e c541 7b47 f441
00000160: 5844 9a41 3705 8043 bd9d 1542 ff4e b041
00000170: cb0e ae41 52ad e241 87e3 ac41 1922 ce42
00000180: d8b4 4942 e2b1 5042 501e b741 678b db41
00000190: 2058 e441 ed30 fd41 c900 3a42 0be1 0642
000001a0: f899 6b42 e9ba a941 31c7 0642 0888 1d42
000001b0: 4f95 ed41 66d6 c041 f285 1c42 5a41 a341
000001c0: 8926 dc41 0e06 6542 aa6c 9541 da79 0342
000001d0: 912c 9041 1612 9c41 1e98 5c3e 8bcd 3041
000001e0: afbb 9d41 ae40 f141 7122 8541 6aa6 ba41
000001f0: 12bb 4742 3e75 b241 36eb f641 b1e1 d441
00000200: 5874 c241 c03b 6b42 ba7f 0942 54a7 1442
00000210: 379c f13e b88c 0942 887a 4342 ec9f 8c41
00000220: e449 8341 e7bf 7b41 7340 b441 735d dd41
00000230: 58b1 bf41 5775 be41 59d3 1342 af5f e341
00000240: bcad 2b42 0053 6841 5768 0942 c59e 3b42
00000250: 1dc6 da41 2157 d941 e87f 9241 4761 d542
00000260: f6ee 6142 e41e 9141 c63b ff41 357b c641
00000270: fce8 3642 d879 a941 33ad 4342 ebcd c641
00000280: 9630 0242 ca64 d241 bf90 b541 7397 ad41
00000290: e3b3 9e41 0e59 3442 410b 7d41 4d2c e641
000002a0: c3a8 8541 6b22 1542 8ab7 c041 bcf8 a741
000002b0: ec0a b341 9892 9e41 6b10 9741 13d9 b941
000002c0: 45a3 8441 c027 b741 dd17 0b42 0021 8741
000002d0: 8fa4 9041 9586 8342 ef04 9d41 3614 7b41
000002e0: 0b6b 8a41 0b40 a041 e2e3 3542 ca2a 0042
000002f0: 3290 eb41 0044 8d41 b238 1f42 3ad4 bb41
00000300: 711c 7142 0dba aa41 7afe 8e41 439c a741
00000310: da19 f641 36d6 2842 b06a 9b42 e36d 7941
00000320: d22a d741 e795 f541 2d4f 6141 ce97 9a41
00000330: b396 3042 b9f8 0642 c02e 8441 e533 9f41
00000340: 3734 9d41 ca2b 2b42 a2f3 d341 f41a 7042
00000350: 235c ad42 dc54 4142 109a 4d41 d349 9b42
00000360: 788c 1942 8ff9 e741 0f33 fa41 b080 e041
00000370: 31c5 9e41 de03 fc41 987c be41 653f 2742
00000380: 3224 b242 45b2 2f42 9667 ec41 770e 0742
00000390: 5ce6 ee42 0da9 b741 671c d241 77b9 9941
000003a0: ee0a e241 3a5a 8541 ca9a 3742 75db aa41
000003b0: d208 d441 838a 503f f66e bf3e f369 ad41
000003c0: 4c87 0942 0a48 0a42 5628 1f42 476b 2542
000003d0: 370e 9a41 5185 bb41 248c e941 f9ab 0e42
000003e0: a429 4842 d3b7 0242 e3c1 3a42 f025 8142
000003f0: a5c0 f841 2bc0 ce41 b9c6 cc41 3a3d 8941
47.432182 0.29734787 33.730587 16.8692 35.838375 40.847168 27.922134 56.53573
48.31835 47.811386 23.935957 29.083279 91.676186 41.071682 23.859827 26.10746
27.451118 20.569025 17.709465 37.273315 43.384644 38.1234 99.939735 0.17549738
34.490997 76.598145 29.725359 51.306576 85.09159 42.807533 16.406765 0.25547624
14.684737 30.037598 31.747232 34.61998 26.211723 26.509819 30.78113 25.251865
22.799858 31.700745 20.54832 18.675875 32.001205 21.834404 28.564226 55.316338
19.727373 22.917974 21.783178 70.917656 43.927887 62.41109 20.533125 27.998209
20.977787 31.440775 21.090586 31.035542 28.041769 54.248936 17.42307 32.54315
19.295937 39.561974 79.7351 58.841637 39.24074 22.35141 57.60824 21.282309
29.553032 25.716394 15.963327 24.49237 14.194099 18.040998 35.483814 45.852814
43.95447 22.189747 28.485355 14.031988 40.98986 24.012785 24.663313 30.534903
19.283371 256.04074 37.40404 22.038572 21.757223 28.33463 21.611097 103.0666
50.426605 52.173714 22.889801 27.443068 28.54303 31.64889 46.500767 33.71977
58.90036 21.216265 33.694523 39.382843 29.697905 24.104687 39.130806 20.40691
27.518816 57.255913 18.678059 32.868996 18.02176 19.508831 0.21542403 11.050181
19.716642 30.156582 16.641817 23.331257 49.932686 22.307247 30.86485 26.6102
24.306808 58.80835 34.374733 37.163406 0.47189495 34.38742 48.86966 17.578087
16.41108 15.734351 22.53147 27.67063 23.961594 23.807295 36.956394 28.42172
42.919662 14.520264 34.351894 46.90505 27.346735 27.167543 18.312454 106.689995
56.48336 18.140083 31.904186 24.81016 45.727524 21.184494 48.91914 24.850546
32.547447 26.299213 22.695677 21.69895 19.837835 45.086967 15.815248 28.771631
16.707403 37.28361 24.089619 20.996452 22.380333 19.821579 18.883017 23.230993
16.579721 22.89441 34.773304 16.891113 18.08035 65.762856 19.627409 15.692434
17.302267 20.031271 45.47254 32.041786 29.445408 17.658203 39.805367 23.478626
60.277775 21.340845 17.874256 20.9513 30.762623 42.20919 77.708374 15.589328
26.895908 30.698195 14.08183 19.324123 44.147167 33.742893 16.522827 19.90034
19.650496 42.792763 26.493961 60.02632 86.679955 48.33287 12.850113 77.64419
38.387177 28.996855 31.274931 28.062836 19.846285 31.501888 23.810837 41.81191
89.070694 43.92409 29.55058 33.764126 119.44992 22.957544 26.263868 19.215559
28.255337 16.669056 45.90116 21.357157 26.504307 0.8146135 0.37389344 21.676733
34.382126 34.57035 39.78939 41.354763 19.25694 23.440096 29.193428 35.667942
50.040665 32.679516 46.689342 64.5741 31.094065 25.843832 25.597033 17.154896

fc2.weight f4 [256, 516]
00000000: 6439 94be 0566 f0ba 9330 babe 5226 0e3f
00000010: 659c d5bf 968a 90be 78b7 3c3e 65fe 22bf
00000020: 4723 fdbd a1e0 5dbe c18f adbe 2111 183f
00000030: f2e3 e13d c78e 103f 0a44 e5bf 817a 4bbd
00000040: 87c9 a03e 3315 933f a10c 5f3e f449 403e
00000050: 6f5c c83e c731 033f c7ec 3e3f de7f 4fbd
00000060: 19cf f4be 4a56 043f b7e1 15be 2dd7 433e
00000070: e535 8c3e f9f0 65bf bde3 1fbf 57a5 4cbd
00000080: 47b0 053f 18c9 f83f 86a1 8f3e 026d 923c
00000090: a49e 32bf 146a a43e 7fa1 c5bf 5340 843e
000000a0: 6008 593f 804a 93bf 79dd 473f 778b ffbe
000000b0: ec28 b7bf 1a96 e2be be87 893f 9968 8cc0
000000c0: 20a6 593f f2ca cdbf 619c b53e 835e 5e3f
000000d0: 8904 41bf d4c4 c2be 00ee 55c0 716e 223e
000000e0: ba0a 33bf 4a35 093d b820 573e 4e25 cdbe
000000f0: 4640 583d 0d26 99bc a0b5 7c3e 29d2 033f
00000100: f77a 79bf c85d 273f 8573 4cbe 1e62 6ebe
00000110: ba93 a3bf cd19 b63e 57b3 a03f ae9c 753f
00000120: 74ab 803e 6a7a 03c0 ebe2 c43d 03f0 023f
00000130: dfc6 1a3f d2a2 e7be 1ea2 63bf d21c 2f3f
00000140: 843e ac3e 5f30 e63e db20 3fbe 7def 873d
00000150: 37cf b43f 3509 a63e d049 a33f db7d d0bf
00000160: 6b6e 05be b6d4 77be e6f3 a2be a5e6 08bf
00000170: 1ba4 6ebd afa8 413f 5362 42bd a4e2 cf3f
00000180: d902 0abf 55c1 89bf 9ef3 783f c7ad cbbf
00000190: 38f6 bf3d 7c90 43bf c42f 0ebf df51 f13e
000001a0: 4619 1cbd 2d2b cbbf 7930 663f 8fc1 463f
000001b0: cf11 1fbe 3bc8 25bf 963a 323f 2440 d83e
000001c0: ca5c fa3f ae30 db3d 8ff2 45bf 665f 453f
000001d0: db63 7d3c 4e21 8e3e 3e22 e0b9 87a9 c2bf
000001e0: a2e5 45be 6ad0 9bbe 94e0 e43e 0dfe 0a3f
000001f0: f552 383d 0c40 2dbf 2736 8ebe 700e be3e
00000200: 3a5b 9dbf 25e4 58bf c68c cbbf 3d99 b8be
00000210: 5012 22ba 5cd5 6abf 2cf1 453b ddd0 043e
00000220: 97db a73d fd90 46bc 99ce e33f af0f ec3e
00000230: 0200 17bf ac95 e9bf e605 9cbe d39c 943e
00000240: 4837 36bf ad09 d13e fe08 1ebf 8315 4fbe
00000250: cc7b 0abf fb56 88be 769b 153d 712e 33c0
00000260: a6bd 8c3f f519 863e 3d39 e33e 96ce 7abe
00000270: 87d6 7a3e 0295 8f3f 3318 393f c464 ab3f
00000280: 80ce 5d3e 9bc1 85bd 0e83 f2be a8b8 50be
00000290: 78f3 903e 1789 7fbd 27d3 093f 6d00 703e
000002a0: 48f0 1bbe cd1c bebe 66de 103f 951a f53e
000002b0: 8c41 8dbf 56d1 72be a1ba a2bf d66b 263f
000002c0: 6059 d8be fd53 60be b26a b2bd 988c 9e3f
000002d0: 5916 923e 7a96 0c3e 2171 d63d f993 fbbe
000002e0: 4329 283d 5342 0c3f e85f 2dbe a1cb 12bf
000002f0: a0a7 b93e f66e 4f3f f76c febe 0b0a d3bf
00000300: d7f7 2f3f 7e70 38bf e8e4 08bf 1556 12bf
00000310: 01cf 0f3f b813 31be a2fe a1bf 2ba9 883f
00000320: 340c 94bf c104 363f 98fd 05bf 6be4 c7be
00000330: 504f 06bf fed6 453f fb0e c23e d656 8abe
00000340: 3337 18bf fb6f 96be dded 133e 6861 b7bd
00000350: f8f7 70be 4814 ad3f 691a 06bd 4683 97ba
00000360: b1c6 dd3d adaf 8fbf 69ba 9fbf dd8e 8bbf
00000370: b2e0 90bf 6ebb c1bc 8687 16bf 9a76 b83e
00000380: 5cd5 9bbe afef 44be d3e8 7ebf cfb3 88c0
00000390: 8c26 703e 0714 5c3e b11c d83f 5a0c 56bf
000003a0: 183c d0bf a593 04bf 1fe5 bc3f 2eb9 55bf
000003b0: aa23 69bf c0be 43bd 7ea8 1dbd 0ad1 67bf
000003c0: f101 8f3f 7c58 033e d8e9 983e 7620 92be
000003d0: 2895 cebf a712 fe3e a6a6 393e 26bf 68bd
000003e0: 8d2c 12bf 679c 8e3f 8b8f 373e ae13 86bf
000003f0: 59a1 6fbe 542b 83bf 1790 ecbe f111 ddbe
-0.28950036 -0.0018340951 -0.36365184 0.5552722 -1.6688353 -0.28230733 0.18429363 -0.63669425
-0.12360244 -0.2166772 -0.33898738 0.59401137 0.11029805 0.5646786 -1.7911389 -0.049677376
0.31403753 1.1490844 0.21782161 0.18778211 0.3913302 0.5124783 0.74580044 -0.050659053
-0.47814253 0.51694167 -0.14636885 0.19125052 0.27384868 -0.8982082 -0.62456876 -0.049962368
0.522221 1.9436369 0.2805292 0.017874245 -0.69773316 0.3211218 -1.543991 0.25830325
0.84778404 -1.150711 0.78072315 -0.4991109 -1.4309363 -0.44255143 1.074455 -4.3877683
0.8501911 -1.6077559 0.3547087 0.86862963 -0.75397545 -0.38040793 -3.3426514 0.15862443
-0.6993824 0.033498086 0.21008575 -0.40067524 0.05279567 -0.018694902 0.2467866 0.51492554
-0.97453254 0.65377474 -0.19965942 -0.23279616 -1.2779458 0.3556656 1.255473 0.959422
0.25130808 -2.0543466 0.09613594 0.5114748 0.60459703 -0.4524141 -0.88919246 0.6840335
0.33641446 0.4495878 -0.18664877 0.06637476 1.4125737 0.324289 1.2756901 -1.6288408
-0.13030402 -0.24202237 -0.31826705 -0.53476936 -0.058261972 0.75648016 -0.04745705 1.624104
-0.53910595 -1.0762125 0.9724673 -1.5912408 0.093731344 -0.7639234 -0.55541635 0.47132775
-0.03811004 -1.5872551 0.89917713 0.77639097 -0.15534137 -0.6475865 0.69620645 0.42236435
1.9559567 0.10702644 -0.7732324 0.7709869 0.015465702 0.27759784 -0.00042750122 -1.5207986
-0.19325879 -0.30432445 0.4470259 0.542939 0.04500099 -0.6767585 -0.2777569 0.3712039
-1.2293465 -0.8472312 -1.5902336 -0.36054412 -0.00061825383 -0.9173181 0.0030203564 0.129703
0.0819618 -0.012119529 1.7797424 0.46105716 -0.58984387 -1.8248801 -0.3047325 0.29025897
-0.711781 0.40827695 -0.6173247 -0.2022305 -0.5409515 -0.2662886 0.036525212 -2.7997096
1.0995376 0.2619168 0.44379607 -0.24492869 0.24495898 1.1217349 0.7230255 1.3390126
0.21660805 -0.06531068 -0.47365612 -0.20382941 0.28310752 -0.0623866 0.5383782 0.23437662
-0.15228379 -0.37131348 0.56589353 0.47871843 -1.1035628 -0.23712668 -1.2713205 0.65008295
-0.42255688 -0.21907039 -0.08711757 1.2386656 0.28532675 0.13729277 0.104707964 -0.49136332
0.041054975 0.547887 -0.16931117 -0.57341963 0.362607 0.8102869 -0.4969251 -1.648744
0.6873755 -0.7204665 -0.53474283 -0.571626 0.5617524 -0.17292678 -1.2655833 1.0676626
-1.1566224 0.71101004 -0.5234008 -0.39041457 -0.5246477 0.7728118 0.37902054 -0.27019376
-0.5945923 -0.2938231 0.14446206 -0.08954126 -0.23532093 1.3521814 -0.03274003 -0.0011559508
0.10828913 -1.1225487 -1.2478763 -1.0902973 -1.1318572 -0.023648944 -0.5880054 0.36027986
-0.30436218 -0.19232057 -0.9957401 -4.2719493 0.23452204 0.21492015 1.6883756 -0.83612597
-1.6268339 -0.5178779 1.4757422 -0.83485687 -0.91070044 -0.047789335 -0.038490765 -0.90553343
1.1172467 0.12826723 0.2986591 -0.2854039 -1.6139269 0.49623606 0.18129978 -0.05682292
-0.5709923 1.114148 0.17925851 -1.0474756 -0.23401393 -1.0247598 -0.46203682 -0.4317775

fc2.bias f4 [256]
00000000: 05d7 ce3e 5064 08be 2cbf f3be a9be 8fbe
00000010: 355d e6be 4c61 b7bd f8c3 d4bc 053d 363c
00000020: 7e29 bebd c80d c8be e6be 5bbe 9ff0 a1be
00000030: 216c 76bd 52f5 bcbd 0aee 31bf 222b a9bd
00000040: 15f8 00bf bd49 fd3e fb33 263e 8afd 9cbd
00000050: 3482 2f3e 499c 293f 23ac 82be a8a4 393e
00000060: 9275 21bd b97c 833e 2331 95bf 4e64 2e3f
00000070: bf16 c5bd ccb3 6c3e a6b4 823f 9144 02bf
00000080: 9e9b 1ebe ab7e 6ebe 59dd 2d3f d862 ddbe
00000090: 7c23 063f 3588 1b3f 0fd2 87bf c1aa ab3e
000000a0: 6e93 1abc f570 91bf 2a40 923f d3b5 a2bf
000000b0: ad7c b7bd 7aaa 8bbe 1755 79bf 0137 103e
000000c0: b5d2 61bd 1718 efbd 8de1 1540 2eb9 d53e
000000d0: ba7f 0f3f d402 f5bc bae4 86bd a1ec 283d
000000e0: eb9a 4abd de20 61bd 07d9 aebe bdf4 763b
000000f0: 68e0 1a3f daec 80be e6d5 93bd 09ef 49bf
00000100: 7878 3dbf 8236 683e 3f08 28be 0dd4 a43f
00000110: 86c0 b2bf 6b4f 3ebb 7cbd 0ebf 11cd 0e3f
00000120: e378 5dbe d588 b2be 34a1 f43e 565b 44bd
00000130: 59be e0bd 97d0 663f 5c9c d4be 9138 ed3e
00000140: 77a8 a83e abe0 1d3e 92d2 f1bd 2f4c eb3e
00000150: 20b5 00be a919 b5be 7351 b3bd 9f6b 1ebe
00000160: 82c0 ad3c 899e 37bd cbc3 e1be 102a adbd
00000170: 36ea 40bf 79d1 8ebd 1147 8fbe 2de1 0ebe
00000180: d2d0 34bd f13c 24be f0af 59bf d3c1 963e
00000190: f7e9 56bf 2409 71bf cfe7 c43d b756 b13e
000001a0: eeab 64bf 16dd 88bf 8909 a83e dd17 c1bd
000001b0: d29a 0d3e 8ca2 b9be aa47 223f eac7 ae3e
000001c0: 1795 3fbf 113e ffbd 975e 443e 7b78 78bd
000001d0: 3783 af3d d65e f73e a205 9abd a45e 6fbe
000001e0: 5cde 2dbe 568d e3bd b19a 94bd a13f cbbd
000001f0: 6098 c33f 5bff 94bd cb19 8dbd b4a4 3240
00000200: 283f b8be ff39 37bf 48f9 8fbd 371c 18bf
00000210: 53d3 013f 0322 ecbd f08b 99bd 3f4c a3be
00000220: 2c91 123f 9891 b6bf deb8 fb3e 0e54 bdbe
00000230: b151 3a3e 72b3 82be 25a1 22bf 00de f53e
00000240: 8239 403f 1b50 43bf d55b f6bd d37f 8f3e
00000250: ea93 cdbd bc26 9b3e 56f4 2ec0 844a ba3e
00000260: 809d 3f3f cd63 5ebf 6c07 febe 5e3f 343f
00000270: f895 8fba a302 08be 3035 e83c cb9c febe
00000280: 97a0 1bbe 97fe db3e 6a92 04bf 418d 6c3f
00000290: 5a39 f1bd 3301 84be 826b 1ebe f510 3d3e
000002a0: e236 633e 3a2e 22bf 3565 80bd 9c38 fa3e
000002b0: 40d6 a6bd 2f3b 95bc 7edc 853e 9d97 26be
000002c0: 892e 3ebf 6c13 acbf 298b 99bf e566 053f
000002d0: 1da2 383f 41bf f2bd e6c1 d3bd 0d8b 1f3f
000002e0: 8e03 e83f b8e7 bf3d 1834 3dbf 43ee ad3f
000002f0: 69b1 f2bd ffbb 8cbe 0e6d d43d 9056 e5bd
00000300: ddf3 f7bd cc7e 3abf bf63 463e b346 863e
00000310: 6946 0d3f e41c ccbd e3ec 853f e8a1 acbd
00000320: 850c b0bd 0071 7bbd e260 403e f56a 7bbd
00000330: 7eb0 b3bd 29b6 e0bd 7c2b 0ebe e616 2d3e
00000340: 0724 9a3c f809 febf b51a 293f f7c5 fd3e
00000350: 197c 0dbf a6b6 11be ae37 e6bd 4699 0c3f
00000360: 2f72 80bf 9b34 d2bc 08bf a23d 28ad f83f
00000370: c88c fcbe a4e7 e7bd c3f7 1fbf 85c1 e1bc
00000380: 231b 70bf 49df 6abf 79bb 7dbf f877 0abf
00000390: e5d0 f43e ab35 73bf cd0b 93bf 606c c83e
000003a0: 962c 0ebf d352 cabd 442b 7dbd e557 263f
000003b0: 97db a5be 98af bcbe 26fb 25bf 6290 d1bd
000003c0: e5cc 95be 3622 bfbd 93ab 1fbf 69fc 363f
000003d0: 8f06 e3bd 01b7 20bf dcd7 563f 3497 37bf
000003e0: 6cb1 22be 0900 8a3e 1b05 56be a063 81bd
000003f0: ff19 9ebd 0706 073d c72f aebe 3c64 68bf
0.40398422 -0.13319516 -0.4760679 -0.2807515 -0.44992986 -0.08954105 -0.025972351 0.011122947
-0.09285258 -0.39073014 -0.2145954 -0.31628892 -0.060161714 -0.09226479 -0.69503844 -0.0826018
-0.50378543 0.4947032 0.16230766 -0.07665546 0.17139512 0.662541 -0.25521955 0.18129218
-0.039418764 0.25681093 -1.165562 0.681218 -0.09623479 0.23115462 1.021138 -0.50885874
-0.15489051 -0.23290507 0.67915875 -0.43239474 0.52397895 0.6075471 -1.061098 0.33528712
-0.009434564 -1.1362597 1.1425831 -1.2711738 -0.08959327 -0.272785 -0.9739546 0.14083482
-0.055132587 -0.11674517 2.3418915 0.41742843 0.5605427 -0.029908575 -0.06586595 0.041241292
-0.049464148 -0.054962985 -0.34149954 0.0037682496 0.60498667 -0.25180703 -0.07218532 -0.78880364
-0.74011946 0.22677043 -0.16409396 1.2877213 -1.3965003 -0.0029039036 -0.5575788 0.55781657
-0.21628146 -0.3487002 0.47779238 -0.047938667 -0.10973806 0.9016203 -0.41525543 0.4633222
0.32941028 0.15417735 -0.11807741 0.4595656 -0.12569094 -0.3537114 -0.087557696 -0.15470742
0.021209959 -0.044828925 -0.4409469 -0.084552884 -0.7535738 -0.069735475 -0.27983907 -0.13953085
-0.04414446 -0.16038872 -0.85034084 0.2944475 -0.8395075 -0.9415457 0.096145265 0.3463647
-0.89324844 -1.069247 0.32819775 -0.0942838 0.1382859 -0.36256826 0.633906 0.34136897
-0.7483687 -0.1246301 0.19176708 -0.060661774 0.08569949 0.48314542 -0.075206056 -0.23375946
-0.16979355 -0.11110942 -0.072560675 -0.099242456 1.5280876 -0.07275268 -0.06889685 2.7913027
-0.35985684 -0.7157287 -0.070299685 -0.5941805 0.5071308 -0.11529925 -0.07497394 -0.3189411
0.57252765 -1.4263182 0.4916448 -0.3697819 0.18195225 -0.2552753 -0.6352714 0.48020935
0.7508775 -0.76294106 -0.12029234 0.2802721 -0.10037978 0.3030299 -2.733663 0.36384976
0.748497 -0.86871034 -0.49615037 0.7040919 -0.0010954728 -0.13282256 0.028345674 -0.49729
-0.15197979 0.42967674 -0.5178591 0.92403036 -0.11778517 -0.25782165 -0.15470698 0.184635
0.22188905 -0.63351786 -0.06269304 0.48871315 -0.08146334 -0.018216697 0.26144785 -0.16268773
-0.74289757 -1.3443427 -1.1995593 0.5211013 0.72122365 -0.11852885 -0.103397176 0.6232155
1.8126085 0.09370369 -0.73907614 1.3588337 -0.118502446 -0.2748718 0.10372363 -0.11198151
-0.1210706 -0.72849727 0.19373988 0.26225814 0.5518556 -0.09966448 1.0462917 -0.08429319
-0.08596138 -0.061387062 0.18786958 -0.0613813 -0.087738976 -0.10972244 -0.13883775 0.16903266
0.018816007 -1.9846792 0.66056377 0.49565098 -0.55267483 -0.14229831 -0.11241089 0.54921377
-1.0034846 -0.02565985 0.079465926 1.9427843 -0.49326158 -0.11323479 -0.6248743 -0.027558098
-0.9379141 -0.91746956 -0.99114186 -0.5408931 0.47815624 -0.95003766 -1.1487976 0.39145184
-0.5553678 -0.09879079 -0.06180884 0.64977866 -0.32394096 -0.36852717 -0.6483635 -0.10232617
-0.29257885 -0.09332697 -0.62371176 0.714789 -0.11085235 -0.6277924 0.83923125 -0.7171509
-0.15887994 0.26953152 -0.20900385 -0.0631783 -0.07719802 0.032964732 -0.34020826 -0.90777946
