DRLND-2-continuous-control-master/checkpoint_actor.pth (torch_old, 613233 bytes, 14 tensors)

fc1.weight f4 [512, 33]
0	0x3d020fa4	0.031753197
1	0xbf9a9fb5	-1.2079989
2	0xbeeb49ae	-0.4595465
3	0x40427c5c	3.0388403
4	0x3e22d157	0.1590017
5	0x3f97b610	1.1852436
6	0xbfa1ae88	-1.2631388
7	0x3e3f9a62	0.18711236
8	0xbfc3c116	-1.52933
9	0xbeb9b2ff	-0.36269376
10	0xbbdcc8cb	-0.0067378036
11	0x3d510481	0.051029686
12	0x3c53451d	0.012894896
13	0xbf2c66b3	-0.67344207
14	0x3ea00a07	0.3125765
15	0x3f75a866	0.9596008
16	0x3ff1e2d1	1.8897344
17	0xbfd61581	-1.6725312
18	0xbfd36a72	-1.651686
19	0x407d3120	3.9561234
20	0x3dc786e5	0.09742526
21	0x3eacefbc	0.33776653
22	0xbe96ca38	-0.29451156
23	0x3e52e9ac	0.20596951
24	0xbe0a3d0e	-0.13499853
25	0x3e52dbd1	0.20591666
26	0x3f266eb2	0.6501266
27	0xbc0e8a91	-0.008700029
28	0xbf46ca44	-0.7765238
29	0x3d332927	0.043740418
30	0x3ce08e8d	0.027411724
31	0x3d1d2325	0.038363595
32	0x4011a439	2.2756484
33	0xbbe3257d	-0.006931959
34	0x3ce41d90	0.027846128
35	0x3d919b7e	0.07109736
36	0x3c0ad780	0.008474231
37	0xbcfc0c1c	-0.030767493
38	0xbcd60514	-0.026125468
39	0x3cb2a1f5	0.021805743
40	0xbd995360	-0.07486606
41	0x3bdab696	0.006674598
42	0xbb9cf9fd	-0.004790543
43	0xbb174bcc	-0.002308595
44	0x3aa95ed8	0.0012921942
45	0x3dbab099	0.091157146
46	0xbcddb499	-0.027063655
47	0xbca39f4c	-0.01997342
48	0xb846223d	-4.7238766e-05
49	0x3d8e8862	0.06959607
50	0xbd3d7750	-0.046256363
51	0xbb1c2e0c	-0.0023831157
52	0xbcfb613b	-0.030686012
53	0xbd0b214e	-0.03396731
54	0xbcac973f	-0.021068214
55	0x3d987a3c	0.07445189
56	0xbd0ea5be	-0.034826033
57	0xbcefb4f7	-0.029261095
58	0x3e11c58c	0.14235514
59	0xbd926474	-0.07148066
60	0xbbb5f71f	-0.005553141
61	0x3a2bf88e	0.000656017
62	0xbd1cd67d	-0.03829049
63	0x3ce4969e	0.027903851
64	0x3ccf5d62	0.025313083
65	0xbc56311a	-0.01307323
66	0x3eca17be	0.3947124
67	0xbef2b908	-0.47406793
68	0xbe991228	-0.29896665
69	0xc0160eff	-2.3446653
70	0x40b343ac	5.6020107
71	0xc06f1246	-3.7354903
72	0x3ff031d3	1.8765205
73	0xbd0e86ae	-0.03479641
74	0xbf7fcc2b	-0.9992091
75	0xbebe0c8c	-0.37118948
76	0x3ede958a	0.43473464
77	0xbd323982	-0.043511875
78	0x3dd7245c	0.10504982
79	0xbf2b4e2e	-0.6691617
80	0x3f2b60db	0.66944665
81	0x3c7cdd81	0.01543367
82	0x3e9c1dcd	0.30491486
83	0xbf2191c2	-0.63113034
84	0xbf9df240	-1.2339554
85	0xbfcefe44	-1.6171346
86	0x3d361f84	0.04446365
87	0xbdc071ca	-0.093967035
88	0x3da84f00	0.08218193
89	0xbf06842c	-0.5254543
90	0x3ea817db	0.328307
91	0xbeab952e	-0.33512253
92	0x3f54074a	0.8282362
93	0x3cd49618	0.025950477
94	0x3e6e01e7	0.23242913
95	0xbc0b9b24	-0.008520875
96	0xbd12e52f	-0.035863098
97	0xbd2934f9	-0.041310284
98	0x3f77cf7d	0.96800977
99	0xbe41f09b	-0.1893944
100	0x3eb75f00	0.35814667
101	0xbf2fd726	-0.68687665
102	0xbf8cf039	-1.101081
103	0xc0565198	-3.34873
104	0x403616e0	2.8451462
105	0xbfc3091b	-1.5237154
106	0x3e320dc0	0.17388058
107	0xbe20b2fb	-0.15693276
108	0x3e2e4813	0.17019682
109	0x3ec30c01	0.38095096
110	0x3e9c28b3	0.304998
111	0x3e2ed177	0.17072092
112	0x3ef1e639	0.47245958
113	0xbf289f8d	-0.65868455
114	0x3e80ec17	0.25180122
115	0xbf769ad5	-0.96330005
116	0x3d7093dd	0.058734763
117	0xc07875e4	-3.8821955
118	0x402c3791	2.6908915
119	0xbd022cf6	-0.03178116
120	0x3e0ebc85	0.13939102
121	0x3ddaae31	0.106777556
122	0x3eb36077	0.35034534
123	0x3c17ef3d	0.009273347
124	0xbe55d254	-0.20881015
125	0xbe93565b	-0.28776821
126	0x3cac6667	0.021044923
127	0xbdfff825	-0.12498502
128	0xbd33465d	-0.043768276
129	0xbd30788a	-0.043083705
130	0xbd208432	-0.03918857
131	0x4099effc	4.810545
132	0xbebd620d	-0.3698887
133	0xbefdac3b	-0.49545464
134	0xbf8a9fd6	-1.0830028
135	0xc04e6c04	-3.2253428
136	0x409c2809	4.879887
137	0x3f8a785c	1.0817981
138	0x3febb0fb	1.8413385
139	0x3ddca2af	0.10773217
140	0xbe891ff8	-0.26782203
141	0xbe85a3a3	-0.26101407
142	0xbe6e2e8f	-0.23259948
143	0x3e5d9567	0.21639024
144	0xbd958475	-0.07300655
145	0x3e47613d	0.19470687
146	0x3ebfb245	0.37440696
147	0x3ed76017	0.42065498
148	0x3fa8f99c	1.3201175
149	0x3fbe0d13	1.484774
150	0xbf035b42	-0.51311123
151	0xbf8c74cc	-1.0973144
152	0x3d99eba2	0.075156465
153	0x3c3ef019	0.011653923
154	0xbe6cb069	-0.2311417
155	0xbdccb84f	-0.099960916
156	0x3de49f7d	0.111632325
157	0xbdedbd86	-0.11608414
158	0x3c4775ba	0.012174064
159	0x3b91d19a	0.0044500353
160	0xbdcefe4d	-0.10107098
161	0x3ca9a0e6	0.020706605
162	0xbd02e484	-0.03195621
163	0xbcca1698	-0.024668977
164	0xc091eb38	-4.559963
165	0xbec321f1	-0.38111833
166	0x3f155f94	0.58348966
167	0xbe91fa02	-0.28511053
168	0x400bb044	2.1826334
169	0xbf776521	-0.96638685
170	0xc037dbd7	-2.872793
171	0x3fcb128c	1.5865035
172	0x3e7fb157	0.24969994
173	0x3ed422c8	0.41432786
174	0xbe9695cd	-0.29411164
175	0xbdd3e0f7	-0.10345643
176	0x3e3028e7	0.17203103
177	0xbd210bcc	-0.03931789
178	0xbe83c231	-0.25734094
179	0xbe96246b	-0.2932466
180	0x3f1afc6a	0.60541403
181	0xc0987d47	-4.7652926
182	0xbd750339	-0.059817526
183	0x3fbfa606	1.4972541
184	0xbecce2af	-0.40016696
185	0xbe6b8fd5	-0.23004086
186	0x3dca6750	0.098829865
187	0x3ea03d4d	0.3129677
188	0x3e53e712	0.20693615
189	0x3ea741fd	0.32667533
190	0x3ef9c3c3	0.48782167
191	0x3f069d88	0.52584124
192	0xbbeeede8	-0.007291544
193	0xbeda16b2	-0.4259544
194	0xbca24bcb	-0.019811532
195	0xbceb207e	-0.028702017
196	0x3d177701	0.036978725
197	0x408fc939	4.4933133
198	0xbecc8a49	-0.39949253
199	0x3e313804	0.17306525
200	0x3e814fa9	0.25256088
201	0x3e2f6fee	0.17132542
202	0x3f859e99	1.0439025
203	0x40249e5d	2.5721657
204	0xbf2bcdf1	-0.67111117
205	0x3eb13c5a	0.34616357
206	0xbee69ced	-0.450416
207	0x3eeeb8e7	0.46625444
208	0xbf881986	-1.0632789
209	0x3dbe2e8e	0.09286223
210	0xbf7d3abf	-0.98917764
211	0x3f18b10b	0.59645146
212	0xbe017793	-0.1264327
213	0x3d1e83d6	0.038699947
214	0xc06f306d	-3.7373307
215	0xbf68fd57	-0.91011566
216	0xbf231ef1	-0.6371909
217	0x3ff7f0c9	1.9370357
218	0xbe1951b7	-0.14972578
219	0x3d5f7904	0.05455877
220	0xbdca3680	-0.09873676
221	0xbedc8d58	-0.43076587
222	0xbf797148	-0.9743848
223	0xbf2485c3	-0.64266604
224	0x3f77eef2	0.96848977
225	0x3c1328ef	0.008981927
226	0x3e88c413	0.26712093
227	0xbd11b646	-0.03557422
228	0x3c9d80ad	0.019226396
229	0x3cd1e802	0.025623325
230	0xc05b0ecb	-3.422778
231	0xbf840be1	-1.0316125
232	0x3fe2b2b8	1.7710791
233	0x3ecef5b7	0.4042184
234	0x3ed6e4da	0.41971475
235	0xc06e4880	-3.723175
236	0x3fb75a65	1.4324461
237	0xbed65be5	-0.41866985
238	0x3ed3e5c8	0.41386247
239	0xbf181045	-0.59399825
240	0xbd32e037	-0.04367086
241	0xbd9bccc1	-0.07607413
242	0x3d950d20	0.07277894
243	0xbe01f235	-0.12690051
244	0xbe4c2fdc	-0.19940132
245	0xbe6cf2de	-0.23139521
246	0xbe93fb6a	-0.2890275
247	0xbf0ab8eb	-0.5418841
248	0x3c9ea6aa	0.019366581
249	0xbee11103	-0.4395829
250	0xc06d2ecd	-3.7059815
251	0x3d4a7f83	0.04943801
252	0x3d05ac83	0.032635223
253	0x3df631bf	0.12021207
254	0xbea42409	-0.32058743
255	0xbcd18a2f	-0.025578586

fc1.bias f4 [512]
0	0x3d57169d	0.0525118
1	0xbce09628	-0.02741535
2	0x3e1a314a	0.15057865
3	0x3d849ef6	0.06475632
4	0x3d7fae26	0.06242194
5	0xbd7aeee1	-0.06126297
6	0x3cd46191	0.02592543
7	0xbd8cba4c	-0.06871471
8	0xbe184014	-0.14868194
9	0x3da9b84f	0.08287107
10	0xbd9f3e53	-0.07775559
11	0xbe1470c1	-0.14496137
12	0xbd6b0a43	-0.057382833
13	0xbd6f8df6	-0.058484994
14	0xbe2d74dc	-0.1693911
15	0xbc44f373	-0.012020933
16	0xbddf5184	-0.1090422
17	0x3e22eac4	0.15909868
18	0x3d4adfe0	0.04952991
19	0x3db90e0f	0.090358846
20	0x3d22ff32	0.039794154
21	0xbd17d43c	-0.037067637
22	0xbe093d06	-0.13402185
23	0x3e29b6b5	0.16573603
24	0x3da03b87	0.07823854
25	0xbcd25e82	-0.02567983
26	0xbd40b74b	-0.0470498
27	0x3e06c95c	0.1316275
28	0xbe20cbb7	-0.15702711
29	0x3d81eb7a	0.06343742
30	0x3d82f50f	0.063943975
31	0x3da969d0	0.08272135
32	0xbe2166b6	-0.15761837
33	0xbe0fc7f8	-0.14041126
34	0x3e0de36a	0.13856283
35	0xbd88e1f5	-0.06683723
36	0x3ddbbbf6	0.1072921
37	0xbdf10422	-0.117683664
38	0x3d51de0f	0.051237162
39	0x3e0d042c	0.13771123
40	0xbd86718f	-0.06564628
41	0x3d86ba5d	0.06578515
42	0xbd9a7f84	-0.07543853
43	0x3e06604f	0.13122676
44	0xbc89440e	-0.016756084
45	0x3de34a9b	0.11098214
46	0xbdadd553	-0.08487954
47	0xbc1fd2c7	-0.009754843
48	0xbd750199	-0.059815977
49	0xbb6322c8	-0.0034658182
50	0x3e15fcbf	0.14647196
51	0xbc748b8b	-0.014925848
52	0x3d8b9655	0.06815783
53	0x3d36704e	0.044540696
54	0x3e152d12	0.14567974
55	0x3b9d9e1b	0.0048101074
56	0xbd7da441	-0.061924223
57	0x3e228810	0.15872216
58	0xbe0e8b3c	-0.13920301
59	0x3d915c3b	0.0709767
60	0xbe0e57c0	-0.13900661
61	0xbdbddea3	-0.0927098
62	0xbe2e9d1d	-0.17052121
63	0x3db36e7c	0.087613076
64	0xbe045972	-0.12924746
65	0xbc0dcfe8	-0.008655526
66	0x3dbe5ef2	0.09295453
67	0x3d43dc9d	0.047817815
68	0x3d809c5d	0.06279824
69	0x3dd07fcf	0.101806276
70	0x3ce4627a	0.027878989
71	0xbdbef307	-0.093236975
72	0xbc952abb	-0.018208852
73	0x3d864472	0.06556024
74	0x3d89385d	0.067002036
75	0xbe1201fd	-0.14258571
76	0xbd1f0aeb	-0.03882877
77	0xbdc567d4	-0.09638944
78	0x3c991b05	0.018689642
79	0xbdbfd8ce	-0.09367524
80	0xbd872758	-0.06599301
81	0xbd8ea495	-0.06964985
82	0x3dbd0022	0.09228541
83	0xbd577943	-0.05260588
84	0xbe16bee1	-0.14721252
85	0xbdb95835	-0.09050027
86	0xbd95209a	-0.07281609
87	0x3dc7bc87	0.097527556
88	0xbd1c05da	-0.038091518
89	0xbe200503	-0.15626912
90	0x3dcf0dd4	0.101100594
91	0x3e1af288	0.15131581
92	0xbe01d857	-0.12680183
93	0xbdcb5be5	-0.09929637
94	0x3e06d0b2	0.13165548
95	0xbe0de734	-0.13857728
96	0x3c87e0c2	0.016586665
97	0xbded8f8c	-0.11599645
98	0xbdf6862b	-0.12037309
99	0xbe30c0f9	-0.17261113
100	0x3df4d85b	0.11955329
101	0x3ce30853	0.02771393
102	0x3e125182	0.14288905
103	0xbddba787	-0.10725313
104	0xbdfc7557	-0.12327068
105	0x3dc3eb33	0.09566345
106	0x3e1ab72e	0.1510894
107	0xbd66e5a1	-0.056371335
108	0x3e2e85ff	0.17043303
109	0x3e17dadd	0.14829583
110	0xbccc2f14	-0.024924792
111	0x3dc6fdc7	0.09716373
112	0x3d921769	0.071333714
113	0xbe121444	-0.14265543
114	0x3d97a95f	0.07405352
115	0x3e00004d	0.12500115
116	0xbd1ce2eb	-0.038302343
117	0xbdadd63a	-0.08488126
118	0x3da79155	0.08182017
119	0xbd729ec5	-0.059233446
120	0x3e20580f	0.15658592
121	0x3e10595b	0.14096586
122	0x3e2781b4	0.16358072
123	0x3e28979c	0.16464084
124	0xbd351515	-0.04420956
125	0xbd1685df	-0.036748763
126	0xbe0543f9	-0.13014211
127	0xbbcafee4	-0.006194936
128	0xbd1d6058	-0.03842196
129	0x3dd4d2fc	0.103918046
130	0x3ddc6114	0.10760704
131	0xbde167b5	-0.11006109
132	0xbced56b0	-0.028972
133	0x3c8ed60c	0.01743605
134	0x3e11975e	0.14217898
135	0xbdca1e3c	-0.09869048
136	0xbc322354	-0.010872681
137	0x3d4a5b2c	0.049403355
138	0xbd6ebbd6	-0.058284603
139	0xbda9beb0	-0.08288324
140	0x3d15b281	0.036547188
141	0x3db7c342	0.08972789
142	0xbd773d31	-0.06036109
143	0x3e29283e	0.16519257
144	0xbda3ae4f	-0.07992231
145	0xbe2fce9c	-0.17168659
146	0x3e0a3d70	0.13499999
147	0xbd28c01c	-0.041198835
148	0xbd5368ad	-0.0516135
149	0x3d0ae21e	0.03390705
150	0xbd9976ed	-0.074933864
151	0xbdd66a2f	-0.10469472
152	0xbdfdc2d4	-0.12390676
153	0x3e2f55b6	0.1712254
154	0x3e27cd8f	0.16387008
155	0xbdab8d14	-0.08376518
156	0xbde1932c	-0.11014399
157	0x3aa982aa	0.0012932618
158	0x3de16df3	0.11007299
159	0xbd975162	-0.073885694
160	0x3cbc5698	0.02299051
161	0x3e16d5ce	0.14729998
162	0xbdd2dbdc	-0.10295841
163	0xbdd21c8b	-0.102593504
164	0xbe002070	-0.12512374
165	0xbd4bdd00	-0.04977131
166	0xbd338474	-0.04382749
167	0xbe1380ce	-0.14404604
168	0xbcf32058	-0.029678509
169	0x3d4d2d32	0.05009193
170	0x3e28a818	0.16470373
171	0xbd4392c2	-0.04774738
172	0x3e09d623	0.13460593
173	0x3db4278d	0.08796606
174	0x3df1eafb	0.11812397
175	0x3db07947	0.08616882
176	0xbde44be4	-0.111472875
177	0xbd5f824f	-0.05456763
178	0xbdfaa42f	-0.12238347
179	0xbdd7c93f	-0.105364315
180	0x3e02fabc	0.1279096
181	0xbdf21ba8	-0.11821681
182	0x3df30c73	0.11867609
183	0xbd0af15e	-0.033921592
184	0x3e0602da	0.13087025
185	0x3e17da8d	0.14829464
186	0xbc52b65d	-0.012860862
187	0x3e089b67	0.13340531
188	0x3d9bbd69	0.076044865
189	0xbe05c00a	-0.13061538
190	0xbd022bbd	-0.031779993
191	0xbd891130	-0.066927314
192	0xbd59c08b	-0.05316214
193	0xbda5d0fe	-0.08096503
194	0xbd08b604	-0.03337671
195	0x3c91df12	0.017806564
196	0xbbdbb372	-0.006704741
197	0x3dab7d78	0.08373541
198	0xbe027c3e	-0.12742707
199	0xbd0aa707	-0.033850696
200	0x3c96f180	0.018425703
201	0x3c11561f	0.0088706305
202	0xbd953baa	-0.07286771
203	0x3e2e9060	0.17047262
204	0x3e16d5a0	0.14729929
205	0xbdc38857	-0.09547489
206	0x3deb09a1	0.11476446
207	0x3e2bd92b	0.16782062
208	0xbe29484f	-0.1653149
209	0xbe291a28	-0.16513884
210	0x3e2481ec	0.16065186
211	0x3dfa61b2	0.12225665
212	0xbe1d9be9	-0.15391506
213	0x3c8338c8	0.016018286
214	0x3e070d8a	0.13188758
215	0xbbacc1fc	-0.005272148
216	0x3e29b9e2	0.16574815
217	0xbd9d5c06	-0.07683568
218	0x3df9e4b2	0.12201823
219	0x3d0526fb	0.032507878
220	0xbdd67e64	-0.10473326
221	0xbe200963	-0.15628581
222	0xbcbd68bb	-0.023121228
223	0x3d9cb9f9	0.07652659
224	0x3dabfcf2	0.08397855
225	0x3dd735c7	0.10508304
226	0x3d3150f7	0.043290105
227	0x3d417f1e	0.04724037
228	0xbd04d8cd	-0.03243332
229	0x3cdf75b8	0.027277812
230	0xbe303eea	-0.172115
231	0x3e02c8ec	0.12771958
232	0xbc4a543b	-0.012349184
233	0x3c57374b	0.013135741
234	0x3debee39	0.11520047
235	0xbde450ed	-0.11148248
236	0xbd1153f6	-0.035480462
237	0xbe1580c2	-0.14599898
238	0xbdd6c28a	-0.10486324
239	0x3dda8743	0.106703304
240	0x3d66c68e	0.0563417
241	0xbde7d5a9	-0.11320049
242	0x3da4dbb0	0.080497146
243	0xbc07e881	-0.008295179
244	0xbd8d3db4	-0.068965346
245	0xbdcb0c54	-0.09914461
246	0x3d211974	0.039330915
247	0xbd952cf0	-0.07283962
248	0x3e0fb5ac	0.14034146
249	0xbc081eae	-0.008308096
250	0x3dfef5f5	0.12449256
251	0x3df4d2da	0.11954279
252	0xbe14dc47	-0.14537154
253	0xbe2d4e0d	-0.16924305
254	0x3dc32bc2	0.095298305
255	0xbd345569	-0.044026766

bn1.weight f4 [512]
0	0x3f85c19b	1.0449709
1	0xba420699	-0.0007401496
2	0x3f4d13d2	0.8010837
3	0x3f494447	0.7861981
4	0x3f8051d5	1.0024973
5	0x3f44ce29	0.76877075
6	0x3f04c5e2	0.51864445
7	0x3f722a78	0.9459605
8	0x3f90dbc5	1.1317068
9	0x3f3fdca2	0.74946034
10	0x3f56d50a	0.8391882
11	0x3f8c37e4	1.0954556
12	0x3f4260d7	0.75929016
13	0x3f6800e5	0.90626365
14	0x3f867e41	1.050728
15	0x3f80cbc3	1.0062183
16	0x3f8a06f5	1.0783373
17	0x3f554471	0.8330756
18	0x3f8cd8e9	1.1003696
19	0x3f799091	0.97486216
20	0x3f4cfe10	0.8007517
21	0xbb8d0b6f	-0.0043043415
22	0x3ed6ca55	0.41951242
23	0xbf6e04b7	-0.92975944
24	0x3f701e4f	0.9379625
25	0x3f5d8e2c	0.8654506
26	0x3f999be6	1.2000701
27	0x3f686403	0.90777606
28	0x3f5973b3	0.8494217
29	0x3f8616f0	1.047575
30	0x3f2841ed	0.65725595
31	0x3a06300d	0.00051188545
32	0x3f405558	0.75130224
33	0x3f527066	0.82202756
34	0x3f58cb2c	0.84685016
35	0x3fb67398	1.4254026
36	0x3f701b2c	0.9379146
37	0x3f5b2fec	0.8562
38	0x3f807626	1.0036056
39	0x3f6c6a7c	0.9234998
40	0x3f0d6626	0.5523399
41	0x3fbee306	1.4913032
42	0x3f78efb4	0.9724076
43	0x3f37b183	0.71755236
44	0x3f8687dc	1.0510211
45	0x3f6defda	0.9294411
46	0x3f947fd8	1.1601515
47	0x3f58d129	0.84694153
48	0x3f45d122	0.77272236
49	0x3f524257	0.82132477
50	0xbf6fc044	-0.9365275
51	0x3f9f08a0	1.2424507
52	0x3eeba13b	0.46021447
53	0x3f2b6fce	0.66967475
54	0x3f6405d9	0.8907142
55	0x3f7539f0	0.9579153
56	0x3f7af09a	0.9802338
57	0x3f55c38b	0.835015
58	0x3f6a35fa	0.9148861
59	0x3f888a3f	1.0667189
60	0x3f5e0de1	0.8673993
61	0x3f9ca47b	1.2237695
62	0x3f30c924	0.69056916
63	0x3f3716d5	0.71519214
64	0x3f7531ed	0.95779306
65	0x3f5e0909	0.86732537
66	0x3f6d5b86	0.9271778
67	0x3f8a5b5d	1.0809132
68	0x3f5a7043	0.8532755
69	0x3f88482f	1.0647029
70	0x3f3cde51	0.7377673
71	0x3f59e061	0.85108
72	0x3f3ed011	0.74536234
73	0x3f1df8d3	0.617078
74	0x3f9474f1	1.1598188
75	0x3f2ff0d8	0.68726873
76	0x3f7c8368	0.9863801
77	0x3f77d427	0.96808094
78	0x3f89fcff	1.0780333
79	0x3f64d10b	0.89381474
80	0x3f9624cf	1.1729983
81	0x3f382e2c	0.7194545
82	0x3f70da35	0.9408296
83	0x3f808f4a	1.0043728
84	0x3f622bd8	0.8834815
85	0x3f6434bd	0.8914297
86	0x3f4e0bb7	0.80486625
87	0x3f09ab82	0.53777325
88	0x3f827424	1.0191693
89	0x3f9a7b85	1.2068945
90	0x3f81f0fe	1.015167
91	0xbb1b7108	-0.0023718495
92	0x3f6e858b	0.9317252
93	0x3f68ceb7	0.9094042
94	0x3f863a44	1.0486531
95	0x3f831bd8	1.0242872
96	0x3f4e0683	0.80478686
97	0x3f3ea35d	0.7446802
98	0x3fa2200b	1.2666029
99	0x3f61ad2e	0.88154876
100	0x3f6a58b2	0.9154159
101	0x3f429749	0.7601209
102	0x3f867044	1.0503011
103	0x3f46dec6	0.77683675
104	0x3f1b4db6	0.6066545
105	0x3f78655c	0.9702966
106	0xbb46f00f	-0.0030355488
107	0x3f71ca85	0.94449645
108	0x3f5cc2bc	0.8623464
109	0x3f2e6001	0.6811524
110	0x3f7123f6	0.941955
111	0x3fb6ba81	1.4275666
112	0x3f7f8035	0.99805003
113	0x3f64584c	0.8919723
114	0x3f894eeb	1.0727209
115	0x3f90d133	1.1313843
116	0x3f29a0bc	0.66260886
117	0x3f9122ae	1.1338708
118	0xbb906c4b	-0.004407441
119	0x3f7da08e	0.9907311
120	0x3f809cf7	1.0047902
121	0x3f608e3e	0.87717044
122	0x3f55f31b	0.83574075
123	0x3f50c7bc	0.8155477
124	0x3f791232	0.9729339
125	0x3f40c003	0.75292987
126	0x3f81caa2	1.0139964
127	0x3f818bf0	1.012083
128	0x3f51cab6	0.8194994
129	0x3f37cd87	0.71797985
130	0x3f8f48a8	1.1194048
131	0xbf588263	-0.84573954
132	0x3b8287a5	0.0039834552
133	0x3f6e598d	0.93105394
134	0x3f4f89e8	0.81069803
135	0x3f882adf	1.0638083
136	0x3f5e272d	0.8677853
137	0x3f8f5e37	1.1200627
138	0x3f6754ba	0.9036366
139	0x3f1c089e	0.6095065
140	0x3f3fdf07	0.7494969
141	0x3f3bd3fa	0.73370326
142	0x3fa2a7db	1.2707475
143	0x3f8337e5	1.0251433
144	0x3f3ea69d	0.7447298
145	0x3f4f38b7	0.80945915
146	0x3f263149	0.64918953
147	0x3a34a6cd	0.00068913103
148	0x3f8905c3	1.0704883
149	0x3f3279a5	0.69716865
150	0x3f29468e	0.6612328
151	0x3f6f0cb9	0.9337879
152	0x3eea4a80	0.45759964
153	0x3f4b25ba	0.7935444
154	0x3f4e3d35	0.80562145
155	0xbc0f5d36	-0.008750251
156	0x3f73a767	0.9517731
157	0x3f60908b	0.87720555
158	0x3f56c68b	0.838967
159	0x3f61344b	0.8797042
160	0x3f97a5a0	1.184742
161	0x3f354179	0.7080303
162	0x3f349c62	0.7055112
163	0x3f5c7d71	0.8612891
164	0x3f5624d4	0.83649945
165	0x3f50b2c5	0.8152278
166	0x3f86a44f	1.0518893
167	0x3f937888	1.1521158
168	0x3f275046	0.6535686
169	0x3f8996fd	1.0749203
170	0x3f36985c	0.7132623
171	0x3f57e280	0.84329987
172	0x3f354a13	0.70816153
173	0x3f9395d4	1.1530099
174	0x3f268f2f	0.6506223
175	0x3f8077cd	1.003656
176	0x3f8af9db	1.08575
177	0x3f6f4715	0.9346784
178	0x3f514974	0.81752706
179	0x3f8b9f9f	1.0908087
180	0x3f6c369b	0.9227082
181	0x3f6a30f9	0.91480976
182	0x3f02a05d	0.51025945
183	0x3f7ad617	0.97982925
184	0x3f6c6a50	0.9234972
185	0x3f32c70c	0.6983497
186	0x3f645d1a	0.8920456
187	0x3f4c48af	0.79798406
188	0x3f6b97b3	0.9202835
189	0x3f58c003	0.84667987
190	0x3f81ef2b	1.0151113
191	0x3f02c813	0.5108654
192	0x3f8c55b0	1.096365
193	0x3f7f6d20	0.99775887
194	0x3a51ed3d	0.00080080685
195	0x3f439bf0	0.76409817
196	0x3f48ea0f	0.78482145
197	0x3f7f5dc5	0.99752456
198	0x3f6b0ec3	0.918194
199	0x3f64cb78	0.8937297
200	0x3f5f110d	0.8713539
201	0x3f5c4026	0.8603538
202	0x3f58463d	0.84482175
203	0x3f4154ef	0.75520223
204	0x3f503fee	0.8134755
205	0x3f49c972	0.78823006
206	0x3f869a7c	1.0515895
207	0x3f14b8bc	0.5809438
208	0x3fa9d7d9	1.3268996
209	0x3f8342ef	1.0254802
210	0x3f5f080f	0.8712167
211	0x3f724db9	0.94649845
212	0x3f862e4f	1.0482882
213	0x3c44ac80	0.012004018
214	0x3f7eeff7	0.9958491
215	0x3f851425	1.0396773
216	0xb993dfeb	-0.00028204857
217	0x3f9213e4	1.141232
218	0x3f85b1df	1.0444907
219	0x3f065386	0.52471197
220	0x3f650681	0.8946305
221	0x3f762ca3	0.9616186
222	0x3f6aa9fc	0.91665626
223	0x3f387f91	0.7206965
224	0x3f77d580	0.9681015
225	0x3f6e8db8	0.93184996
226	0x3f9cd693	1.2252983
227	0x3f73599b	0.950586
228	0x3f9755e6	1.1823089
229	0x3f8002b6	1.0000827
230	0x3f917d0a	1.1366284
231	0x3f940f8f	1.1567248
232	0x3f3259c6	0.69668233
233	0x3f21ba9f	0.63175386
234	0x3f6f81f6	0.9355768
235	0x3f84baf5	1.0369555
236	0x3f5c7a89	0.86124474
237	0xbc1b36fd	-0.009473559
238	0x3f8682b6	1.050864
239	0x3f548b24	0.8302481
240	0x3f7c0c1f	0.98455995
241	0x3f6f1fcb	0.9340789
242	0x3f4f6924	0.81019807
243	0x3f4a54f5	0.79035884
244	0x3f49cd35	0.78828746
245	0x3f618240	0.8808937
246	0x3f937437	1.1519841
247	0x3f7f605b	0.997564
248	0x3f3a44ea	0.72761405
249	0x3f20edee	0.6286305
250	0x3f5b9527	0.85774463
251	0x3fb0df77	1.3818196
252	0x3f7c32bd	0.9851492
253	0x3f8f937d	1.1216885
254	0x3f234639	0.63779026
255	0x3f878230	1.0586605

bn1.bias f4 [512]
0	0xbf4dcb1a	-0.80388033
1	0xbda99d8c	-0.08282003
2	0xbf1589cf	-0.58413404
3	0xbf050c31	-0.5197173
4	0xbfae6c8e	-1.3626878
5	0xbf02cefb	-0.5109708
6	0xbda5f108	-0.08102614
7	0xbf8c6630	-1.0968685
8	0xbf9f310c	-1.2436843
9	0xbf0c184d	-0.5472458
10	0xbf53c8ce	-0.8272828
11	0xbfac5bb4	-1.3465486
12	0xbf66e91c	-0.90199447
13	0xbf838838	-1.0275946
14	0xbfa80d31	-1.3129026
15	0xbf7cde42	-0.9877664
16	0xbf912359	-1.1338912
17	0xbf2c6d72	-0.673545
18	0xbf8e1dfc	-1.11029
19	0xbf6fceb8	-0.936748
20	0xbf1e0d12	-0.61738694
21	0xbce43196	-0.027855676
22	0x3e120d62	0.14262918
23	0xbf72b8fb	-0.9481351
24	0xbf31d109	-0.6945959
25	0xbf710f95	-0.941644
26	0xbf4c46ce	-0.7979554
27	0xbf694f4c	-0.9113662
28	0xbf37eaf8	-0.7184291
29	0xbf753cf8	-0.95796156
30	0xbe929a04	-0.2863313
31	0xbc255d22	-0.010093005
32	0xbf4c3728	-0.7977166
33	0xbf7040d6	-0.9384893
34	0xbf1daa81	-0.61588293
35	0xbeae2558	-0.34012866
36	0xbe870529	-0.26371124
37	0xbf4d118b	-0.80104893
38	0xbf892eb5	-1.0717379
39	0xbf3d6a5b	-0.7399041
40	0x3d520d0e	0.05128198
41	0xbf6ee2e8	-0.9331498
42	0xbf89be3d	-1.0761181
43	0xbf1af8a7	-0.60535663
44	0xbf644f1f	-0.8918323
45	0xbf8b0a56	-1.0862529
46	0xbf815a9d	-1.0105778
47	0xbf16ab5e	-0.58855236
48	0xbf3fc30a	-0.7490698
49	0xbf4991ad	-0.7873791
50	0xbf2c5cef	-0.67329305
51	0xbf80453f	-1.0021132
52	0xbdcaec47	-0.099083476
53	0xbf0247ce	-0.50890815
54	0xbf30a769	-0.6900545
55	0xbf54f4cc	-0.8318603
56	0xbf55de6f	-0.8354253
57	0xbf176a15	-0.59146243
58	0xbf93ddc4	-1.1552052
59	0xbf519477	-0.81867164
60	0xbf6dfa22	-0.929598
61	0xbf907c0f	-1.128786
62	0xbf0b0734	-0.54307866
63	0xbe3a9dd9	-0.18224277
64	0xbf858579	-1.0431358
65	0xbf3549d1	-0.7081576
66	0xbf1e4e15	-0.61837894
67	0xbf934235	-1.150458
68	0xbf4a7315	-0.7908185
69	0xbf84a7f4	-1.0363755
70	0xbe792449	-0.24330248
71	0xbf2729f1	-0.6529837
72	0xbef62014	-0.4807135
73	0xbf05d0df	-0.52271837
74	0xbf9b2c9d	-1.212299
75	0xbeea3eef	-0.4575114
76	0xbf833b31	-1.0252439
77	0xbf270bcb	-0.6525237
78	0xbf8b55da	-1.0885575
79	0xbf630e99	-0.8869415
80	0xbfbc5b43	-1.4715351
81	0xbef88ec1	-0.48546413
82	0xbf6bdea4	-0.921366
83	0xbf4bae8a	-0.795632
84	0xbf759332	-0.9592773
85	0xbf8e030e	-1.1094682
86	0xbf217dbe	-0.6308249
87	0xbe5e0ed7	-0.21685348
88	0xbf712b1c	-0.94206405
89	0xbfb51084	-1.4145665
90	0xbf300559	-0.6875816
91	0xbdcab5d7	-0.098979644
92	0xbf68608d	-0.90772325
93	0xbf558362	-0.834036
94	0xbef5e84c	-0.4802879
95	0xbfb163a4	-1.3858533
96	0xbf2d5e67	-0.6772217
97	0xbf705894	-0.9388516
98	0xbf3a5eb7	-0.72800773
99	0xbf4089af	-0.7521009
100	0xbfa04ef6	-1.2524097
101	0xbf13ebfa	-0.57781947
102	0xbf988596	-1.1915767
103	0xbefc702f	-0.4930434
104	0xbeb028dd	-0.34406176
105	0xbf940957	-1.156535
106	0xbd7e9924	-0.062157765
107	0xbf64b611	-0.8934031
108	0xbf3b24e4	-0.73103166
109	0xbe8e65fe	-0.2781219
110	0xbf939897	-1.1530942
111	0xbf6d31c3	-0.92654055
112	0xbf8e34f8	-1.1109915
113	0xbf27e3dc	-0.6558206
114	0xbfa2d3d3	-1.2720894
115	0xbf82af88	-1.0209818
116	0xbebe44ca	-0.37161857
117	0xbe81e1a5	-0.25367466
118	0xbcf15322	-0.029458586
119	0xbf6fb823	-0.93640345
120	0xbf701e20	-0.9379597
121	0xbf661cb3	-0.8988754
122	0xbf2989af	-0.66225713
123	0xbf4a194b	-0.78944844
124	0xbf551981	-0.8324204
125	0xbf1951fc	-0.59890723
126	0xbfa43989	-1.2830058
127	0xbfb2afe1	-1.3959924
128	0xbf32e1aa	-0.69875586
129	0xbed8ddd2	-0.42356735
130	0xbf2f3d80	-0.68453217
131	0xbf8d2877	-1.1027974
132	0xbd6b5720	-0.057456136
133	0xbf452f34	-0.7702515
134	0xbf27ab1b	-0.6549546
135	0xbfa35f22	-1.2763407
136	0xbf20fdfd	-0.62887555
137	0xbf9b4f30	-1.2133541
138	0xbf81dd3d	-1.0145642
139	0xbeaff899	-0.34369352
140	0xbefad418	-0.4898994
141	0xbec8b927	-0.3920376
142	0xbf1651f4	-0.587188
143	0xbf81fb6a	-1.015485
144	0xbf15c8c5	-0.58509475
145	0xbf14252d	-0.57869226
146	0xbe9a24fd	-0.30106345
147	0xbda1eb7c	-0.07906243
148	0xbf1a69d6	-0.6031774
149	0xbecc590f	-0.39911696
150	0xbf33d575	-0.70247585
151	0xbf6ae303	-0.9175264
152	0xbd8546d1	-0.06507648
153	0xbec47d15	-0.3837668
154	0xbf380892	-0.7188808
155	0xbdb869bc	-0.09004542
156	0xbf397e65	-0.7245849
157	0xbf83e4ce	-1.0304201
158	0xbf4e1a93	-0.805093
159	0xbf638a59	-0.88882977
160	0xbfac4146	-1.345742
161	0xbeacfcc8	-0.33786607
162	0xbf21fc31	-0.6327544
163	0xbf2cdbd4	-0.6752293
164	0xbf64cd21	-0.893755
165	0xbf255c20	-0.64593697
166	0xbf99b277	-1.2007588
167	0xbf82230a	-1.0166943
168	0xbe6011c5	-0.21881779
169	0xbf6c0976	-0.92201936
170	0xbf1727e8	-0.5904527
171	0xbf34cf13	-0.7062847
172	0xbf2261f4	-0.63430715
173	0xbf9bfe5b	-1.2186998
174	0xbe9f83ff	-0.31155393
175	0xbf6a6118	-0.91554403
176	0xbf87435a	-1.0567429
177	0xbf65e266	-0.8979858
178	0xbf84479f	-1.0334357
179	0xbf2f076b	-0.68370694
180	0xbf08d4a1	-0.53449446
181	0xbf8214b7	-1.0162572
182	0xbe50ef82	-0.20403865
183	0xbf8c5cad	-1.0965782
184	0xbf73e914	-0.95277524
185	0xbebad68a	-0.36491805
186	0xbf34c226	-0.70608747
187	0xbe8becd4	-0.27329123
188	0xbf853e23	-1.0409588
189	0xbf365a37	-0.71231407
190	0xbf7a3fe6	-0.9775375
191	0xbdf995c5	-0.121867694
192	0xbf9f406a	-1.2441533
193	0xbf445922	-0.76698506
194	0xbc407695	-0.011747022
195	0xbf13baf6	-0.57707155
196	0xbf0fa034	-0.56103826
197	0xbf63901e	-0.8889178
198	0xbf143393	-0.57891196
199	0xbecc26d5	-0.39873376
200	0xbf51132f	-0.81669897
201	0xbf89c7b3	-1.0764068
202	0xbf45290b	-0.7701575
203	0xbf4e3a98	-0.80558157
204	0xbf5aa414	-0.85406613
205	0xbe2d780c	-0.16940325
206	0xbf85b066	-1.0444458
207	0xbeaa3b9e	-0.3324861
208	0xbfd3ca3a	-1.654609
209	0xbf77d9a0	-0.96816444
210	0xbf5ae83a	-0.855106
211	0xbf90b441	-1.1305009
212	0xbf7fb897	-0.99891037
213	0xbe1a64c3	-0.150775
214	0xbf829d94	-1.0204339
215	0xbf8889c4	-1.0667043
216	0xbdf94364	-0.12171057
217	0xbf9bd060	-1.2172966
218	0xbf93f379	-1.1558677
219	0x3b60eefe	0.0034322138
220	0xbf5c32b4	-0.86014867
221	0xbf8a7c22	-1.0819132
222	0xbf4a52ca	-0.79032576
223	0xbea418b9	-0.32050112
224	0xbf8c60d4	-1.096705
225	0xbf5c0546	-0.85945547
226	0xbfe8cbd1	-1.81872
227	0xbf929ac9	-1.1453487
228	0xbf958d6c	-1.1683784
229	0xbf971a5d	-1.180492
230	0xbf392182	-0.72316754
231	0xbf45e0b2	-0.7729598
232	0xbf317795	-0.6932309
233	0xbe8076a2	-0.2509051
234	0xbf323215	-0.6960767
235	0xbf8289d4	-1.0198312
236	0xbf3c77ef	-0.73620504
237	0xbd88482f	-0.06654393
238	0xbf565260	-0.83719444
239	0xbf4b80c8	-0.7949338
240	0xbfb79904	-1.4343572
241	0xbf8bb5cf	-1.0914859
242	0xbf241833	-0.64099425
243	0xbf6f6db6	-0.9352678
244	0xbf3e19e9	-0.74258286
245	0xbf84fdf9	-1.0390006
246	0xbf261afb	-0.6488492
247	0xbf77fb55	-0.9686788
248	0xbf08fab4	-0.5350754
249	0xbecca369	-0.39968422
250	0xbf16a2a9	-0.5884195
251	0xbfb6b22e	-1.4273126
252	0xbf5477ff	-0.829956
253	0xbf965b74	-1.1746659
254	0xbe97a0b9	-0.2961481
255	0xbf986b18	-1.1907682

bn1.running_mean f4 [512]
0	0x407b0ace	3.9225345
1	0x3b1d5292	0.0024005515
2	0xc0122878	-2.28372
3	0x3f8cb6d0	1.099329
4	0xc00ca537	-2.197584
5	0x3c125c5c	0.008933153
6	0x3f13e29f	0.5776767
7	0xc04d3845	-3.2065594
8	0x3f3580af	0.7089948
9	0x40c8b508	6.2720985
10	0x3f8fee6a	1.1244633
11	0xbf3754f1	-0.71613985
12	0xbfc1c747	-1.513894
13	0xbf953918	-1.1658049
14	0xbecc061a	-0.39848405
15	0xbec2128c	-0.37904775
16	0x3fd2deab	1.6474203
17	0x40910870	4.53228
18	0xbe460b55	-0.1934026
19	0xc013ed24	-2.311349
20	0x3fd2f1d8	1.6480055
21	0x3d8087bf	0.062758915
22	0x3f8ddd4a	1.1083157
23	0x40679b10	3.6188393
24	0x40572ac5	3.3619854
25	0x3ff00784	1.8752294
26	0x3fb93ab2	1.4471037
27	0xc071154d	-3.766925
28	0xbf6f8349	-0.935597
29	0xbf63dd5f	-0.8900966
30	0x4038fca1	2.8904192
31	0x3e692971	0.22769715
32	0x3f9f3c25	1.244023
33	0xc06c1053	-3.6884964
34	0x3f7d4182	0.9892808
35	0x3f3fe656	0.7496084
36	0x4003acd8	2.0574245
37	0x40326120	2.787178
38	0xbfa3b13b	-1.2788461
39	0x3f0a79fc	0.54092383
40	0xbf383fe9	-0.7197252
41	0x3e5fe1a7	0.21863423
42	0xc0159cdc	-2.337699
43	0x3faa3294	1.3296685
44	0xbfdddf41	-1.7333757
45	0xbfa6f04e	-1.3042085
46	0x3d18dc6f	0.037319597
47	0x3fcab26e	1.5835702
48	0xbfeb3be8	-1.8377657
49	0x400f6c00	2.2409668
50	0x3febb681	1.8415071
51	0xbf7167f9	-0.94299275
52	0x3ff4f8ca	1.9138424
53	0x4100b215	8.043477
54	0x408eff70	4.4686813
55	0xbfa6510b	-1.2993482
56	0xbffd69eb	-1.9797949
57	0x40aba85e	5.3643026
58	0xc0920cdf	-4.564071
59	0xbbaca481	-0.005268634
60	0x3fe484cc	1.7853026
61	0xbf5d93ce	-0.8655366
62	0x3fe14483	1.7599033
63	0x3ffa6bb0	1.9564114
64	0xbec0db0e	-0.37667125
65	0x3f9e16a6	1.2350662
66	0x3f82bfc0	1.0214767
67	0xc00f730d	-2.2413971
68	0x3f0fdd86	0.5619739
69	0x4011c71f	2.2777784
70	0x40977118	4.7325554
71	0x4086a60a	4.2077684
72	0xbe872654	-0.2639643
73	0x3fe0ffda	1.757808
74	0x3f568da2	0.83809865
75	0x3e1de0af	0.15417741
76	0x3fab3d01	1.3377992
77	0xc0943848	-4.6318703
78	0x3f8b95e6	1.090512
79	0x4093a270	4.613579
80	0x3f5284d9	0.8223396
81	0x3eeed70a	0.46648437
82	0x3fcbf2f2	1.5933516
83	0x3f7bb0ff	0.9831695
84	0xc076b051	-3.8545115
85	0xc02ab131	-2.667065
86	0xbf238a41	-0.63882834
87	0x3fd5294a	1.6653225
88	0xbf490bf6	-0.78533876
89	0x3f678817	0.9044203
90	0x3f178102	0.59181225
91	0x3e071eb1	0.13195302
92	0xc02dac63	-2.7136467
93	0xbfe8ebeb	-1.8196996
94	0x3eabbaac	0.33540857
95	0x3ff0eec1	1.8822862
96	0xbe8967a8	-0.26836896
97	0xc0687314	-3.6320238
98	0x40400e9e	3.0008922
99	0x409eea85	4.966128
100	0xc040e8c0	-3.014206
101	0xbfdd3169	-1.7280704
102	0x3f246b96	0.64226663
103	0x3ebaeac8	0.3650725
104	0x40571f7c	3.3612967
105	0xc0553bcf	-3.3317754
106	0x3e87fd9d	0.2656068
107	0x3f9d7fae	1.230459
108	0x3fa8650a	1.3155835
109	0x3ffcee59	1.9760238
110	0xc01ccb98	-2.4499264
111	0xbf36875c	-0.7130029
112	0x3e2f0d18	0.17094839
113	0x3fb798ab	1.4343466
114	0xbf88e876	-1.0695941
115	0x3fdbccf6	1.7171924
116	0x405e3913	3.4722335
117	0x3e9879ee	0.29780525
118	0x3ea4f6b4	0.3221947
119	0x3e7641ce	0.2404854
120	0xbd80cf13	-0.06289496
121	0xbfb5f86a	-1.4216435
122	0x3e8a2286	0.26979464
123	0xc0b2414f	-5.5704722
124	0x40066b58	2.1003017
125	0x3fefb6c2	1.8727648
126	0xc08daffb	-4.427732
127	0xc01afb0b	-2.4215724
128	0x3e82d68d	0.25554314
129	0xbfc3191f	-1.5242041
130	0x3f83f124	1.0307965
131	0x400e0135	2.2188237
132	0x3b96d372	0.004602843
133	0xc047ec12	-3.1237836
134	0x3f1cbc1f	0.6122455
135	0xc04ab027	-3.1670015
136	0xbf91d5db	-1.1393389
137	0x3e15fd80	0.14647484
138	0xbfbbd56b	-1.4674505
139	0x3fef0594	1.8673577
140	0x3e013557	0.12618004
141	0x3f925e6f	1.1435069
142	0x3fcfb434	1.6226869
143	0x3ea75f49	0.32689884
144	0xbfcea5e2	-1.6144373
145	0x3f6090ed	0.8772114
146	0xbf85bfbf	-1.0449141
147	0xbde548a9	-0.111954994
148	0xbf93ed76	-1.1556842
149	0x3f59d51b	0.850908
150	0xbf680857	-0.90637726
151	0x3eec8897	0.4619796
152	0x3e698395	0.22804101
153	0xbfaaae6c	-1.3334479
154	0x401312f9	2.298033
155	0x3f036ce8	0.5133805
156	0x3e887412	0.26651055
157	0xbf5a80cb	-0.8535277
158	0xbf775d34	-0.9662659
159	0xbf856f65	-1.042462
160	0x3ea66e0c	0.32505834
161	0x4039762a	2.8978372
162	0x4001b8c3	2.026902
163	0xc042a066	-3.04104
164	0x3f97c4c4	1.1856923
165	0x3fe1cbd8	1.7640333
166	0x3f0395b0	0.5140028
167	0xc047b86d	-3.1206315
168	0x401096ab	2.259196
169	0x3f80d843	1.0065998
170	0xc0419c7e	-3.0251765
171	0x3faf0e26	1.3676193
172	0xbfeb7e88	-1.8397989
173	0xbedbcb49	-0.42928532
174	0x40c83113	6.2559905
175	0xbfa5a0ed	-1.2939736
176	0xbf4a7d5c	-0.79097533
177	0xc0176aff	-2.3659055
178	0xbfccf552	-1.6012366
179	0xbf374c6a	-0.71600974
180	0x3e6c55a1	0.2307954
181	0xc06d181a	-3.704596
182	0x3f904dff	1.1273803
183	0xbf9b59fc	-1.2136836
184	0x40374167	2.8633668
185	0x4095f6c1	4.6863713
186	0x3f2cb494	0.6746304
187	0x3fb29017	1.3950223
188	0x3f84d743	1.0378193
189	0x4008551e	2.1301951
190	0xc0338452	-2.8049512
191	0xbe102ddb	-0.14079992
192	0x3ee4d390	0.4469266
193	0xbe4e01e8	-0.20117915
194	0x3d910127	0.07080298
195	0x402fa64d	2.7445252
196	0x401880cc	2.3828611
197	0x408d634f	4.4183726
198	0xbf1937d0	-0.5985079
199	0x401c7c3f	2.4450834
200	0x4019218d	2.3926728
201	0xbea3eb81	-0.32015613
202	0x3f5d59c7	0.86465114
203	0x3fcb19a6	1.5867202
204	0x40712947	3.7681444
205	0xbedf5b6b	-0.43624434
206	0x402cbb38	2.698927
207	0x40491ab9	3.142256
208	0xc07bc892	-3.9341168
209	0x3f3c2db8	0.7350726
210	0xc00d20b1	-2.2051203
211	0xbf8f03e5	-1.1173064
212	0xc008cf93	-2.1376693
213	0xbc1225bd	-0.00892013
214	0xc06db3ab	-3.714091
215	0x3fa5f980	1.2966766
216	0x3e98c560	0.29838085
217	0xbeb3f146	-0.35145015
218	0xc0093511	-2.143864
219	0x3f8a9a30	1.0828304
220	0x40274930	2.613842
221	0xbf84db99	-1.0379516
222	0x3f1ba52b	0.607989
223	0xbfd9393d	-1.6970593
224	0xbf4dd8a7	-0.8040871
225	0xbf4f7a08	-0.8104558
226	0xc06fef67	-3.748987
227	0xbea2d6a6	-0.3180439
228	0x3f6fec37	0.9371981
229	0x3f24ec9b	0.6442353
230	0x3ccff365	0.025384614
231	0xbccfd3fa	-0.025369633
232	0x3f9e14fd	1.2350155
233	0x4091e74f	4.559486
234	0xbf4cb78f	-0.7996759
235	0xbf99d838	-1.201911
236	0x404bcd6d	3.1844132
237	0xbdf77311	-0.12082494
238	0xbe6eb5a1	-0.23311473
239	0xbf0df801	-0.5545655
240	0xc08a49eb	-4.321523
241	0xbfdd5a01	-1.7293092
242	0xbfd0dae6	-1.6316803
243	0xc04d4b99	-3.207739
244	0xbf60f096	-0.87867105
245	0xbfea7e7f	-1.8319854
246	0x3eb30818	0.34967113
247	0xc00b8496	-2.1799674
248	0xbf7f84ec	-0.998122
249	0x3f8c05bc	1.093925
250	0xbf948f90	-1.1606312
251	0xc01b0740	-2.4223175
252	0x4050108f	3.2510107
253	0x3d9004b5	0.07032148
254	0xbf53a859	-0.82678753
255	0xc00f9112	-2.2432294

bn1.running_var f4 [512]
0	0x41f9f650	31.24527
1	0x3f758bf9	0.95916706
2	0x4200915c	32.141953
3	0x41c8e2d2	25.110752
4	0x417de31f	15.8679495
5	0x41efe034	29.984474
6	0x42ee28b4	119.0795
7	0x424aacc6	50.668724
8	0x41dcbe4d	27.59292
9	0x427a34c7	62.55154
10	0x421f17ff	39.773434
11	0x41f1b7e9	30.2148
12	0x4227d615	41.959064
13	0x41c25a27	24.29402
14	0x41e136c9	28.15175
15	0x4225295e	41.290398
16	0x428b7ce8	69.74396
17	0x428940f6	68.62688
18	0x41f221cc	30.266502
19	0x429453ff	74.164055
20	0x4204975f	33.147823
21	0x3e0bae45	0.13640697
22	0x4204b317	33.174892
23	0x425c9ed5	55.15511
24	0x42024a84	32.57277
25	0x423e4f75	47.577595
26	0x4210c2f8	36.1904
27	0x42701a70	60.025818
28	0x41c77199	24.930468
29	0x42011d19	32.278416
30	0x41e45e07	28.545912
31	0x3e114fa9	0.14190544
32	0x4202253c	32.53636
33	0x42228e8e	40.639214
34	0x420800e0	34.000854
35	0x42506f33	52.108593
36	0x41fd3a6f	31.653532
37	0x428549dc	66.64426
38	0x42245a85	41.088398
39	0x420100b7	32.250698
40	0x41b8d22e	23.102627
41	0x422016b7	40.022182
42	0x41eda045	29.703257
43	0x41a6807f	20.812742
44	0x41d13db9	26.155138
45	0x425307d4	52.757645
46	0x420bdedc	34.967636
47	0x42260f76	41.5151
48	0x421763d3	37.847485
49	0x42268579	41.630344
50	0x42417985	48.36867
51	0x420b47d3	34.82014
52	0x4242a500	48.661133
53	0x4253ce71	52.951603
54	0x42585331	54.08124
55	0x4272b261	60.6742
56	0x41d5d3f4	26.728493
57	0x42d9d5dd	108.9177
58	0x42344224	45.06459
59	0x421b04a1	38.75452
60	0x41f3280f	30.39456
61	0x41a7486e	20.910366
62	0x4248aeb5	50.170612
63	0x420de375	35.472126
64	0x41f267d2	30.300694
65	0x4236aea9	45.670567
66	0x41f83a07	31.028334
67	0x4250893d	52.13402
68	0x41f34c17	30.412153
69	0x41f9deeb	31.233847
70	0x41e75375	28.91575
71	0x419f959d	19.948053
72	0x41c54a0f	24.661161
73	0x42a7607c	83.688446
74	0x423c48e7	47.071194
75	0x4205b022	33.422005
76	0x42223718	40.553802
77	0x4288d23b	68.41061
78	0x42146cfe	37.106438
79	0x41e8d3c0	29.103394
80	0x4298e38b	76.44442
81	0x41fd147d	31.635004
82	0x424de194	51.47029
83	0x41a13298	20.149704
84	0x423723bf	45.78491
85	0x42043b65	33.058002
86	0x41d2e9c5	26.364145
87	0x41f0f823	30.12116
88	0x4304c247	132.7589
89	0x41b9dc9d	23.232721
90	0x41fc25c5	31.518442
91	0x3f860e4b	1.0473112
92	0x41db9f32	27.452732
93	0x423a6fd7	46.60922
94	0x423e6607	47.599636
95	0x428a17a0	69.04614
96	0x422dc2cd	43.440235
97	0x41ecf61b	29.620169
98	0x42196f36	38.358604
99	0x4243203d	48.781483
100	0x41bbdbcc	23.482323
101	0x41efede0	29.99115
102	0x427a0075	62.500446
103	0x41c492d0	24.571686
104	0x4287a837	67.828545
105	0x422e2681	43.5376
106	0x3fbf2805	1.4934088
107	0x42bb983e	93.79735
108	0x421aeb09	38.729527
109	0x41b5212b	22.641195
110	0x41d2995e	26.324886
111	0x427327ad	60.788746
112	0x427690b6	61.64132
113	0x4383c748	263.5569
114	0x42981318	76.03729
115	0x420dbe18	35.43564
116	0x423250e6	44.579002
117	0x421329b2	36.790718
118	0x3ec10d48	0.37705445
119	0x41c4b480	24.588135
120	0x41d85220	27.0401
121	0x4195f3e5	18.74409
122	0x42714b15	60.323322
123	0x42f09d71	120.3075
124	0x41ed1a21	29.637758
125	0x42912154	72.565094
126	0x425fcc36	55.949425
127	0x4187cbef	16.974577
128	0x416117d2	14.0683155
129	0x41ae14a8	21.760086
130	0x41933822	18.402409
131	0x4266d757	57.710293
132	0x3f4ab61c	0.79184127
133	0x41ac9e4a	21.57729
134	0x42216044	40.34401
135	0x41e50eab	28.632162
136	0x41c0ff68	24.12471
137	0x41f7a9fe	30.958004
138	0x41de2cba	27.77184
139	0x4269bf9a	58.43711
140	0x429525a0	74.57349
141	0x4262b351	56.675114
142	0x41fb2fa4	31.398262
143	0x41aa6ae9	21.302202
144	0x41e7ef01	28.991701
145	0x422208da	40.508644
146	0x4258a047	54.15652
147	0x3e512b3b	0.20426647
148	0x422da859	43.414402
149	0x41d0e55a	26.111988
150	0x41c8c21e	25.094784
151	0x42f7bb58	123.865906
152	0x423d5d3a	47.34104
153	0x41cde095	25.73466
154	0x417d7680	15.841431
155	0x3f4b6a0e	0.794587
156	0x41fb248c	31.392845
157	0x424a9a6f	50.650814
158	0x428c4b67	70.14727
159	0x4188b7d7	17.089766
160	0x41f8b08d	31.086206
161	0x425227af	52.538754
162	0x428709aa	67.518875
163	0x41c69255	24.821451
164	0x4220203d	40.031483
165	0x427a79da	62.618996
166	0x41ec90fa	29.57079
167	0x420c23ae	35.034843
168	0x4200da2a	32.21305
169	0x4265090b	57.25883
170	0x41e73bd1	28.904207
171	0x41b4cbe6	22.59956
172	0x41c9be2b	25.217855
173	0x4210cbe9	36.19913
174	0x421eed2c	39.731613
175	0x42365ea5	45.592426
176	0x421badcc	38.919724
177	0x4209a417	34.410244
178	0x41cbc364	25.470406
179	0x41eee061	29.85956
180	0x41dcce37	27.60069
181	0x4201a15f	32.40759
182	0x4187c36a	16.970417
183	0x41f76db4	30.928566
184	0x42338532	44.880074
185	0x4252160a	52.521523
186	0x43542be7	212.1715
187	0x42028112	32.626045
188	0x41d6a7d4	26.831947
189	0x41de44c8	27.783585
190	0x41b28f05	22.319834
191	0x422b3134	42.79805
192	0x42b784e7	91.759575
193	0x41f2f9ca	30.371967
194	0x3e7f66ee	0.24941608
195	0x41cf11bd	25.883661
196	0x41b3fde5	22.498972
197	0x42389437	46.14474
198	0x41a31686	20.385998
199	0x41db86ec	27.44088
200	0x4186c074	16.843971
201	0x41cb95c7	25.448133
202	0x41ea078c	29.253685
203	0x41c2cd3e	24.350216
204	0x42a150ac	80.65756
205	0x423758db	45.836773
206	0x4230448e	44.066948
207	0x41f56270	30.673065
208	0x421c3d1e	39.059685
209	0x422e961e	43.6466
210	0x420c9d14	35.153397
211	0x422279fa	40.619118
212	0x41c56849	24.67592
213	0x3f9cf68d	1.2262741
214	0x42454a80	49.322754
215	0x41b897a7	23.074049
216	0x3f5d4637	0.86435264
217	0x421695e1	37.646366
218	0x419ac680	19.346924
219	0x429b15ac	77.54233
220	0x42883d51	68.11976
221	0x42370752	45.75715
222	0x42f7d121	123.908455
223	0x421ad621	38.70911
224	0x42204ea6	40.076805
225	0x4244b1f9	49.1738
226	0x41a17f43	20.18714
227	0x41a65015	20.789103
228	0x423e66be	47.600334
229	0x41d3cab4	26.473976
230	0x42065181	33.579594
231	0x41e51562	28.63544
232	0x4194ef7e	18.61694
233	0x427caf80	63.171387
234	0x41f1c6ee	30.222134
235	0x420b69f3	34.853466
236	0x421fd909	39.96195
237	0x3e917598	0.2841003
238	0x4286e2ea	67.44319
239	0x426cd325	59.206196
240	0x4213a135	36.90743
241	0x41d902b2	27.126316
242	0x42407d62	48.122444
243	0x41e811ca	29.008686
244	0x424e02c0	51.502686
245	0x41c0c787	24.097425
246	0x42034737	32.819546
247	0x41e78f84	28.945076
248	0x41d46868	26.55098
249	0x428c4fdf	70.156
250	0x41b2e799	22.363085
251	0x41d34ce5	26.412546
252	0x420f203d	35.781483
253	0x42c4b665	98.35624
254	0x41871f36	16.89024
255	0x42235951	40.837223

fc2.weight f4 [256, 512]
0	0x3f92a101	1.1455384
1	0x3c8b99d3	0.017041123
2	0xbedb8faf	-0.4288306
3	0xbeb6dd06	-0.35715503
4	0xbecb9f02	-0.3976975
5	0x3e9957bf	0.29949757
6	0x3f80cbd2	1.0062201
7	0xbe32ff70	-0.17480254
8	0x3faf264a	1.368356
9	0xbf46c0c1	-0.7763787
10	0xbf07ef04	-0.53099084
11	0x3eda6c39	0.42660692
12	0xbf83475a	-1.025615
13	0x3fa419f5	1.2820421
14	0x3e947647	0.28996488
15	0xbfb1d02d	-1.3891655
16	0x3fa46f01	1.2846376
17	0x3e93a4ff	0.2883682
18	0xbfe16c7b	-1.7611231
19	0x3f5166b6	0.8179735
20	0xbf82f5cd	-1.0231262
21	0xbc93986d	-0.018017018
22	0x3f21e085	0.63233215
23	0xbd52189c	-0.051293
24	0x3e0c1f8e	0.13683912
25	0x3f33531b	0.70048684
26	0xbea64d08	-0.32480645
27	0xbee2f316	-0.44326085
28	0xbe94984b	-0.2902244
29	0xbf3d5e4d	-0.73972017
30	0xbfd0a853	-1.6301368
31	0xbd1137b8	-0.03545353
32	0xbf56fc26	-0.839785
33	0x3f997e04	1.1991582
34	0xbf2b7ff1	-0.669921
35	0x3eb75b5b	0.35811886
36	0x3e65389b	0.22384875
37	0x3eadb0ec	0.33924043
38	0x3eb4e7bf	0.35333058
39	0xbe6bc424	-0.2302404
40	0xbf2ae0a5	-0.6674903
41	0xbf5348f6	-0.82533205
42	0x3f804d1f	1.0023535
43	0x3d9aa6ce	0.07551347
44	0xbe592a85	-0.21207626
45	0xbf2bad36	-0.67061174
46	0x3fee0d9e	1.8597906
47	0x3e91c204	0.28468335
48	0x3f99cc23	1.2015423
49	0x3f190a80	0.59781647
50	0x3f85e76d	1.046125
51	0xbda91e4c	-0.08257732
52	0xbd299788	-0.041404277
53	0xbfa298e2	-1.2702906
54	0xbe1c0b5b	-0.15238707
55	0xbea0345b	-0.31289944
56	0x3eebacc0	0.46030235
57	0xbe118af1	-0.14213158
58	0x3f81855b	1.0118822
59	0xbf34c610	-0.7061472
60	0x3eb08dfd	0.34483328
61	0x3ea88729	0.3291562
62	0x3f910365	1.1329161
63	0x3f22e8fe	0.6363677
64	0xbfa830d4	-1.3139901
65	0xbf4d48d2	-0.8018924
66	0xbf3234c9	-0.69611794
67	0x3f0c2886	0.54749334
68	0x3f721785	0.9456714
69	0xbe8a6f02	-0.27037817
70	0x3e2ec7b9	0.17068376
71	0xbeea1786	-0.45721072
72	0x3d9c262a	0.07624467
73	0x3fab2743	1.3371357
74	0x3ee1e7d8	0.44122195
75	0xbf6a4f50	-0.9152727
76	0xbe3e0aa6	-0.1855875
77	0x3e598d65	0.21245344
78	0x3fbb9993	1.4656242
79	0xbf687ca6	-0.908152
80	0x3f602000	0.8754883
81	0x3ed395f2	0.41325337
82	0x3e4abd55	0.19798787
83	0xbf32947f	-0.6975784
84	0x3ee3eceb	0.44516692
85	0x3f715df9	0.94284016
86	0xbfd1b3ee	-1.6383035
87	0x3d772a85	0.060343284
88	0xbe358750	-0.17727399
89	0x3e90be5c	0.28270233
90	0x3d8c5bce	0.06853448
91	0x3c851032	0.016243074
92	0x3eb40f16	0.3516776
93	0x3f5fd9a8	0.8744149
94	0x3edae02d	0.42749158
95	0xbfd9f569	-1.7028018
96	0xbeec5968	-0.46161962
97	0xbb96fd89	-0.0046078605
98	0x3c643ab5	0.0139300125
99	0x3eb8a3e2	0.36062533
100	0x3f211463	0.6292173
101	0x3e8fa4a3	0.28055295
102	0xbf3acadc	-0.7296579
103	0xbf4756ac	-0.77866626
104	0x3f09160d	0.5354927
105	0x3f969859	1.1765243
106	0x3d00c809	0.03144077
107	0x3f0b71fd	0.5447081
108	0xbf181a7a	-0.594154
109	0x3e1139b0	0.14182162
110	0x3f3553b1	0.7083083
111	0x3d855da3	0.065120004
112	0xbdebaea6	-0.11507921
113	0x3e5e665c	0.21718735
114	0x3c7b1523	0.015324864
115	0xbef52bb7	-0.47884914
116	0xbfdb6820	-1.7141151
117	0x3f86056f	1.0470408
118	0x3cc8291e	0.024433669
119	0xbf69a2fe	-0.9126433
120	0x3e8001f4	0.2500149
121	0xbe2043fa	-0.15650931
122	0xbfa31496	-1.2740657
123	0xbe6fa6d3	-0.23403482
124	0x3fb7df3d	1.4365002
125	0xbd522d1a	-0.051312543
126	0x3f979cc4	1.1844716
127	0x3fae44f1	1.3614789
128	0xbec184a2	-0.37796503
129	0x3eaefa25	0.3417522
130	0xbe0a20ea	-0.13489118
131	0x3e558a1e	0.20853469
132	0x3cb87c5f	0.022520242
133	0xbfc016d2	-1.5006964
134	0x3f6a9231	0.9162932
135	0xbffc83ee	-1.9727762
136	0x3f8b5c44	1.0887532
137	0xc019198d	-2.3921845
138	0x3f9b8f23	1.2153057
139	0xbe87b789	-0.26507214
140	0xbd82f253	-0.06393876
141	0xbf702a1a	-0.9381424
142	0x3ef083fe	0.46975702
143	0x3905d3b0	0.00012762728
144	0xbe96d654	-0.29460394
145	0x3f24ca49	0.6437116
146	0x3dfffe1a	0.12499638
147	0xbcf40dc8	-0.029791728
148	0x3eb9a60b	0.36259493
149	0x3e7b378c	0.24532908
150	0x3ebf07f5	0.37310758
151	0xbf42ce8a	-0.76096404
152	0x39cc2fca	0.00038945518
153	0x3c368228	0.01113943
154	0x3f818ce1	1.0121118
155	0x3c3f4255	0.01167353
156	0x3f659763	0.8968412
157	0x3f40701b	0.7517106
158	0xbe2cd2e8	-0.1687733
159	0x3f78a52d	0.9712704
160	0x3e096a39	0.13419427
161	0xbf3d0ca6	-0.73847425
162	0x3d82e561	0.06391407
163	0x3ed4846f	0.4150729
164	0x3e60bb2e	0.21946403
165	0xbf2e5395	-0.68096286
166	0xbce1ec48	-0.027578488
167	0x3f4fe7a2	0.8121282
168	0x3f622931	0.88344103
169	0xbf39b2ab	-0.7253825
170	0x3f81c4fd	1.0138241
171	0xbf7baaaa	-0.9830729
172	0xbe34c221	-0.1765218
173	0x3ed328ef	0.41242167
174	0xbe8e24c1	-0.27762416
175	0x3fb7dbeb	1.4363989
176	0xbece5e5c	-0.40306365
177	0xbf3fe4b4	-0.7495835
178	0xbea2f775	-0.3182942
179	0xbf16b73d	-0.5887335
180	0xbe4c5ccd	-0.19957276
181	0x3df2ce08	0.118557036
182	0x3f5f3e13	0.8720409
183	0x3d242ce4	0.040081874
184	0x3f9bd92c	1.2175651
185	0xbe11fa09	-0.14255537
186	0x3f596a5e	0.8492793
187	0xbf195dc2	-0.5990869
188	0x3ebf090e	0.37311596
189	0xbee06484	-0.43826687
190	0xbef3d4d5	-0.47623315
191	0x3e6759da	0.2259287
192	0xbcfa8a02	-0.030583385
193	0xbd98ab90	-0.07454598
194	0x3d3da658	0.046301216
195	0xbf94db1a	-1.1629364
196	0x3e5fcb07	0.21854793
197	0xbf6c6444	-0.92340493
198	0xbebd5eb3	-0.36986312
199	0xbfabfec8	-1.3437128
200	0x3f0e6f02	0.55638134
201	0x3f505bc4	0.81390023
202	0x3f2e04fc	0.67976356
203	0xbe333c5e	-0.17503497
204	0x3f728d87	0.94747204
205	0xbf307d23	-0.68940943
206	0x3e49e6e3	0.19716983
207	0x3f772c08	0.9655156
208	0xbf6c319a	-0.92263186
209	0x3fc53591	1.5406972
210	0x3fa78973	1.3088821
211	0xbf868c92	-1.0511649
212	0x3f747854	0.95496106
213	0xbc85517e	-0.01627421
214	0x3f7253ba	0.94659007
215	0xbf20e943	-0.6285593
216	0x3d164b64	0.03669299
217	0xbf02264a	-0.50839674
218	0x3ee96414	0.45584166
219	0x3ee061ce	0.4382462
220	0xbe75421f	-0.23951004
221	0xbec0b08f	-0.37634704
222	0x3f2b9973	0.6703102
223	0x3d87fa05	0.06639484
224	0x3f5a5499	0.85285336
225	0xbfff8ad0	-1.9964237
226	0x3f6293e0	0.8850689
227	0x3f1a6548	0.6031079
228	0x3deeb6a9	0.116559334
229	0xbf142213	-0.57864493
230	0xbe503352	-0.20332077
231	0xbf5a11ce	-0.8518342
232	0x3eeb9a41	0.46016124
233	0xbeff2da5	-0.49839512
234	0x3e992431	0.29910424
235	0x3f0a0dd6	0.5392736
236	0xbfdc8210	-1.7227192
237	0xbc54c839	-0.01298719
238	0xbf54b01f	-0.8308124
239	0x3dd1207d	0.10211275
240	0x3f9cb51d	1.2242771
241	0xbec7f9a3	-0.39057645
242	0x3d7a739d	0.061145414
243	0xbf11017c	-0.5664289
244	0xbf8c8d36	-1.0980594
245	0xbf88b896	-1.0681331
246	0xbea9d810	-0.33172655
247	0x3e86ba4f	0.26314017
248	0xbf2bed90	-0.67159367
249	0xbf9e4f3c	-1.236793
250	0x3da4b43b	0.08042189
251	0xbd395553	-0.045247387
252	0xbfa154ab	-1.2603964
253	0x3efedb9a	0.49776918
254	0xbf44486e	-0.7667302
255	0x3ff34f0a	1.9008496
