DRLND-3-collab-compet-master/checkpoint_critic.pth (torch_old, 589230 bytes, 9 tensors)

fc1.weight f4 [512, 24]
000000 ce 05 d3 bd 3a fc 0d bf ff b9 d4 3c 50 80 9d be
       -0.103038415 -0.5546299 0.025967596 -0.30761957
000010 43 c6 a4 3e ee e0 6b bd 8a e6 02 bd 85 8a 9c be
       0.32182512 -0.057587557 -0.03195814 -0.30574432
000020 ba 19 24 be 0d 94 d8 be 38 71 29 bd 33 1e 10 3f
       -0.16025439 -0.42300454 -0.04136774 0.5629608
000030 f2 dc 2b 3e 9f e2 2b 3e ff 14 29 bc 08 b6 0a 3f
       0.16783503 0.16785668 -0.010319947 0.5418401
000040 bd 6e 09 bf 5d df bb be a3 d9 90 be 53 e6 3a 3f
       -0.536846 -0.3669385 -0.28291044 0.73007697
000050 81 db cb 3d e5 14 3a 3f 55 db 8f be 89 09 34 3f
       0.099539764 0.7268813 -0.28097025 0.7032705
000060 9b c5 9d 3e c5 f5 81 be c3 2a 8b 3e 1e 6e 53 3d
       0.30814824 -0.2538282 0.27181062 0.051618688
000070 ae 45 d3 be 39 4b 3f 3f 81 fe 6b 3e 95 eb 42 3d
       -0.412641 0.74724156 0.23046304 0.04758795
000080 ad f2 32 3d e1 4b f8 be d8 3e 70 3c 6a 35 68 be
       0.043688465 -0.4849539 0.014663421 -0.22676626
000090 89 12 00 bf 3e 08 3a 3e 74 8a d8 3b c4 6b 7e be
       -0.5002828 0.18167207 0.006608302 -0.24845797
0000a0 26 3c 0c 3e 49 05 ad be 68 79 96 bd d1 bf 83 3e
       0.1369482 -0.33793095 -0.07347375 0.25732282
0000b0 0b f2 22 bf 84 2e 4c 3e 8a 0f 9b bd 1a 1e 89 3e
       -0.6365058 0.1993962 -0.07571323 0.26780778
0000c0 17 a2 9f 3e d8 77 43 bf 79 03 1d 3d a0 9b fe 3e
       0.31178352 -0.7635474 0.03833339 0.49728107
0000d0 c2 ed 5f 3e e6 d0 77 3f b5 89 d4 3c 8d af ea 3e
       0.21868041 0.9680313 0.02594457 0.4583706
0000e0 bc d8 a2 bd 0b 9d 4a bf d9 62 a1 3b 25 82 93 3e
       -0.07951495 -0.7914588 0.0049251136 0.2881023
0000f0 59 62 07 3e 2e a5 e5 3e 13 b8 1a bd c2 0b 92 3e
       0.1322111 0.44852585 -0.037773203 0.28524595
000100 04 31 03 bf 7d f3 e7 be 54 85 f9 bd e3 0e 7e 3f
       -0.51246667 -0.45302954 -0.121836334 0.99241465
000110 f3 67 9e 3d 1d ba 9c 3d 25 f7 2c be 43 78 7d 3f
       0.077346705 0.07652686 -0.16891153 0.9901163
000120 10 c8 1b 3e 46 3b 01 bf 58 26 4c be be 74 35 be
       0.15213037 -0.5048107 -0.19936502 -0.17720315
000130 8d b8 6d be c1 a2 d4 be a6 96 7d be 07 12 25 be
       -0.23214932 -0.4153042 -0.24764499 -0.16120158
000140 b3 27 09 be 1c 9c 1d bf 68 67 0f be 35 88 87 be
       -0.1339405 -0.6156633 -0.1400429 -0.26471105
000150 83 91 e3 3c 2e 62 40 be 75 cc 2c be 38 e2 61 be
       0.027779346 -0.18787453 -0.16874869 -0.22058952
000160 64 ad 9f be ca e8 54 bf 82 87 30 be e2 00 2a bf
       -0.31186974 -0.8316771 -0.17239192 -0.664076
000170 f1 43 0b bc 88 bd e3 bd aa ca 47 be 04 47 35 bf
       -0.008500085 -0.111201346 -0.19510904 -0.70811486
000180 35 62 4f be 9c af 19 bf 28 59 b7 bd 6c 02 e8 bd
       -0.20252307 -0.60033584 -0.08952552 -0.11328587
000190 f7 a9 03 be 49 56 f1 3e 83 18 a3 bc d6 99 27 be
       -0.12857805 0.47136143 -0.019909149 -0.16367278
0001a0 8b e4 f4 bc e1 e9 10 bf 7f 7a a2 3d d0 60 83 bd
       -0.029894134 -0.5660687 0.079335205 -0.0641495
0001b0 e6 6f a6 be 60 7b fe 3e 72 27 9d 3d ad 55 b9 bd
       -0.32507247 0.49703503 0.07673539 -0.090495445
0001c0 63 88 d9 bc 7a 84 19 bf 67 15 73 3e 37 48 da be
       -0.026554292 -0.5996777 0.23738633 -0.4263322
0001d0 1a b6 96 be ba 80 8a 3f 22 c6 56 3e 69 8d e7 be
       -0.29435807 1.0820534 0.20974019 -0.45225075
0001e0 34 13 55 be 41 12 b7 be b2 da c5 3b da 84 35 bd
       -0.20808107 -0.35756114 0.0060380334 -0.04431615
0001f0 a9 b3 b6 3f af 09 88 3d 4d c5 b8 3c 38 cd 92 bd
       1.4273578 0.06642472 0.022555018 -0.071680486
000200 d6 63 ba bd 6c 58 ca be a2 e0 b7 3b 76 2e 64 bd
       -0.091010734 -0.39520586 0.005611495 -0.05570837
000210 ef 02 89 bf e3 93 2c 3f 47 b9 11 3d f9 1b 30 bc
       -1.070402 0.6741316 0.035577085 -0.010748857
000220 0d 6d d9 3d 1d 61 ac be 82 32 2f 3c e2 0d 7c 3c
       0.10616503 -0.33667842 0.010693194 0.015384169
000230 23 86 1b 3f 3e 49 90 3e c0 89 85 3c 0d d0 86 bc
       0.6075155 0.2818088 0.016301036 -0.016456628
000240 2a 88 c8 be d9 92 87 be 89 71 d8 3c d4 8a 9f 3e
       -0.39166385 -0.26479223 0.026421325 0.31160605
000250 eb a8 80 bb 5a 67 43 3e ae ac 68 bc 44 84 c6 3e
       -0.0039263866 0.19082394 -0.014201326 0.38772786
000260 62 05 d8 be 54 1b 5b 3f f6 43 b4 bb 12 32 11 3d
       -0.42191607 0.85588574 -0.0055012656 0.03544814
000270 dd e3 e8 bc e7 c4 45 bf 6b 56 37 bc 2b 50 c1 3d
       -0.028428966 -0.77253574 -0.011190037 0.09439119
000280 47 fa 12 bf f1 9e bf 3f 68 05 94 3c 38 78 1d bf
       -0.5741314 1.497038 0.018068984 -0.61511564
000290 9c 56 00 3f a1 8e 4d 3f 7d d6 10 bd 2a b7 29 bf
       0.50132155 0.8029576 -0.035360802 -0.6629511
0002a0 80 b9 07 3f 0e b4 73 3e db 81 55 bd 3e 79 d3 be
       0.53017426 0.23799154 -0.052125793 -0.41303438
0002b0 d6 f9 72 3d f6 de 0b 3f 98 f5 c1 bd 24 0c b2 be
       0.059320293 0.54637086 -0.094706714 -0.34774888
0002c0 bd 89 7c 3e 2a cf 18 3d a3 9e 35 3d f7 07 55 be
       0.24661918 0.037306942 0.04434074 -0.2080382
0002d0 b8 f6 59 3e ef db 9d 3e fc a5 c5 3c 74 42 34 be
       0.21285522 0.3083186 0.024127 -0.17603475
0002e0 e1 68 e9 3d 25 43 b8 bd 67 3e 72 3e f2 a6 b2 be
       0.11396957 -0.08997182 0.23656617 -0.34892994
0002f0 cb d9 d4 3c de 70 7c 3f 61 34 87 3e ba c4 ba be
       0.025982758 0.9860972 0.2640715 -0.36478215
000300 d6 86 b8 3e 6c ee 38 3e f2 9c 32 bf 31 12 05 3e
       0.36040372 0.180597 -0.6977073 0.1299522
000310 df 0a cf 3d e5 82 50 3f 0d 95 2e bf c0 5e f0 3d
       0.10109495 0.8144973 -0.68196183 0.11736822
000320 b9 78 76 3e 3c 36 c6 3c 15 0b 92 bd 96 45 0a be
       0.2406949 0.024195783 -0.0713102 -0.13503107
000330 f1 3a 1a 3d 39 57 cd 3d 0b bd 95 bd d0 5c 73 bd
       0.037653867 0.10026402 -0.07311448 -0.059414685
000340 af 8c 9c 3e 2b d6 31 be fe d5 69 3d 95 5f 00 bf
       0.30576083 -0.17366855 0.057088844 -0.50145847
000350 b5 3a 60 3d e6 ab ed bd 6f 4c 85 3d 01 62 0d bf
       0.054743487 -0.11605053 0.06508719 -0.5522767
000360 d2 5c e6 bb 18 77 3f 3f 47 2c 52 3d cc 13 f6 3c
       -0.007030108 0.747911 0.051311757 0.030038737
000370 63 5b 56 3e ab 5f ca 3e 4e 20 01 3d db ed 57 3d
       0.20933299 0.39526114 0.03152495 0.05271707
000380 40 e5 03 3e 08 0c 74 3f 4f 68 eb bc 2f 8e 8d 3e
       0.1288042 0.9533086 -0.028736262 0.2764754
000390 b7 b2 ca 3e c3 18 32 3f 30 62 48 3d 55 d5 4d 3e
       0.39589474 0.69569033 0.048921764 0.20100911
0003a0 b4 7a 95 3e 29 84 73 3f a2 c4 1f bd b5 0f 5e bd
       0.29195178 0.95123535 -0.039005883 -0.0542142
0003b0 87 b7 01 40 e8 23 78 3f 78 93 7c bd a0 6a d2 bd
       2.0268266 0.9692979 -0.061664075 -0.10274243
0003c0 cb 82 46 bd 29 b0 50 3f d1 2f cb bb 0e 70 bf 3d
       -0.048464578 0.815188 -0.0062007685 0.093475446
0003d0 53 3f ad bd 07 76 4d 3e b5 cc 3c bc 2b 5d 9a 3d
       -0.08459344 0.20064555 -0.011523415 0.07537302
0003e0 14 84 07 3d fd ed 67 3f 10 bf 53 3d 34 82 30 3e
       0.033084944 0.90597516 0.051695883 0.17237169
0003f0 4c 5b ef 3d 4e b6 6c bf 70 e7 3f 3c d6 80 3e 3e
       0.11687335 -0.92465675 0.011712894 0.18603835

fc1.bias f4 [512]
000000 9d b1 26 3a 90 8b 2b bd 59 d8 ae 3d 3f c3 0f 3e
       0.0006358864 -0.041881144 0.08537359 0.14039324
000010 0f ef 57 3d 9c ce 63 3d 2c 59 33 3e 6c ab f9 3c
       0.05271822 0.05561696 0.17514485 0.030477248
000020 20 f8 aa bd d4 38 31 3e dd bb 0e 3e 2e 28 bc 3d
       -0.08348107 0.17306834 0.13938852 0.09187351
000030 45 a5 0a be 0d cd 9f bc 8f 87 0c 3e ef e1 39 3e
       -0.13539608 -0.019506956 0.13723586 0.18152593
000040 23 54 35 3e db 9c 2a 3d 82 57 29 3e 4e 62 70 3d
       0.17707877 0.041653495 0.16537288 0.0586875
000050 77 a0 42 3e 55 78 f9 3d e8 4c 7e bc 5d 3a e5 bd
       0.19006525 0.12181155 -0.015521266 -0.111927725
000060 9a 98 f1 bd 99 1f 10 be ea f4 1e be 1a df e2 3d
       -0.117966846 -0.14074554 -0.15523115 0.110777095
000070 bc 1a a9 bd 7d 0d 3c be af 9d 19 be 3e e0 17 bb
       -0.08257052 -0.1836452 -0.15001558 -0.002317443
000080 ba cb a2 bc d0 c1 ce bd 3c a7 86 3d 9c a2 3c be
       -0.019872535 -0.100955606 0.06574866 -0.18421406
000090 84 e0 86 3d 1e d3 0e bc e4 b6 0a 3e c7 be ae 3c
       0.06585792 -0.008717326 0.1354633 0.021331204
0000a0 6f ec ff bd 39 18 80 bd ca 70 f3 bc 4b cd 8a 3d
       -0.12496268 -0.0625462 -0.029716868 0.06777438
0000b0 02 0f 0c 3e 85 6d 12 be 83 40 21 be 6e bd 2b be
       0.136776 -0.14299591 -0.15747266 -0.1677148
0000c0 c9 60 01 3e 4e 58 8e 3d 98 e7 a9 3d 3c 83 e4 3d
       0.12634577 0.069504365 0.08296126 0.111578435
0000d0 c3 78 38 3c 09 eb 29 3e 24 27 7f 3d 81 30 05 bd
       0.011259261 0.16593565 0.062293187 -0.03251696
0000e0 6f a5 37 3e c5 51 24 be 4f 4b b2 3c 98 5a 17 3e
       0.17934202 -0.16046818 0.021764426 0.14780653
0000f0 be 7f 7d 3d 4e a1 00 be 63 98 49 3e 44 5d b8 ba
       0.061889403 -0.12561533 0.19687037 -0.0014065881
000100 ab 2a c3 bc ed 18 73 bd a7 95 26 be fe 73 f9 3b
       -0.023824057 -0.059349943 -0.16268025 0.0076127043
000110 93 61 6e bc 18 66 54 3d 98 87 e5 bd c6 cd 46 3b
       -0.014549631 0.051855177 -0.11207503 0.0030335053
000120 de 49 4f be e1 ee 1f 3e 3f 7f 0d 3d b8 54 7b 3d
       -0.20243022 0.15618469 0.03454518 0.06136009
000130 65 f9 26 3e 96 c4 63 bd db e9 95 3d ee 5d 06 3e
       0.16306074 -0.0556074 0.07319995 0.13121769
000140 af 72 e6 bd 83 05 8d bd 32 86 95 bd 57 31 b7 bd
       -0.11252343 -0.06885817 -0.07300986 -0.08944958
000150 af a8 22 3e 7e 51 18 3e f6 b1 1d bc 65 49 49 be
       0.1588466 0.14874837 -0.009624949 -0.19656904
000160 09 ef 8e 3d 0c d7 1b 3c 5c a3 2a be d5 00 2e bd
       0.06979186 0.00951172 -0.16663879 -0.042481262
000170 7c 50 b8 bd fb 46 8e 3d 02 5b e5 3d 9e 06 7a bc
       -0.08999726 0.06947132 0.11198999 -0.015260367
000180 2c 3a 4e be 3f 23 09 3e 84 cc 48 bd 34 b1 fc 3d
       -0.20139378 0.13392352 -0.049023166 0.12338486
000190 fd 1e 9b bb c8 14 18 3d 76 a5 3d be ec 44 30 be
       -0.0047339187 0.037129194 -0.1852015 -0.17213792
0001a0 56 6b d6 3c e5 8d 9a bd ae 72 5d 3d 72 98 97 bc
       0.026174229 -0.075465955 0.054064445 -0.018505309
0001b0 60 f4 19 be 87 0f d8 bc a1 5d a3 bd e1 36 d5 3d
       -0.15034628 -0.026374592 -0.07976843 0.10410858
0001c0 ae 37 a2 3d f0 7c 31 bd 9c 33 01 3e 49 15 8d bc
       0.07920776 -0.04333204 0.12617344 -0.017222064
0001d0 af 2c 4f 3e 5b b9 c5 3d 2a 80 97 3d 2e 4c a8 3d
       0.20231889 0.096544944 0.07397492 0.08217655
0001e0 29 37 e6 3d 8e e0 2d be 8c 07 45 3e f4 4e 03 3e
       0.1124099 -0.16980192 0.1924116 0.12823087
0001f0 93 1e c1 3c 7b 82 59 3d 7f 31 f9 bc 77 8a 55 3c
       0.02357415 0.05310295 -0.03041911 0.013033501
000200 69 0a 8c bc 10 85 94 bd 28 fd e6 bb 28 93 1c 3e
       -0.017094808 -0.07251942 -0.0070492215 0.1529051
000210 72 67 18 be ea 20 2a 3e 34 5d 3a be ce 57 3d 3e
       -0.14883211 0.16614118 -0.18199617 0.18490526
000220 43 d0 c3 bd 61 26 18 3d d9 67 e3 3d c9 31 4b 3e
       -0.09561207 0.037145976 0.11103792 0.1984321
000230 c5 be 9b 3d 58 c8 fa bd b5 7a 91 bd c4 a8 7d 3d
       0.07604746 -0.12245244 -0.07103483 0.061928526
000240 f3 64 9b 3d 26 83 2f be d4 64 f4 3d 6b 3d be 3d
       0.07587614 -0.17139873 0.11933294 0.09289058
000250 1d 54 8e 3b 09 bc 1d be 3a f9 48 be 4b e5 65 bd
       0.004343523 -0.15403761 -0.19626322 -0.056126874
000260 20 85 3a 3e 56 08 4a 3e e7 eb 21 bd 36 af f4 bc
       0.18214846 0.19729742 -0.039531615 -0.029868703
000270 f9 9b 26 be fd dc 15 3e 19 1f 20 be b3 14 ff 3b
       -0.16270436 0.14635082 -0.15636863 0.00778445
000280 8e 0e 4b 3e 4e 69 28 3e 9f df e2 bd 22 4c b1 bc
       0.19829771 0.1644642 -0.110778086 -0.021642748
000290 6f 40 be bd 71 6a 43 3e 66 e5 34 3e cf dd ca bd
       -0.092896335 0.19083573 0.17665634 -0.09905588
0002a0 b9 58 25 3e bb c7 ce 3d 24 e4 4b 3e f9 a4 b0 3c
       0.16147126 0.10096689 0.19911247 0.02156304
0002b0 5a 75 08 3e a8 61 14 be 5e 90 8a bd 8f f8 f2 bd
       0.13326016 -0.14490378 -0.06765817 -0.11863815
0002c0 dc e1 47 be 0a e0 3d 3e dd 3d 22 3e ab 1c 0d be
       -0.19519752 0.18542495 0.15843911 -0.13780467
0002d0 9d 7b 37 3e f0 7b ef bd 00 d8 ec 3d bc 53 1e 3e
       0.17918248 -0.11693561 0.11564636 0.1546163
0002e0 d7 28 02 3e 36 4d 33 3d 52 0b 2f 3e 9c 16 f0 3d
       0.12710892 0.043774806 0.17094162 0.117230624
0002f0 76 89 58 bc b8 f3 21 3e 27 ef 24 3e b1 65 28 be
       -0.013216367 0.15815628 0.16106854 -0.16445042
000300 6f c0 7d bd b2 f5 b1 bb a7 79 92 bd 3d d9 5a bc
       -0.061951097 -0.0054309005 -0.071521096 -0.013357458
000310 75 50 d2 3d 94 69 08 be 97 0b d0 bd 3e e2 41 3c
       0.10269252 -0.13321525 -0.101584606 0.0118337255
000320 82 3f 1c be 89 81 2f 3e f1 fd b5 bd 83 3d 4e 3e
       -0.15258601 0.17139257 -0.08886326 0.20140652
000330 af 9f a1 bb 31 86 4f 3e a7 d3 21 bd 9f 5f e7 bd
       -0.004932366 0.20266034 -0.039508488 -0.11297535
000340 41 5f e1 3d e0 c4 14 3e e0 78 35 be 60 ed 10 bd
       0.11004496 0.14528227 -0.17721891 -0.03538263
000350 e7 df 0a 3d 8a 6b 00 be d4 40 4d 3e 0a e3 a8 3d
       0.033904936 -0.12541023 0.20044261 0.08246429
000360 75 aa 84 bd 29 c5 0c bd 90 73 de 3c 3e ec 40 be
       -0.064778246 -0.034367714 0.027154714 -0.18840119
000370 32 8a 3c 3d 37 7f 22 3e 3f 82 0b 3e 83 ab 1f 3e
       0.04603023 0.15868841 0.13623904 0.1559277
000380 5c a0 be bd 21 97 26 3d da 34 ea 3c 4f fb 02 be
       -0.0930793 0.04067147 0.028589655 -0.12791179
000390 09 a5 ba 3d 7c 3e 34 bd da 5a 4b bd 76 c7 34 3e
       0.09113509 -0.044004902 -0.04964719 0.17654213
0003a0 78 1f 46 3e f3 a2 86 3d cb 41 3d 3d 81 28 a4 3d
       0.19347942 0.06574049 0.046205323 0.08015538
0003b0 63 f8 e1 3d f9 b4 01 3e 30 53 f6 3d c4 3e 97 bd
       0.11033704 0.12666692 0.120275855 -0.073850185
0003c0 c6 f6 31 3e e3 e9 44 3d da 52 49 3d 7a 8a d4 3d
       0.17379293 0.048074614 0.04915128 0.10377975
0003d0 80 75 21 3e d2 ac c7 3d d6 34 1d 3e 60 e3 a0 bd
       0.15767479 0.0974976 0.15352187 -0.07855868
0003e0 d1 44 fa 3d 2b 89 d8 bc 01 a6 dc 3d 11 bc 89 bd
       0.12220157 -0.026432594 0.1077385 -0.06725324
0003f0 44 8d c2 bd 90 6f 37 3e 10 0b 99 bd c9 0d 23 be
       -0.094996005 0.17913651 -0.07472813 -0.15923227

bn1.weight f4 [512]
000000 98 99 cc 3e 0f f6 7e 3e 02 b3 b2 3e b6 62 b0 3e
       0.39960933 0.24898551 0.34902197 0.3445031
000010 c4 ea c6 3e 01 57 02 3f 2b 04 ea 3e 3d 1f dd 3e
       0.38850987 0.5091401 0.45706305 0.43187895
000020 bd b5 74 3e 4e 83 33 3f 82 03 f0 3e b2 44 88 3e
       0.23897453 0.7012223 0.46877676 0.2661491
000030 28 bf 0a 3f 09 d8 17 3f a2 11 35 3f 20 80 00 3f
       0.5419793 0.5931402 0.7073003 0.50195503
000040 91 56 df 3e 3d b3 3c 3e 2f e8 3f 3f fa 8a 33 3f
       0.43620732 0.18427749 0.7496366 0.70133936
000050 75 3e 05 3f d6 29 f5 3e a4 d8 42 3f 6c 47 07 3f
       0.52048427 0.4788348 0.7611182 0.52843356
000060 33 57 02 3f 15 77 a4 3e dc a2 a3 3e 21 a2 e6 3e
       0.50914305 0.32122102 0.3196019 0.4504557
000070 79 0b d0 3e d3 18 fb 3e 77 a5 3d 3e 70 90 fd 3e
       0.40633753 0.49042377 0.18520151 0.4952426
000080 71 8f ab 3e da ae 7d 3f b7 c4 f3 3e e5 7e 09 3f
       0.33507875 0.9909493 0.4761102 0.5370925
000090 5f a7 88 3c ec 61 05 3f 94 9b d9 3e e5 ad 96 3e
       0.016681371 0.5210254 0.4250151 0.29429546
0000a0 ff ae 04 3f 65 53 da 3e 7f 92 a3 3e 3b dc a2 3e
       0.5182952 0.4264175 0.31947705 0.31808648
0000b0 d1 d5 b3 b9 c4 0b 48 3f 46 7c 5d 3f 00 f4 9c 3e
       -0.00034300846 0.7814295 0.8651775 0.30654907
0000c0 00 87 96 3e fa 3e 80 3e e5 2e e4 3e b9 92 4f 3e
       0.29399872 0.25048047 0.44567028 0.20270814
0000d0 86 f6 16 3f 74 6d 4a 3f 25 86 68 3e 1f 6e ee 3e
       0.58969915 0.7907326 0.22707422 0.4656839
0000e0 1b df c9 3e 02 57 13 3f 44 ec d8 3e 51 21 dc 3e
       0.39428028 0.5755464 0.42367756 0.42994168
0000f0 ff 42 9d 3e 12 a6 cf 3e 0f 42 01 3f 85 76 c5 3e
       0.30715176 0.4055639 0.5049142 0.38566986
000100 e8 55 63 3f b8 1b f7 3e ea 54 ea 3e b4 30 b2 3e
       0.8880296 0.48263335 0.4576791 0.34802783
000110 c0 b5 90 3e 29 78 40 3f 24 50 2d 3f b9 a6 24 3f
       0.28263664 0.7518335 0.6770041 0.643169
000120 c9 f8 16 3f 62 09 0a 3f 7a 98 93 3e 95 5a d1 3e
       0.58973366 0.5392057 0.28827268 0.4088942
000130 92 0d 03 3f c9 da 15 3f a9 9a 93 3e 28 22 84 3e
       0.5119258 0.58536965 0.28828934 0.2580731
000140 2c 2d 00 3f 38 e4 09 3e 2f 4c cb 3e b6 73 03 3f
       0.50068927 0.13465965 0.3970656 0.51348436
000150 87 2e 02 3f c8 c6 c9 3e 62 ae 34 3f e4 74 dd 3e
       0.50852245 0.3940947 0.7057859 0.43253243
000160 b6 c8 cd 3e 61 47 d3 3e b1 22 f9 3e a2 41 a9 3e
       0.40192193 0.41265395 0.4865928 0.33057886
000170 ee 21 0f 3c d8 99 11 3f 03 27 00 3f 52 ec ff 3e
       0.008736117 0.5687537 0.5005953 0.49984986
000180 e8 54 f7 3e e7 08 02 3f 9d 41 e8 3e d8 08 86 3e
       0.48306966 0.50794834 0.4536256 0.26178622
000190 d8 e7 84 3e 63 11 18 3f 0f 9d e2 3e 0e 06 05 3f
       0.25958133 0.5940153 0.4426045 0.51962364
0001a0 c8 d5 ab 3e 41 33 ff 3e 01 2f b5 3e 00 34 df 3e
       0.3356154 0.4984379 0.35387424 0.4359436
0001b0 ce 3e 8d 3e 0c 0d fb 3e f5 75 2f 3c ce 01 c3 3e
       0.2758698 0.4903339 0.0107092755 0.38087314
0001c0 db 83 0d 3f 5f 94 c8 3e 42 a5 7b 3c 14 61 43 3e
       0.5527932 0.39175698 0.015359225 0.19080001
0001d0 07 21 ae 3e 79 d2 8e 3e 7f 15 66 3f 62 e5 16 3f
       0.34009573 0.27894953 0.8987655 0.5894376
0001e0 12 3a ca 3e f0 c6 68 3e c6 be c2 3e 77 9e de 3e
       0.3949743 0.22732139 0.38036174 0.43480274
0001f0 fd 99 ed 3e 04 8f b0 3e 13 63 67 3e 42 01 87 3e
       0.46406546 0.34484112 0.22596388 0.26368147
000200 d7 74 0a 3f 69 50 b7 3e e7 b8 b9 3e 1c aa 0e 3f
       0.54084533 0.35803536 0.36273882 0.55728316
000210 9a 93 a1 3e c1 74 16 37 06 05 18 3e a9 1e 06 3f
       0.31557924 8.967881e-06 0.14845666 0.52390534
000220 f7 b9 a8 3e 07 a6 9d 3e 84 c8 a3 3e 50 a8 c6 3e
       0.3295438 0.3079073 0.3198892 0.38800287
000230 b4 7b 16 3f 56 4d 0d 3f 60 60 82 3e d7 f3 a5 3e
       0.58782506 0.5519613 0.25464153 0.32412598
000240 64 82 ef 3e 32 81 1f 3f d8 64 fc 3e c8 ee 0c 3f
       0.46779168 0.6230651 0.49295688 0.5505185
000250 75 b6 d9 3e 1f e1 f7 3e f8 4a 95 3e 23 15 82 3e
       0.42522016 0.4841394 0.2915876 0.2540675
000260 fa 77 b6 3e 22 26 9b 3e ab a2 5c 3f 51 55 c0 3e
       0.3563841 0.3030253 0.8618571 0.3756509
000270 3e 79 a7 3e a5 69 0b 3f 35 e6 2f 3f 96 4f f1 3b
       0.32709688 0.54458076 0.68710643 0.0073642237
000280 9a 78 fc 3d c1 8d 05 3f 3e 84 b0 3e e7 f0 eb 3e
       0.123276904 0.52169424 0.34475893 0.4608223
000290 ec 3a c8 3e 52 63 01 3f 9f f9 73 3e dd af e9 3e
       0.39107454 0.50542176 0.23825692 0.45641986
0002a0 ad bb a6 3e 02 8e 8d 3e 11 ff 13 3b 4f 7f 07 3f
       0.3256506 0.27647406 0.0022582451 0.5292863
0002b0 ae 67 c6 3e 02 89 f6 3e 7f cd f0 3e 40 9e 99 3e
       0.38750976 0.48151404 0.4703178 0.30003548
0002c0 d3 2d af 3e 90 f4 e8 3e 80 f1 d4 3e 30 ab 92 3e
       0.3421465 0.45499086 0.415905 0.2864623
0002d0 6f cb ed 3e 68 89 94 3e 36 08 10 3c 25 7c be ba
       0.4644427 0.29011083 0.00879102 -0.0014532848
0002e0 a1 a5 12 3f b6 33 b2 3e bc 69 32 3f 5f 82 c4 3e
       0.5728398 0.34805077 0.6969259 0.38380715
0002f0 3d 6c 22 3f 5b 80 fa 3b 53 01 ab 3e 81 bc d4 3e
       0.6344641 0.0076446957 0.33399448 0.41550067
000300 be 6c cf 3e 68 1c dc 3e 6e 4b e0 3e 6f 43 c5 3e
       0.4051265 0.42990422 0.43807548 0.3852801
000310 2e 19 8c 3e 38 1b a2 3e 02 4a 33 3f ae b2 b5 3e
       0.2736296 0.3166139 0.700348 0.35487884
000320 03 85 90 3e 29 64 9f 3e 90 b3 ab 3e 2d 0f aa 3e
       0.2822648 0.31131104 0.33535433 0.33214703
000330 75 8f 0e 3f 26 4f 2c 3f 38 4d ac 3e b4 9a 9a 3e
       0.5568765 0.6730827 0.33652663 0.30196154
000340 8f 87 fd 3e 69 4e f3 3e 26 c2 83 3e 41 06 d1 3e
       0.49517485 0.4752076 0.2573406 0.40825084
000350 a5 4d 0a 3f ef 16 e9 3e 0a cb f1 3e ef bf 76 3e
       0.54024726 0.4552531 0.4722522 0.24096654
000360 ad d0 ca 3e 42 25 bd 3e a7 19 f9 3e dc 33 9e 3e
       0.39612332 0.36942488 0.48652384 0.3089894
000370 fb ba 93 3e 82 d0 0d 3f 39 f2 0a 3f 46 9c 22 3f
       0.28853592 0.5539628 0.5427585 0.63519704
000380 25 31 d5 3e a0 ae c5 3e 62 4f f1 3e 50 11 fe 3e
       0.41639057 0.3860979 0.47130877 0.49622583
000390 69 88 0f 3f c5 c3 ec 3e 0d 1d d0 3e 48 7d 19 3f
       0.5606752 0.4624311 0.40647164 0.5995679
0003a0 e3 78 e9 3e 5b 1b b2 3e 39 c3 0c 3f b9 1f 99 3e
       0.45600042 0.34786496 0.54985386 0.29907015
0003b0 ce 1e b3 3e 66 c9 bb 3e 9c 2c a4 3e fe ce 8f 3e
       0.3498444 0.36677092 0.32065284 0.2808761
0003c0 15 5a 70 3e ea 3a c6 3e 3f fd f2 3e 5f 15 79 3e
       0.23471864 0.38716823 0.47458836 0.24324559
0003d0 bf 3c b3 3e 21 07 97 3e 88 04 c7 3e 93 49 40 3f
       0.35007283 0.29497626 0.38870645 0.75112265
0003e0 eb b2 4c 3e 75 f5 0e 3f 11 98 1d 3f 84 e2 08 3f
       0.19990127 0.5584329 0.6156016 0.53470635
0003f0 f3 7c a9 3e 72 10 a4 3e 7b f6 1a 3f e7 34 06 3f
       0.3310314 0.32043797 0.6053235 0.5242447

bn1.bias f4 [512]
000000 11 3f 1d be 4c 03 ab bd 52 47 cd be 7c e5 03 bf
       -0.15356089 -0.08350238 -0.40093476 -0.5152204
000010 37 f0 7c be f4 f6 c0 bd 5b 43 de be 73 ff ba be
       -0.2470101 -0.094221026 -0.43410763 -0.36523017
000020 e1 08 80 be 0d 79 ae be c2 97 52 be 55 d6 bd bd
       -0.25006774 -0.3407673 -0.20565704 -0.09269396
000030 c9 43 1e bf d0 c4 80 be 63 65 82 be b4 9b b0 be
       -0.6182218 -0.25150156 -0.25467977 -0.34493792
000040 b4 07 3f bf eb f4 02 be 26 f6 bb be 08 c2 0b bf
       -0.7462113 -0.12788741 -0.36711234 -0.54592943
000050 f6 12 8b be 36 01 68 be a0 67 3c be 03 dd 8a be
       -0.27162904 -0.22656712 -0.18398905 -0.27121744
000060 62 d2 b8 be fa c5 73 be 1a fe 98 bd b2 11 c9 bd
       -0.3609801 -0.23805991 -0.07470341 -0.09817828
000070 60 9a 27 be 0c 2a ef be 64 6d be be d8 4f 57 be
       -0.16367483 -0.46711767 -0.37192833 -0.21026552
000080 91 4f b2 be ec 48 1d be e8 f7 1e bf 35 1e 05 bf
       -0.3482633 -0.15359849 -0.62097025 -0.5199922
000090 be de 46 bd bd 92 63 bb b0 d6 a9 be e3 c4 e4 be
       -0.048552267 -0.0034724914 -0.33171606 -0.44681463
0000a0 d9 6e 45 bc f7 0f f2 be 4a fa b9 be 2b 12 03 bf
       -0.012050354 -0.47277805 -0.36323768 -0.511996
0000b0 7d 1d ca bb 6a be d8 be f8 53 d6 be fb af 97 be
       -0.006168066 -0.42332774 -0.41860938 -0.2962645
0000c0 1d b8 d9 be 16 a1 cd be 2a bc 08 bf 9c 3e ad be
       -0.4252328 -0.4016196 -0.53412116 -0.3383683
0000d0 ba 55 00 be 79 88 cf be 34 c1 a0 be 5d 57 a9 be
       -0.12532702 -0.40533808 -0.31397402 -0.33074465
0000e0 c4 02 b7 be 9c 76 5b bf 5d c7 f0 bd 65 eb 0d be
       -0.35744298 -0.8572786 -0.117567755 -0.13859327
0000f0 ff 26 b1 be e1 6e 70 be 8e ec 0b be fa 8b fa be
       -0.34600064 -0.23479797 -0.13664457 -0.4893492
000100 65 0f ab be c1 65 7a be bb a1 69 be 51 00 a6 be
       -0.33410183 -0.24452879 -0.22815602 -0.32422116
000110 b9 6f b8 be 59 97 19 bf cf 4c 84 3d 38 ce 6b be
       -0.36022738 -0.59996563 0.064599626 -0.23027885
000120 58 0e 1b bf a4 b7 34 bf 1f 4d fa be e2 ab e1 be
       -0.6056876 -0.70592713 -0.48886964 -0.4407645
000130 49 ee 2d bf 8c 55 83 be 7f 73 ac be 2c aa 14 be
       -0.6794172 -0.25651205 -0.33681867 -0.1451804
000140 fe b2 0a bf f8 11 25 3d e7 af 65 be c3 71 fc be
       -0.5417937 0.04030034 -0.22430383 -0.49305543
000150 e8 79 bb be 3e 5e 29 be 96 03 c6 bd 11 2f 0a bf
       -0.36616445 -0.16539857 -0.09668653 -0.5397807
000160 9f 8b f2 be 9d 96 2e bf d1 56 c5 be 12 91 cb be
       -0.47372147 -0.6819857 -0.38542798 -0.39759117
000170 5c 68 23 bd 69 d4 e2 be d9 75 f2 be b1 a5 bd be
       -0.039894447 -0.4430268 -0.47355536 -0.37040475
000180 0a b8 18 bf db 33 b9 be 0f fd 56 be bd 53 ba be
       -0.5965582 -0.36172375 -0.20994972 -0.36392012
000190 ca 73 c6 3b 83 5f 96 be 48 ea d7 be 81 75 a3 be
       0.0060562836 -0.29369745 -0.4217093 -0.31925586
0001a0 8f 3f 47 be bf 2c bf be 39 f6 12 bf 7d c7 bd be
       -0.1945784 -0.37338826 -0.57406956 -0.3706626
0001b0 26 14 c4 be 33 03 04 bf 2e 3e 94 bd 6a 1a a8 be
       -0.38296622 -0.5156738 -0.07238422 -0.32832652
0001c0 6f 6b 25 bf a2 22 b7 be 67 86 7b bd 2c 9c 7f bd
       -0.64617056 -0.3576861 -0.061407473 -0.062404796
0001d0 9e 3b cb be 8e dc c6 bd d9 bc 6d be c8 c2 ad be
       -0.39693922 -0.09710036 -0.23216571 -0.3393767
0001e0 a0 f7 93 be 05 35 46 be 5e ab 8d be 3c a6 05 bf
       -0.2889986 -0.19356163 -0.27669805 -0.5220678
0001f0 59 b3 2a bd 1c 5c a1 be 05 0b 3c be aa 6e 50 be
       -0.041674946 -0.31515586 -0.18363579 -0.20354715
000200 94 3d c8 be 1e ed 95 be 5f e3 16 be f2 eb 05 bf
       -0.3910948 -0.2928247 -0.14735173 -0.5231315
000210 2a be 7e be c5 57 40 bd 32 91 22 be 3b 1b 0f be
       -0.2487723 -0.046958704 -0.158757 -0.13975231
000220 be cd d7 be 9d dc 33 be 47 9f 99 be f2 15 20 be
       -0.42149156 -0.17564626 -0.3000433 -0.15633371
000230 ae e5 9a 3d ef e2 93 be eb fb 06 be 5c ac 88 be
       0.07563339 -0.28884074 -0.13182037 -0.26694
000240 7a 44 1f bf ee 18 be be 87 e6 b1 be 3c f7 5a bf
       -0.6221386 -0.37128395 -0.3474619 -0.855335
000250 ac e1 91 be ba 93 c8 be dc 98 8d be 16 59 3e be
       -0.28492486 -0.39175206 -0.27655685 -0.18588671
000260 95 69 59 be f8 76 51 3e 8a d5 c9 3c db f3 f0 be
       -0.21231683 0.20455539 0.024637956 -0.47061047
000270 1d 11 84 be 84 c2 fc be 4a 94 ba be 8e de 30 bd
       -0.25794306 -0.49367154 -0.3644126 -0.043180995
000280 4b bb 7a 3b c1 b7 e3 be 7b 41 a0 be 62 80 fc be
       0.0038258608 -0.4447613 -0.31299958 -0.49316698
000290 23 25 10 bf c7 cc b8 bd fe 45 5c 3e 33 dd ec be
       -0.56306666 -0.09023433 0.21511075 -0.46262512
0002a0 98 f2 85 be 8d 64 8a be ad 2b 59 bc 3b f4 a5 be
       -0.26161647 -0.2702984 -0.013255042 -0.32412896
0002b0 6e a9 9b be 37 bf 8e be f5 de f8 be 45 34 8d be
       -0.30402702 -0.2788026 -0.48607603 -0.2757894
0002c0 4c ff 92 be 1d e8 57 bf d0 52 25 bf 02 ec f3 bd
       -0.287104 -0.8433855 -0.64579487 -0.11910249
0002d0 ab 18 04 be 9b 94 13 be 5d e6 37 bd b9 d9 f9 bb
       -0.12900035 -0.14412157 -0.044897426 -0.0076248315
0002e0 8c d9 f9 bd 28 1c 21 be f4 b4 9f be b9 b9 68 be
       -0.12199697 -0.15733397 -0.31192744 -0.22727098
0002f0 0c c5 04 bf 1b 55 69 bd 8b 45 c9 be cf 2b 47 be
       -0.5186317 -0.05696593 -0.3931087 -0.19450305
000300 84 c6 23 bf 84 79 1f bf 25 36 95 be 56 80 8f be
       -0.63974786 -0.62294793 -0.29142871 -0.280276
000310 31 9e a8 be e0 95 ba be 34 90 6b be 60 0f b1 be
       -0.3293319 -0.3644247 -0.23004228 -0.34582043
000320 b8 42 1e be dd 64 77 be 3c 5e 84 be 8f 07 99 be
       -0.15455139 -0.2415957 -0.25853145 -0.2988858
000330 1a a2 ec be 0b e5 d7 be 4e 18 7a be f9 82 4e be
       -0.46217424 -0.42166933 -0.24423334 -0.2016715
000340 bf 93 8c be da 78 a3 be 0a 25 d2 be 94 8a ad be
       -0.2745647 -0.3192814 -0.41043884 -0.3389479
000350 2b dc 02 bf 81 8c 69 be 38 7d b2 be 57 ec 85 be
       -0.511172 -0.22807504 -0.3486116 -0.26156875
000360 86 0f 43 be 3d 8b 02 be e2 54 c2 be 7d f6 4b be
       -0.1904889 -0.12748428 -0.37955385 -0.19918247
000370 4c 47 de 3c 7c d6 9f be eb 16 4a bf 6c c5 07 bf
       0.027133606 -0.31218326 -0.7894122 -0.53035617
000380 13 11 9e be d2 23 c5 be 18 4f ac be 10 48 16 bf
       -0.30872402 -0.3850389 -0.33654094 -0.5870371
000390 7c dc f0 bd 4d e4 15 bf 2a 2e c4 be 91 d3 5b be
       -0.11760804 -0.58551484 -0.3831647 -0.21467425
0003a0 a6 ec cb be 11 2e 19 bf 12 b2 07 bf 2c ab 96 bd
       -0.39828986 -0.59835917 -0.5300609 -0.07356867
0003b0 6e ad 59 be f4 9d a2 be 8c 4e e1 be 53 5a cc bd
       -0.21257564 -0.31761134 -0.4400524 -0.099781655
0003c0 b3 11 1e be 69 76 d5 be b2 ce 83 be 3f a0 64 bd
       -0.15436439 -0.41691902 -0.25743634 -0.055816885
0003d0 58 f3 12 bf ec 33 79 be 2e 39 0f bf c0 de e2 3d
       -0.57402563 -0.24336213 -0.55946624 0.110776424
0003e0 97 c7 44 bd 5f b2 fe be 69 03 4d be a5 5d c3 be
       -0.048041906 -0.4974546 -0.20020832 -0.38157383
0003f0 f1 36 9f be c4 2f bb be 9e 68 0f bf c5 7b dd be
       -0.31096604 -0.3655988 -0.5601901 -0.4325849

bn1.running_mean f4 [512]
000000 15 da dd 40 fc 27 2d 40 dd 9f f5 40 ed 40 56 c0
       6.9328713 2.7055655 7.6757646 -3.3477128
000010 8b 2b 50 41 30 56 c7 40 7a 5f 14 41 8c ff c2 3f
       13.010631 6.229271 9.27331 1.5234237
000020 66 4a 21 c1 a3 8c 9a 3f 72 f7 f0 c0 b2 c9 13 41
       -10.080664 1.2074169 -7.5302057 9.236742
000030 c1 69 94 40 c0 ca 24 3f 80 2b 83 3f d3 9c 12 40
       4.6379094 0.6437187 1.024765 2.2908218
000040 e6 04 fb c0 e3 a6 1c c0 13 84 ce 40 19 59 5d 40
       -7.844348 -2.447686 6.4536223 3.458563
000050 7d 32 07 bf ee 59 04 c0 12 dc fa 40 fc 7f 04 41
       -0.52811414 -2.0679889 7.839364 8.281246
000060 aa ce 25 41 7f e4 a4 c1 40 44 00 c0 41 72 e8 40
       10.362955 -20.61157 -2.0041656 7.263947
000070 61 17 85 c1 af 6c 0e c1 cd 8e 4a c0 4f 5b a6 3e
       -16.636415 -8.901534 -3.1649659 0.32491538
000080 e5 8d f5 bf 35 75 46 bf 2b c4 89 c0 38 74 25 40
       -1.9183928 -0.77522594 -4.3051963 2.5852184
000090 c8 87 2a 40 26 a7 1a 40 3a e6 ea 40 a2 25 91 c0
       2.6645374 2.416452 7.340604 -4.535844
0000a0 be f9 79 41 41 20 33 c1 3e 68 dd c0 6e 37 db c0
       15.623472 -11.1953745 -6.918975 -6.8505163
0000b0 ac 13 dd 3e 5f 87 cf 40 b2 be 10 40 18 ca ce bf
       0.4317907 6.485275 2.261639 -1.6155424
0000c0 bf 9e 9e bf bd 9d 03 41 df c8 00 40 93 04 d2 c0
       -1.2392195 8.22601 2.0122602 -6.5630584
0000d0 c0 23 6d 41 b0 8b 8c 41 c7 21 ab c0 a8 ad 74 c0
       14.821228 17.568207 -5.347873 -3.8230991
0000e0 db 4b 0b 41 9d b2 4e c0 fc 5f f9 3f d0 a6 ae 40
       8.706019 -3.2296517 1.9482417 5.457863
0000f0 6f 94 20 c1 db 58 89 41 85 60 1b 40 b4 c2 23 40
       -10.036239 17.168386 2.427766 2.5587587
000100 80 5c f5 3f f0 b9 12 41 a1 3a 35 41 b3 1f 1e c1
       1.9168854 9.170395 11.326814 -9.882739
000110 17 68 9c 41 05 b4 6b c0 0d f2 fd 3f e8 27 d1 40
       19.550825 -3.6828625 1.9839493 6.5361214
000120 66 04 1b 3f fe 8f 77 c1 5c f3 1b c0 66 d7 06 c0
       0.60553586 -15.472654 -2.4367285 -2.1068969
000130 5d ba 31 c1 5c 89 60 40 30 46 3d c1 b6 75 2b c1
       -11.107999 3.5083838 -11.829636 -10.716238
000140 f9 9a 83 3f 8b 76 38 c1 c9 8c 23 41 41 8c 8d 40
       1.0281669 -11.528941 10.221871 4.423371
000150 b3 42 01 3f 1a 72 48 c1 a3 84 c7 bf 69 df 95 c1
       0.504924 -12.527857 -1.5587353 -18.734087
000160 9e 55 ba bf 1a 9f 27 40 e9 ea 6d c1 40 76 c0 c1
       -1.4557378 2.6190858 -14.869851 -24.05774
000170 5f 94 45 3e 56 e3 0f 41 61 fc b9 40 a1 64 01 c0
       0.1929488 8.993002 5.812058 -2.021767
000180 1e f9 2f bf 0e d4 15 c0 12 10 85 40 a6 01 47 c1
       -0.687395 -2.3410678 4.1582117 -12.437902
000190 b0 e5 3c c0 7f 3e 40 41 52 2c 86 40 ab 79 1e 41
       -2.951519 12.015258 4.19291 9.904704
0001a0 c5 eb 8d 41 8a 38 e7 3e 92 5c 5c c1 7c 97 66 c1
       17.740122 0.45160323 -13.7726 -14.4119835
0001b0 a9 09 98 c1 73 95 da bf a9 05 07 40 06 c4 9e c1
       -19.004717 -1.7076858 2.1097205 -19.845715
0001c0 b2 e6 92 c1 81 17 8a 3e da 78 a0 be 25 34 31 c1
       -18.362644 0.26971057 -0.31342202 -11.075231
0001d0 6a e5 79 40 1b b6 21 bf 5e 33 e6 40 c6 97 ee 40
       3.9046273 -0.63168496 7.1937704 7.456027
0001e0 17 03 6b c1 da be 88 40 46 83 63 41 e3 64 91 bf
       -14.688254 4.2732973 14.219549 -1.1358913
0001f0 30 27 06 c1 f6 c7 86 c1 33 55 39 41 ee 7f 85 41
       -8.384567 -16.847637 11.583301 16.687466
000200 af 1b 09 c0 81 8c 26 41 e4 ee 9f 3f 98 e2 84 40
       -2.1423147 10.409303 1.2494779 4.1526604
000210 a0 00 44 41 af 3a 33 3f 41 cb a6 3f 7f 9f a3 3e
       12.250153 0.7001142 1.3030778 0.31957623
000220 41 77 73 c0 7f ba 21 41 c9 cb 10 40 4b 9f 67 40
       -3.8041537 10.108031 2.262438 3.6190975
000230 f0 1a 8b c0 76 46 42 c1 fe 22 f7 c0 10 68 70 c0
       -4.3470383 -12.142202 -7.7230215 -3.7563515
000240 fb 39 00 c1 1c de 45 41 84 0e 0b 41 bf b8 9d c1
       -8.014155 12.366726 8.691044 -19.715208
000250 4c 78 bf 40 5f ac a9 40 82 89 04 c1 47 6b b2 40
       5.9834347 5.3022914 -8.283571 5.5755954
000260 ec cb 7a 41 85 5c 71 41 16 6f 60 bf 04 25 68 c1
       15.674786 15.085088 -0.87669504 -14.509037
000270 95 9c 2a 40 18 b7 3f 40 f3 18 9f c0 0f e3 e4 c0
       2.665807 2.9955502 -4.9717956 -7.152717
000280 19 4b 83 c1 20 8c e1 c0 99 2e 42 41 e0 b0 29 c1
       -16.411669 -7.048355 12.136376 -10.605682
000290 31 6b 04 c0 d3 4f 4a 41 b5 4c f0 3f fc 31 1a 41
       -2.0690424 12.644488 1.8773409 9.637203
0002a0 0a 6a 68 41 8c b3 0c c1 e7 2e 5d 3f d2 00 ef bf
       14.525888 -8.793835 0.8639969 -1.8672125
0002b0 ef 35 68 40 86 1b 19 41 cd 47 aa 41 3e 81 72 c1
       3.6282918 9.56922 21.285059 -15.156553
0002c0 83 3d 61 41 e1 8d c0 c0 06 2e 56 c0 81 e9 1e 41
       14.0775175 -6.017319 -3.346559 9.932008
0002d0 64 f6 e6 40 74 0e 44 41 1c 19 97 3f 3c d4 03 c0
       7.217577 12.253529 1.1804538 -2.0598288
0002e0 b0 3f a3 40 57 d9 f7 40 da 7b 1e 41 26 42 0e 41
       5.1015244 7.7452807 9.905237 8.8911495
0002f0 90 80 30 40 ba fc 04 bf 2e c4 77 40 59 b8 23 40
       2.7578468 -0.5194813 3.8713489 2.5581267
000300 91 89 bc c1 69 4e f8 c0 fe 38 21 3f d2 a0 e2 c0
       -23.567171 -7.7595716 0.6297759 -7.0821314
000310 e3 9f 13 c1 1a 71 00 bf 69 81 98 40 b2 29 7e c0
       -9.226535 -0.5017258 4.765797 -3.9712949
000320 a1 4b d6 c0 64 86 35 c0 d0 35 1c c1 d7 b9 27 41
       -6.696732 -2.8363276 -9.763138 10.482871
000330 0d a4 be 40 de c4 79 41 d4 3d bc c0 54 d8 3a c1
       5.9575257 15.610563 -5.8825474 -11.6778145
000340 3d 26 03 3e 34 2d f3 40 f2 c3 5b c1 60 93 4d c0
       0.12807555 7.599268 -13.735338 -3.21212
000350 57 71 35 40 64 64 09 41 a6 a6 8d c0 90 75 43 c0
       2.8350427 8.587009 -4.426593 -3.0540504
000360 7c 1e d5 3f 50 e7 4b 3f 59 70 bf bf fd 5a 31 c1
       1.6649928 0.7964983 -1.4956161 -11.084714
000370 10 e5 57 c1 31 af 51 3e 0c 67 a6 c0 7c 8e 12 41
       -13.493423 0.20476986 -5.200079 9.159786
000380 16 8a ec 40 0a c3 d6 3f 90 42 23 41 7b 8f 87 40
       7.391856 1.6778271 10.203751 4.2362647
000390 6b 2d a0 bf c7 55 65 c1 5b a4 3b c1 7b ed 9c 40
       -1.251386 -14.333442 -11.727626 4.9039893
0003a0 d8 dc 09 41 b4 00 16 c1 bc 0a 8e 41 27 8c d6 40
       8.616417 -9.375172 17.755241 6.7046084
0003b0 5f c5 69 41 01 ce e4 bf 69 d6 3e 40 71 36 fe 40
       14.610686 -1.7875367 2.9818366 7.9441457
0003c0 72 96 2b c0 a4 79 ff be fa 5c d5 40 9c c8 ad 3f
       -2.6810575 -0.49897492 6.6675997 1.3576846
0003d0 63 8d 0e c1 b9 3d 0e 41 cd 7d 80 c1 00 57 3d 41
       -8.909518 8.890069 -16.061426 11.83374
0003e0 01 3d b7 c0 30 b1 23 41 92 ab 7c 3f bf 77 4f 41
       -5.726197 10.230759 0.98699296 12.966735
0003f0 29 ea 40 c0 3e 11 36 40 22 74 90 40 d3 46 a8 41
       -3.014292 2.8448024 4.5141764 21.034582

bn1.running_var f4 [512]
000000 d7 8b 47 43 20 e8 04 43 2a 08 1b 43 83 0a a1 43
       199.54625 132.90674 155.03189 322.08212
000010 9b 06 b6 42 31 cc 11 42 ff 2f 43 42 99 70 03 43
       91.0129 36.449406 48.79687 131.43983
000020 c8 63 f1 43 8a f6 88 43 88 ff 1e 42 cb 8d 37 43
       482.77954 273.9261 39.749542 183.55388
000030 f4 02 a8 43 6e 75 f3 42 49 66 12 43 79 0f a2 42
       336.02307 121.729355 146.39955 81.03022
000040 52 87 99 42 9c bd 0f 43 cb d2 cb 42 b2 12 34 42
       76.7643 143.74066 101.911705 45.018257
000050 e3 3d 50 42 37 3e 48 42 38 0f d2 41 dc eb b3 42
       52.060436 50.060757 26.257431 89.96066
000060 75 1c 0b 43 6a 5c 9e 42 c5 a6 01 44 2c 07 13 43
       139.11116 79.1805 518.6058 147.02802
000070 5c a7 b7 42 91 85 82 42 02 66 13 43 6e 16 08 41
       91.82687 65.26087 147.39847 8.505476
000080 b8 88 a3 43 46 e7 61 40 a2 ea 5a 41 8e 3f 71 42
       327.0681 3.5297408 13.682283 60.312065
000090 10 f7 e7 42 21 01 92 42 b4 7d a1 42 df 82 5e 43
       115.982544 73.002205 80.745514 222.51122
0000a0 29 74 f4 42 59 15 64 42 df 63 fa 42 e6 01 da 42
       122.226875 57.020847 125.19506 109.00371
0000b0 42 72 b9 3f 61 b3 b5 42 6b 1d 91 42 47 29 07 43
       1.4487994 90.85035 72.55746 135.16124
0000c0 2e 95 d0 42 56 5f 05 43 e0 38 bf 43 fc 2c 02 43
       104.29137 133.3724 382.44434 130.17572
0000d0 cb e1 c1 42 1e 24 33 42 39 ce d7 42 40 bc 66 43
       96.941 44.78527 107.90278 230.73535
0000e0 7b 0b fd 42 e0 d4 4a 42 9d f8 85 43 00 4d 47 43
       126.52242 50.707886 267.9423 199.30078
0000f0 4e 5a 1b 43 26 f6 9b 42 21 dd 38 41 5f a7 0f 43
       155.35275 77.98076 11.553987 143.6538
000100 65 27 f3 40 3c 44 94 42 09 9f 7b 42 e0 26 0c 43
       7.598559 74.13327 62.905308 140.15186
000110 ac a6 a3 42 80 72 a9 42 55 d2 ae 43 9b 8b af 41
       81.82553 84.72363 349.64322 21.943167
000120 02 0b 10 42 7f f6 c3 42 57 e7 62 43 06 71 1a 43
       36.01075 97.98144 226.90367 154.4415
000130 ec a3 d2 43 85 ff e4 43 2b 00 a3 42 3f 7f 39 43
       421.28064 457.99625 81.50033 185.49706
000140 5f 30 81 41 e8 b0 2f 43 8a 22 9d 42 2d ed 2f 42
       16.148619 175.69104 78.56746 43.981617
000150 52 6d 7d 43 a4 89 06 43 0e 01 41 42 fb a2 df 42
       253.42703 134.53766 48.25103 111.81832
000160 45 81 9a 43 76 fa e0 43 47 1c 91 42 d8 cc 7c 43
       309.00992 449.95673 72.55523 252.80017
000170 0a 4c 17 41 ad 65 99 41 d9 6a 2a 43 a7 35 84 43
       9.456064 19.174646 170.41737 264.41916
000180 80 1f f3 41 e7 9b bb 43 6a d5 06 43 3c 21 5f 44
       30.39038 375.218 134.83365 892.5193
000190 0b 18 36 43 e1 c9 a4 42 10 3f 8a 41 ef f8 25 42
       182.09392 82.394295 17.280792 41.4931
0001a0 44 9d 3f 43 bf da 94 42 85 9f 98 42 0b a1 19 42
       191.61432 74.42724 76.31156 38.40727
0001b0 74 b0 b9 42 4d 5d 1e 43 2f c8 94 42 85 52 fd 42
       92.844635 158.36446 74.39098 126.66117
0001c0 18 6e 24 43 d8 d0 2e 43 68 85 e4 3f d7 72 c6 42
       164.43005 174.8158 1.7853212 99.2243
0001d0 36 c1 a6 43 fe a5 5a 43 2e 2f 08 42 68 56 c2 42
       333.50946 218.6484 34.046074 97.16876
0001e0 7d 00 9d 42 ec fe 07 43 37 d2 70 43 0d 94 f6 42
       78.50095 135.99579 240.82115 123.28916
0001f0 92 44 6d 43 b8 9d 07 43 45 f6 53 43 10 8b 97 42
       237.26785 135.61609 211.96199 75.77161
000200 1d c9 9e 42 4f 4e dd 42 ed b8 31 41 ae db 8a 43
       79.3928 110.65295 11.107648 277.71625
000210 d4 9b 1b 43 4d c4 ac 40 f9 52 21 42 31 6a 94 40
       155.6087 5.3989625 40.331028 4.637963
000220 c9 05 c2 42 a2 fa 8b 42 89 3b 8a 41 7a d8 78 42
       97.0113 69.98952 17.27907 62.211403
000230 63 5d 9f 44 71 4d d7 42 eb 38 1a 42 d5 7e 25 44
       1274.9183 107.65125 38.555584 661.98175
000240 3a fe 5b 43 a1 dc a2 42 43 7a 15 42 be 72 ef 42
       219.99307 81.430916 37.369396 119.724106
000250 33 92 c7 42 b6 89 4a 43 53 99 03 43 05 12 ed 42
       99.785545 202.53793 131.59892 118.535194
000260 ca 6b d7 42 30 4d 78 42 3c fe 04 44 ea a1 49 43
       107.710526 62.07538 531.9724 201.63248
000270 34 a9 bc 42 a7 b2 88 43 ae 6a 82 43 81 f5 3e 43
       94.330475 273.39572 260.83344 190.959
000280 fe d9 8a 42 ed 16 15 43 2a 45 c4 42 a9 c6 e8 42
       69.425766 149.08955 98.135086 116.38801
000290 5a d2 88 42 f7 c9 bd 42 a3 21 5e 43 7d 3c 31 42
       68.41084 94.89446 222.1314 44.30907
0002a0 b9 f7 ff 42 6d 8a 71 42 a0 2d a4 41 d8 a2 23 43
       127.98383 60.38518 20.522278 163.63611
0002b0 78 b8 0f 42 27 59 6c 42 4d 10 8d 42 38 c2 c3 42
       35.930145 59.087063 70.53184 97.87933
0002c0 0e 71 94 42 c8 75 14 43 12 95 00 42 b6 b3 5e 43
       74.22081 148.46008 32.145576 222.702
0002d0 6d dd 35 43 cc d5 ea 42 09 36 3b 41 e2 f7 1d 42
       181.86494 117.41757 11.700692 39.492073
0002e0 8b ea 47 43 9a 65 c8 42 5d b1 68 42 e7 fe fb 41
       199.91618 100.19844 58.173206 31.499464
0002f0 77 f7 a5 42 a7 38 4b 40 44 2d 82 43 65 c9 b9 41
       82.98333 3.1753328 260.35364 23.223337
000300 1f cc e0 42 62 2f fd 42 a5 9c 16 41 c6 70 0b 43
       112.398674 126.592545 9.413243 139.44052
000310 88 63 ee 42 a3 e3 db 43 f7 7e 06 43 34 28 f5 42
       119.1944 439.7784 134.49596 122.57852
000320 7d 49 ac 42 f8 99 c2 42 d9 d7 d6 42 03 86 aa 41
       86.14353 97.30072 107.42158 21.315435
000330 e5 86 9e 41 75 75 19 43 9e bb a9 42 1e 02 01 43
       19.815866 153.45882 84.86644 129.00827
000340 d3 06 eb 42 71 45 c0 42 a7 31 92 42 f5 2d 00 43
       117.51333 96.13563 73.09698 128.17952
000350 4e 12 e9 41 7b f8 33 42 5b ee ba 42 4a 32 04 43
       29.133938 44.992657 93.46554 132.19644
000360 b1 ec c8 42 5c a2 19 43 99 dc 40 42 09 e0 f6 42
       100.46229 153.63422 48.215427 123.43757
000370 89 7a 8a 43 eb d7 68 43 dd aa a7 42 17 2f 84 42
       276.9573 232.84343 83.83372 66.09197
000380 c8 b0 73 42 8d 1b 32 42 c6 57 50 43 0c d9 c8 42
       60.922638 44.526905 208.34286 100.42392
000390 eb 19 bc 42 6b af 8d 42 f2 96 23 43 6f 71 c1 42
       94.05062 70.84261 163.58963 96.72155
0003a0 be a0 15 42 62 64 0a 43 d2 6c 68 42 d3 e6 0b 43
       37.406975 138.39212 58.10627 139.90166
0003b0 52 8b 50 42 8b 5a 94 42 1a 65 97 42 0e 71 54 43
       52.136055 74.17684 75.697464 212.44162
0003c0 7d 04 1e 43 96 01 25 43 9b 8e 86 42 38 eb 9e 42
       158.01753 165.0062 67.27853 79.45941
0003d0 f7 47 66 43 8e de 78 43 9f 0c d0 42 4b 59 c9 42
       230.28111 248.86935 104.02465 100.6744
0003e0 81 f1 c2 42 8a 39 02 42 72 55 c8 40 da 0b ab 42
       97.47169 32.55619 6.2604303 85.52315
0003f0 8b 9c 53 43 e7 07 56 42 71 d5 ee 42 82 76 48 43
       211.6115 53.507717 119.41688 200.46292

fc2.weight f4 [256, 514]
000000 85 09 ed 3c 65 eb 4f bc 3c ca 15 3d 35 be fa 3a
       0.028935203 -0.0126904 0.03656982 0.0019130172
000010 9b 47 68 bd fd 9f 82 bd 42 83 7c bd 87 67 00 3c
       -0.056708913 -0.063781716 -0.061648615 0.007837183
000020 ce 47 e2 3c 48 ec c4 bb 32 e1 86 3c 03 47 7a bc
       0.02762213 -0.006009612 0.016464803 -0.01527572
000030 dc 06 eb bc 39 88 11 bd 77 72 87 bd 73 24 eb bc
       -0.028689794 -0.035530303 -0.06613629 -0.028703904
000040 72 04 b3 3a cc c9 4a bd a7 5b db 3c b4 61 b2 bc
       0.0013657941 -0.049508855 0.026777102 -0.021775104
000050 ae 66 9b bb 09 55 a1 bd 31 5b 2c bd ba 44 a2 3a
       -0.004742465 -0.07877547 -0.042079154 0.0012380101
000060 bc 37 ee 3c d6 de 34 bb 73 79 92 bb ef 35 15 bd
       0.02907931 -0.002759864 -0.0044700443 -0.03642839
000070 2e 00 50 3c fd 2a 82 bd 93 fc 28 bd 40 3f a2 ba
       0.012695355 -0.063558556 -0.0412565 -0.0012378469
000080 17 e8 23 bd 08 3b 77 bc 0d 50 c2 3c 98 8b 9b bd
       -0.04001626 -0.015089758 0.023719812 -0.07594985
000090 00 95 1c bd 40 cc 66 bd ed 19 12 bc 70 04 5d 3d
       -0.038228035 -0.05634713 -0.008917314 0.05395931
0000a0 bb 6d ed 3c b9 41 3a bd 1d 36 14 bd 41 93 5f 3d
       0.028982988 -0.045472834 -0.03618442 0.05458379
0000b0 f4 fb 61 bd 97 d6 b9 bd 8a 66 aa bc 27 b3 af bc
       -0.05517192 -0.09074133 -0.020800848 -0.021447731
0000c0 40 59 b8 3c 3e 3b 2f 3c 84 06 a6 3c 86 fb 1b bc
       0.022503495 0.010695277 0.020266779 -0.009520417
0000d0 d7 47 38 bd f7 4b 53 bd 90 d8 80 bd 08 37 f9 3c
       -0.044990387 -0.051586118 -0.06291306 0.030421749
0000e0 27 39 a2 bd f7 a1 0d bc ac 76 a0 bc c6 70 09 bd
       -0.07921057 -0.008644572 -0.019587837 -0.033554815
0000f0 64 38 2f 3c 6b 7a a2 bd 39 9b a0 bd 48 c3 0f bd
       0.010694597 -0.079335056 -0.07842106 -0.035098344
000100 9f 44 3a ba 1d 34 92 bd 21 15 e8 3c 2a 88 42 3b
       -0.0007105562 -0.07138846 0.028330388 0.002968321
000110 04 35 81 bd a3 7c ab bd 1f 3a 8c bd e7 c8 8d bd
       -0.0630894 -0.08373382 -0.06847023 -0.06923085
000120 a3 d5 81 bd 09 98 21 bc 2b e9 67 3d d0 39 1b 3c
       -0.06339576 -0.009862908 0.05661885 0.009474233
000130 0b 67 3b 3d 7a ff cc 39 10 ea b0 3c a7 88 0c 3c
       0.045752566 0.00039100257 0.021595985 0.008577502
000140 f3 b1 71 3b af de a8 bd 6e 3f a1 bd 5e c9 68 3d
       0.0036879748 -0.082455985 -0.078734264 0.056832664
000150 2e 81 78 3c 12 82 af bd d6 a5 c6 bc fc 33 27 3a
       0.015167518 -0.08569731 -0.024248999 0.0006378291
000160 c4 1d 00 bc 00 0b 8e 3c ea 26 a0 bd 0a 1d b6 3c
       -0.007819597 0.01733923 -0.07819922 0.022230644
000170 b5 75 e5 bb c8 94 4a bc be 0f 05 3c 3b a9 25 bc
       -0.007002557 -0.012364574 0.008121429 -0.0101111485
000180 d4 1f a6 bd f5 f9 74 ba 26 9c cb bd 79 db 3f 3d
       -0.081115395 -0.0009345108 -0.09941892 0.046840165
000190 8b be dc 3c 50 6c de 3b 96 25 16 3c a7 4b b6 3b
       0.026946327 0.006787814 0.009164235 0.0055632177
0001a0 65 75 3a bc 86 1d b4 bd 73 ee 8d bd 93 22 1d 3c
       -0.011380528 -0.08794694 -0.06930246 0.009590763
0001b0 c0 ad 3e 3d 8f 80 14 3a 9f 52 f8 bc 4f b4 94 3b
       0.04655242 0.00056649087 -0.030312834 0.004538096
0001c0 20 b8 71 bd 0a 63 83 3b 7a 83 68 bc e0 05 ca 3b
       -0.059013486 0.004009609 -0.014191503 0.006165251
0001d0 4c 78 b6 bd f0 d6 0e bd 32 6d f2 3b 97 41 5f 3c
       -0.089096636 -0.03487295 0.007398271 0.013626478
0001e0 45 40 a7 bc ee 37 65 bc d6 36 1a 3c b8 3f bd bd
       -0.020416388 -0.013990385 0.009412488 -0.09240669
0001f0 b5 c1 4b bd 65 3b 0f bd ee 03 c5 bd 5a e5 ea 3c
       -0.04974528 -0.034968752 -0.0961989 0.028673816
000200 66 af 39 bb ff 95 74 bd c2 7a 19 bd dc 46 d4 39
       -0.0028333305 -0.05971336 -0.037470587 0.00040488585
000210 a2 46 92 bc 48 e3 68 3d 32 1a 87 bc 65 eb a2 bc
       -0.017855946 0.056857377 -0.016491983 -0.019887635
000220 a3 55 93 bd e9 11 7a bd b7 ad 09 bd 13 db 9a bd
       -0.07194068 -0.061052237 -0.033612933 -0.07561316
000230 c3 d7 cc bd 44 28 f7 3c 04 58 12 bd 64 5f 56 bc
       -0.10002091 0.030170567 -0.03572847 -0.013084266
000240 e8 1e a3 bc 02 6c ec 3b 88 10 60 3c d6 3a b1 3c
       -0.019912198 0.007215024 0.013675816 0.0216345
000250 f8 e1 c2 3c 52 50 8d 3d 72 11 3b bd 8a 89 7f 3c
       0.02378939 0.069000855 -0.045670934 0.015596757
000260 cd 1e 0e bd 74 86 c3 3c b0 c1 34 bd db 56 46 bd
       -0.034697343 0.023867823 -0.044130027 -0.048422676
000270 7d 1c 0b bd 14 61 84 3d 1e 0e 51 bd 8d 90 50 bd
       -0.033962715 0.06463829 -0.051038854 -0.050919104
000280 13 ca 24 bc 9a 79 b1 bb 22 ff 83 bd 57 5f a6 3c
       -0.010057944 -0.0054161074 -0.06445147 0.020309133
000290 4b bd 0f 3d c2 22 5d bd 8b 61 1b 3d 03 ad 7f bc
       0.035092633 -0.053988226 0.03793482 -0.015605214
0002a0 76 b7 32 bd 0b 91 b2 bd bd 66 13 bd 6e de df 3b
       -0.043631993 -0.08719071 -0.03598665 0.0068319356
0002b0 aa cb 06 bc 0e 1f 84 bc da 01 6b bc 9a c6 69 bd
       -0.008227268 -0.01612809 -0.014343703 -0.057074167
0002c0 a2 e5 e5 bb a5 7e d0 3c 44 ff 9b bb b0 13 be bd
       -0.0070158998 0.025451014 -0.0047606546 -0.09281099
0002d0 b4 d7 93 bd f8 f3 28 bd 27 04 40 bd 5b ee ab 3c
       -0.072188765 -0.04124829 -0.04687896 0.02098768
0002e0 8a 50 c8 bc 46 36 0d 3d 99 22 61 39 5d 64 17 bd
       -0.024452467 0.034475587 0.00021470561 -0.03696095
0002f0 55 2f 44 bd 11 a1 5a bd 29 7f 5b bc 42 cd 18 3d
       -0.0478967 -0.05337626 -0.013397017 0.037305124
000300 86 8b 66 bd 83 9e 3a bd 40 f5 1b 3d 94 1d 2a 3b
       -0.056285404 -0.045561325 0.038075686 0.0025957571
000310 7b 7c ee 3c 2d 3c 06 bd 93 8d b6 bd bf b8 ab bb
       0.029112091 -0.03277223 -0.08913722 -0.0052405293
000320 b8 ff da 3b 26 c1 ac 3d b3 00 20 3c 3d 36 68 bd
       0.006683316 0.08435278 0.009765792 -0.05669235
000330 7a 92 f6 bb 81 e8 b9 bd 98 bc ac bd 70 94 64 3c
       -0.0075247856 -0.0907755 -0.08434409 0.013951406
000340 77 0d 62 bd 15 7a 0e bd fc fe 3b 3b 4a 2f 9c bd
       -0.055188622 -0.034784395 0.0028685918 -0.07626207
000350 44 11 2f bd 8d 07 7f 3c 41 6c 0e bd b5 78 a2 bd
       -0.042741075 0.015565765 -0.034771208 -0.07933179
000360 bb bd a3 bd 02 ac 1d 3a f4 1d 62 bd ef 02 d5 3c
       -0.079951726 0.0006014706 -0.055204347 0.026002375
000370 2f 66 5f bd 7c 18 a9 bd a5 6a 2f bd 05 f3 4b bd
       -0.05454081 -0.08256623 -0.042826314 -0.04979231
000380 48 c1 c6 ba 99 17 0e bc 65 4c b1 bd 75 cd 9f bd
       -0.0015163803 -0.008672618 -0.08657149 -0.0780286
000390 73 2a 01 3d ba f4 e1 bc a0 c3 82 bd df 2f 88 bd
       0.031534623 -0.027582515 -0.06384969 -0.06649756
0003a0 74 9c 9a bd 76 5a e6 b7 1a 62 13 bd 4b 14 a6 bb
       -0.07549372 -2.746026e-05 -0.03598223 -0.005068337
0003b0 ea 78 98 bd 0d a8 44 bd 81 f4 47 bd 54 96 ba 3c
       -0.074449375 -0.04801183 -0.04881716 0.02277676
0003c0 76 62 50 3b 7a 44 27 3c 28 2e 03 3d 6b 3c 35 3c
       0.0031796969 0.010209197 0.03202644 0.011061768
0003d0 48 c2 14 3d 7d 4e 91 bd d7 5c 8c 3c 09 09 af bc
       0.036318094 -0.070950486 0.017134113 -0.021366613
0003e0 ac c7 81 bd 11 e7 df 3a 90 d3 0b bd b5 e9 1b 3d
       -0.063369125 0.0017082413 -0.03413731 0.038064677
0003f0 2b 70 13 bd 09 62 d8 3c e7 b1 99 bd e1 a1 7c bd
       -0.035995644 0.026413934 -0.07504635 -0.061677817
