DRLND-3-collab-compet-master/checkpoint_actor.pth (torch_old, 592745 bytes, 14 tensors)

fc1.weight f4 [512, 24]
0.16037016 -1.0775248 0.06601608 -0.05612588 -1.0058253 -0.9824555 0.06789174 -0.114815585
0.18303968 -0.8605167 0.011442434 0.2668635 -0.61309564 -0.24545106 -0.009674953 0.22425386
0.25540873 -0.41504994 0.1342122 0.75903964 -0.19134359 0.51587385 0.10740844 0.75242805
-0.78827584 -0.032784496 -0.24979492 0.20793186 -0.054024193 0.33094594 -0.2538256 0.18828836
-1.0212435 -0.00879068 0.16672292 0.22030702 -0.16141798 -0.45633438 0.14503151 0.27984497
-0.8208237 -0.07119547 0.101453975 0.22261937 -0.20339926 -1.3688331 0.11193908 0.2114463
0.08437331 0.8895996 -0.038020823 0.3877771 -0.1911814 -0.41402584 -0.07693196 0.3334765
0.26277295 1.171452 0.14823277 0.37431878 -0.20289959 -0.9303119 0.14537787 0.38207605
0.7051785 1.4770746 0.028480366 0.24431473 -0.17991817 -2.0029893 0.026182 0.30810162
0.011400592 0.049085557 0.13027224 0.06159598 0.07515425 -0.07470847 0.14627321 0.06434924
0.006967146 0.026940996 -0.016452499 -0.0063067167 0.048272286 -0.022698956 0.027668849 0.00040598106
-0.051793218 0.021681791 -0.033327293 -0.024186648 0.06933673 -0.0044868644 -0.07736596 -0.028020505
-0.2864431 0.18760762 0.062277332 -0.613955 0.24107349 1.4462117 0.011889961 -0.5828774
-0.2816876 0.01397352 0.053527053 -0.3265183 0.1618101 0.6072123 0.02717986 -0.2931267
-0.33097842 -0.22044778 -0.21281962 -0.8402453 0.030963514 0.1369094 -0.23873922 -0.82131964
1.2724252 1.028021 0.030310959 0.18316206 -0.1469184 -0.20588274 0.0029467274 0.1151671
0.9625231 0.8363189 -0.046208393 -0.23055647 -0.12884149 -0.28895423 -0.0012505928 -0.26209006
0.43132094 0.3785395 0.016218781 -0.69885564 0.13420364 -1.0760335 -0.01562262 -0.7313902
-0.1758003 0.14815341 -0.0353427 0.07256811 0.08515898 0.018744973 0.040780365 0.073299505
-0.1690079 0.14059077 0.10233175 0.04072508 0.0116803115 0.0019918312 0.1612747 0.004880564
-0.13230585 0.15939845 -0.03463076 0.066950455 0.06575486 -0.04657825 -0.08246476 0.05314864
-0.081168585 -0.79901624 -0.11731959 0.52896005 1.0065379 -0.058481142 -0.052034535 0.5531809
-0.4016409 -0.72681403 -0.3284882 0.23398328 0.34568837 0.34179574 -0.2964849 0.25814915
-0.3008236 -0.60297024 -0.039672926 -0.15779194 0.0015510771 0.9385933 -0.05552474 -0.1520861
0.042345274 0.028777212 0.03733472 0.104025364 0.057211667 0.031106574 0.02475067 0.08214409
0.031068072 0.045978278 -0.02423044 0.059695512 0.0062390384 0.069938816 0.05138678 0.06843856
-0.055154007 0.07246676 -0.07040374 0.0056437016 0.048870567 0.16584297 -0.121223785 0.047272958
-0.22825177 1.2910427 -0.043875553 -0.59831 -0.07392363 0.9906259 -0.021196986 -0.60411716
-0.32107633 1.0433412 -0.14748614 -0.16940664 0.025091298 0.85615885 -0.2229554 -0.23250192
-0.40044144 1.1077257 0.08772602 -0.07009722 0.063529946 0.2947061 0.039198153 -0.024762945
-0.5775866 0.6641528 0.0556053 -0.1154582 -0.1666331 -0.83301336 0.03750151 -0.06977594
-0.70306045 0.8801683 -0.46913674 0.3911923 -0.06156826 -0.37667945 -0.45546994 0.39002493
00000000: 1338 243e 55ec 89bf 7033 873d 40e4 65bd
00000010: e2be 80bf 3482 7bbf d30a 8b3d 6f24 ebbd
00000020: c16e 3b3e d34a 5cbf 0c79 3b3c 55a2 883e
00000030: d6f3 1cbf 8657 7bbe b283 1ebc cea2 653e
00000040: efc4 823e 6d81 d4be ec6e 093e 6c50 423f
00000050: 93ef 43be 4f10 043f f5f8 db3d 209f 403f
00000060: 72cc 49bf 0949 06bd 3dca 7fbe 17ec 543e
00000070: 7948 5dbd bf71 a93e 6ef5 81be aace 403e
00000080: 1bb8 82bf c906 10bc 6ab9 2a3e 2a98 613e
00000090: c14a 25be a9a4 e9be 2483 143e d747 8f3e
000000a0: 8121 52bf eece 91bd 1ac7 cf3d 55f6 633e
000000b0: e547 50be ec35 afbf 5140 e53d 6185 583e
000000c0: eacb ac3d cdbc 633f b9bb 1bbd b88a c63e
000000d0: 0fc5 43be 32fb d3be 818e 9dbd 6fbd aa3e
000000e0: 2d8a 863e 24f2 953f 55ca 173e b6a6 bf3e
000000f0: e9c4 4fbe ec28 6ebf f0dd 143e 799f c33e
00000100: 9486 343f c810 bd3f a84f e93c a42d 7a3e
00000110: 783c 38be fa30 00c0 a27b d63c 7fbf 9d3e
00000120: 8cc9 3a3c f00d 493d 1666 053e 114c 7c3d
00000130: 79ea 993d c100 99bd a5c8 153e 89c9 833d
00000140: a84c e43b 5db3 dc3c 64c7 86bc 93a8 cebb
00000150: 29b9 453d 29f3 b9bc c8a9 e23c dbd9 d439
00000160: 2025 54bd 039e b13c 3382 08bd 1423 c6bc
00000170: 6a00 8e3d 8c06 93bb 0b72 9ebd 428b e5bc
00000180: aca8 92be 361c 403e 8416 7f3d 282c 1dbf
00000190: f8db 763e 771d b93f 1cce 423c 7437 15bf
000001a0: 5b39 90be 31f1 643c 2f3f 5b3d 682d a7be
000001b0: 8cb1 253e 4472 1b3f 4ca8 de3c b414 96be
000001c0: 0176 a9be 10bd 61be 63ed 59be 511a 57bf
000001d0: 32a7 fd3c fa31 0c3e 0e78 74be 0142 52bf
000001e0: d4de a23f 3196 833f b04e f83c d68e 3b3e
000001f0: c771 16be edd2 52be e21d 413b bbdc eb3d
00000200: ea67 763f ff18 563f 0345 3dbd ff16 6cbe
00000210: 06ef 03be cff1 93be eeea a3ba ab30 86be
00000220: 19d6 dc3e eecf c13e 40dd 843c 34e8 32bf
00000230: ae6c 093e 77bb 89bf 04f6 7fbc 633c 3bbf
00000240: fe04 34be 87b5 173e 82c3 10bd 979e 943d
00000250: d567 ae3d 0f8f 993c 5009 273d 0d1e 963d
00000260: 6810 2dbe 07f7 0f3e 4f93 d13d 57cf 263d
00000270: c75e 3f3c 6289 023b 3225 253e 23ed 9f3b
00000280: 2f7b 07be 5939 233e fcd8 0dbd 521d 893d
00000290: 7caa 863d d6c8 3ebd 49e3 a8bd 63b2 593d
000002a0: b73b a6bd 548c 4cbf 4145 f0bd ed69 073f
000002b0: 3cd6 803f ec89 6fbd 2a22 55bd 439d 0d3f
000002c0: e0a3 cdbe 7c10 3abf 9b2f a8be 5099 6f3e
000002d0: 11fe b03e daff ae3e decc 97be 202c 843e
000002e0: 8d05 9abe 425c 1abf 1480 22bd 3694 21be
000002f0: 834d cb3a a747 703f e96d 63bd 75bc 1bbe
00000300: 3d72 2d3d 30be eb3c 4bec 183d 400b d53d
00000310: c856 6a3d 37d3 fe3c ebc1 ca3c 293b a83d
00000320: 7882 fe3c b853 3c3d ea7e c6bc 4883 743d
00000330: d970 cc3b 153c 8f3d f27a 523d 8429 8c3d
00000340: 2be9 61bd 7469 943d d62f 90bd cdee b83b
00000350: 812c 483d bdd2 293e 2d44 f8bd 4aa1 413d
00000360: d5ba 69be e340 a53f dab6 33bd d82a 19bf
00000370: 4665 97bd a999 7d3f 4da5 adbc 6ca7 1abf
00000380: 1e64 a4be 348c 853f 9b06 17be ef78 2dbe
00000390: 448c cd3c 3a2d 5b3f 6c4e 64be fc14 6ebe
000003a0: a906 cdbe f5c9 8d3f b3a9 b33d 228f 8fbd
000003b0: fd1b 823d b8e3 963e 3e8e 203d a9db cabc
000003c0: b7dc 13bf eb05 2a3f 62c2 633d 5975 ecbd
000003d0: dea1 2abe 5d40 55bf 2f9b 193d b0e6 8ebd
000003e0: c5fb 33bf b652 613f b132 f0be 5b4a c83e
000003f0: 002f 7cbd 21dc c0be 5b33 e9be 59b1 c73e

fc1.bias f4 [512]
0.0006289074 -0.0418658 0.085279465 0.14039218 0.05276966 0.0556746 0.1751037 0.030628249
-0.08347664 0.17308132 0.13937151 0.09175178 -0.13531467 -0.01955798 0.13724707 0.18149666
0.1770858 0.041654274 0.16540697 0.058691747 0.19009091 0.12182448 -0.015428467 -0.11194887
-0.117948584 -0.14080632 -0.15516602 0.110725604 -0.08256004 -0.18363386 -0.1500062 -0.002330639
-0.019874398 -0.100885235 0.06553367 -0.18421656 0.06585792 -0.008714321 0.13549972 0.021340836
-0.12497618 -0.06253928 -0.029697625 0.06777409 0.136776 -0.14297564 -0.1574552 -0.16775046
0.12633377 0.069486074 0.08294896 0.11145162 0.011281156 0.16593651 0.0623565 -0.03260225
0.17938252 -0.16046543 0.021759866 0.14780311 0.061904367 -0.12555756 0.19683343 -0.0014159691
-0.023736537 -0.059417196 -0.16263828 0.0076379296 -0.014538214 0.051973887 -0.112012036 0.0030825103
-0.2024077 0.1561322 0.034533847 0.061293494 0.16307585 -0.055542104 0.07323921 0.13115893
-0.1124927 -0.06913125 -0.07301913 -0.08944663 0.15885034 0.14873843 -0.009614914 -0.1965041
0.06982269 0.009415717 -0.1666046 -0.042427756 -0.08999726 0.06953733 0.11197355 -0.01509932
-0.20137233 0.13392255 -0.049034033 0.12338418 -0.004745913 0.037086193 -0.18514934 -0.17212543
0.026169213 -0.07544072 0.05379442 -0.018519834 -0.15019648 -0.026377406 -0.07979651 0.10410963
0.079233155 -0.04332778 0.12617344 -0.017469617 0.20231444 0.09654188 0.07405213 0.0822093
0.112386845 -0.16981263 0.19240159 0.1284937 0.023572741 0.053067755 -0.03041071 0.013039686
-0.017082676 -0.07251826 -0.006955847 0.1528593 -0.14893103 0.1661415 -0.18199909 0.18484783
-0.09561825 0.037158936 0.11103228 0.19844468 0.07603863 -0.12235756 -0.07096635 0.06211482
0.07591101 -0.17132835 0.119208716 0.09284753 0.0043230215 -0.15404813 -0.19628511 -0.056198232
0.1821473 0.19726256 -0.03954643 -0.029874697 -0.16270813 0.14643238 -0.15634559 0.007774874
0.19829792 0.1644909 -0.110801816 -0.021610823 -0.09261161 0.19080845 0.1766655 -0.09898112
0.16148376 0.10099967 0.19911365 0.021506896 0.13322741 -0.1448833 -0.06761302 -0.11855177
-0.19520767 0.1855611 0.15847164 -0.13781738 0.17917353 -0.116924755 0.11564198 0.1546163
0.1271144 0.04376791 0.17093523 0.11728418 -0.013226212 0.1581347 0.16105261 -0.16427387
-0.06197977 -0.005551196 -0.07152645 -0.013360768 0.1026977 -0.13321298 -0.10157557 0.01183081
-0.15260378 0.17139643 -0.08885831 0.20136079 -0.004944563 0.20267686 -0.039503127 -0.11296594
0.10995959 0.14534594 -0.1772515 -0.035385482 0.033824295 -0.12541068 0.2004174 0.0824635
-0.06477076 -0.034351848 0.027034938 -0.18859391 0.0460109 0.1586025 0.13628952 0.15585409
-0.09305862 0.040683832 0.028586216 -0.12793997 0.09115902 -0.04397855 -0.049682494 0.17659758
0.19328503 0.06573338 0.046215724 0.08013159 0.110283 0.12655495 0.12028012 -0.07391924
0.17379135 0.048060097 0.04909085 0.103774875 0.15765359 0.09747777 0.15353128 -0.07861596
0.12220885 -0.026420772 0.107740626 -0.067370445 -0.09494954 0.17929289 -0.07473713 -0.15922002
00000000: 43dd 243a 797b 2bbd 00a7 ae3d f8c2 0f3e
00000010: 0025 583d 0d0b 643d 624e 333e 18e8 fa3c
00000020: cdf5 aabd 3b3c 313e 68b7 0e3e 5be8 bb3d
00000030: ee8f 0abe 0f38 a0bc 7f8a 0c3e 43da 393e
00000040: fb55 353e ac9d 2a3d 7260 293e c266 703d
00000050: 31a7 423e 1d7f f93d aec7 7cbc 7345 e5bd
00000060: 078f f1bd 882f 10be d7e3 1ebe 1bc4 e23d
00000070: 3d15 a9bd 840a 3cbe 3a9b 19be a2bd 18bb
00000080: a2cf a2bc eb9c cebd 8436 863d 44a3 3cbe
00000090: 84e0 863d 83c6 0ebc 70c0 0a3e fad2 ae3c
000000a0: 83f3 ffbd 9814 80bd 6f48 f3bc 24cd 8a3d
000000b0: 020f 0c3e 3568 12be f03b 21be c7c6 2bbe
000000c0: a45d 013e b74e 8e3d 25e1 a93d bf40 e43d
000000d0: 99d4 383c 43eb 293e 8869 7f3d f089 05bd
000000e0: 0db0 373e 0d51 24be bf41 b23c b359 173e
000000f0: 6f8f 7d3d 2992 00be b48e 493e 0a98 b9ba
00000100: 2073 c2bc 725f 73bd a68a 26be 9947 fa3b
00000110: b031 6ebc 92e2 543d 9166 e5bd f103 4a3b
00000120: f743 4fbe 1fe1 1f3e 5d73 0d3d e30e 7b3d
00000130: 5bfd 263e 1e80 63bd 70fe 953d 874e 063e
00000140: 9362 e6bd af94 8dbd 0e8b 95bd cb2f b7bd
00000150: aaa9 223e e34e 183e df87 1dbc 5f38 49be
00000160: 33ff 8e3d 6144 1a3c 659a 2abe bac8 2dbd
00000170: 7c50 b8bd 9669 8e3d 6352 e53d 2363 77bc
00000180: 8c34 4ebe fe22 093e e9d7 48bd d8b0 fc3d
00000190: 9b83 9bbb b1e7 173d ca97 3dbe a641 30be
000001a0: d160 d63c aa80 9abd 8a57 5c3d e8b6 97bc
000001b0: 1bcd 19be 6e15 d8bc 5a6c a3bd 6e37 d53d
000001c0: fe44 a23d 7878 31bd 9c33 013e 711c 8fbc
000001d0: 842b 4f3e c0b7 c53d a5a8 973d 595d a83d
000001e0: 132b e63d 5de3 2dbe ec04 453e da93 033e
000001f0: 9f1b c13c 935d 593d e21f f9bc 68a4 553c
00000200: f8f0 8bbc 7484 94bd e0ed e3bb 2687 1c3e
00000210: 6081 18be ff20 2a3e f85d 3abe c048 3d3e
00000220: 80d3 c3bd f833 183d e464 e33d 1535 4b3e
00000230: 24ba 9b3d 9a96 fabd ce56 91bd 1c6c 7e3d
00000240: 3b77 9b3d b370 2fbe b323 f43d d926 be3d
00000250: 22a8 8d3b cbbe 1dbe f7fe 48be 1e30 66bd
00000260: d284 3a3e 32ff 493e 70fb 21bd c8bb f4bc
00000270: f69c 26be 5ff2 153e 0f19 20be 5fc4 fe3b
00000280: 9c0e 4b3e 4d70 283e 10ec e2bd 2e09 b1bc
00000290: 28ab bdbd 4a63 433e cde7 343e 9db6 cabd
000002a0: 005c 253e ead8 ce3d 73e4 4b3e 3b2f b03c
000002b0: c46c 083e 4a5c 14be b278 8abd 45cb f2bd
000002c0: 85e4 47be bb03 3e3e 6446 223e 0020 0dbe
000002d0: 4479 373e 3f76 efbd b4d5 ec3d bc53 1e3e
000002e0: 472a 023e fb45 333d a509 2f3e b032 f03d
000002f0: c1b2 58bc 10ee 213e faea 243e 6937 28be
00000300: 80de 7dbd cfe6 b5bb 767c 92bd 1fe7 5abc
00000310: 2c53 d23d fc68 08be da06 d0bd 04d6 413c
00000320: 2a44 1cbe 8c82 2f3e 58fb b5bd 8631 4e3e
00000330: 0006 a2bb 868a 4f3e 08ce 21bd b05a e7bd
00000340: 7e32 e13d 91d5 143e 6b81 35be 5ef0 10bd
00000350: 588b 0a3d a86b 00be 383a 4d3e a0e2 a83d
00000360: 88a6 84bd 86b4 0cbd 6078 dd3c c31e 41be
00000370: ed75 3c3d b268 223e 7b8f 0b3e 3798 1f3e
00000380: 8595 bebd 17a4 263d a42d ea3c b202 03be
00000390: 95b1 ba3d da22 34bd df7f 4bbd ffd5 343e
000003a0: 83ec 453e 399f 863d b34c 3d3d 081c a43d
000003b0: 0edc e13d 9f97 013e 6c55 f63d f862 97bd
000003c0: 5cf6 313e aada 443d 7d13 493d ec87 d43d
000003d0: f16f 213e 6da2 c73d 4e37 1d3e 6801 a1bd
000003e0: a248 fa3d 6070 d8bc 1ea7 dc3d 84f9 89bd
000003f0: e874 c2bd 8e98 373e c80f 99bd 930a 23be

bn1.weight f4 [512]
0.43909588 0.51805246 0.5903079 0.047516372 0.17896742 0.35898829 0.029048244 0.55772394
0.04725799 0.6165677 0.5718854 0.8303711 0.59302473 0.5013533 0.46013707 0.47990617
0.6892604 -0.0065304725 0.46917942 0.5335604 0.354839 0.62076324 0.43758354 0.64831334
0.45933327 0.20739658 0.63799095 0.69176 0.4587097 1.0406078 0.34166986 0.42610595
0.55655366 0.5940152 0.58675164 0.3444887 0.013666899 0.5919818 0.4050261 0.41652492
0.4630166 0.52272683 0.31401557 0.03791741 0.0020366698 0.4406107 0.9512038 0.39396268
0.35280058 0.5043962 0.60949326 0.5638317 0.49982342 0.384828 0.02550806 0.3524562
0.6819838 0.5210369 0.12266552 0.46066752 0.59873873 0.885606 0.326812 0.5617631
0.52127045 0.40160277 0.9838652 0.48392844 0.0064261532 0.8420833 0.543082 0.31659278
0.40335894 0.90863836 0.44870582 0.74964505 0.53077084 0.6067363 -0.00012597097 0.67599297
0.547799 0.8383186 0.014267611 0.64301187 0.56394666 0.47199544 0.74235445 -0.0028703378
0.29676694 0.58257174 0.48848158 0.8095726 -0.004621296 0.6815955 0.6513087 0.77653474
0.5225495 0.585308 0.55328476 0.014377914 0.46946445 0.32726824 0.38634193 0.8050497
0.3500021 0.54922 0.52975106 0.70437735 0.5595423 0.5069158 0.43261045 0.7118362
0.5605489 0.014213938 0.007265648 0.5310109 0.29643685 0.017969929 0.27970707 0.3943745
0.34784895 0.30388546 0.24192272 1.1930804 0.40720353 0.72444844 0.42060155 0.113660045
0.22912118 0.5507779 -0.000100808546 0.9340379 0.6450676 0.38428262 0.010785009 0.61513245
0.005995819 0.3792529 0.15647452 0.64026713 0.3935123 0.9372613 0.7635764 0.5052433
0.7805368 0.5959151 0.4263132 0.3319986 0.52653766 0.27448055 0.4807811 0.7003648
0.028404323 0.016573569 0.6682207 0.020794678 0.08323864 0.72346216 0.7477256 0.3490774
0.3540758 0.73200655 0.020246765 0.49514228 0.5537652 0.3636616 0.45918462 0.53758574
0.07544675 0.3386577 0.41282448 0.64036995 0.6071247 0.5664481 0.34738016 0.6246035
0.5221104 0.57685876 0.0046789446 0.4730728 0.10611503 0.2555305 0.2983216 0.007156464
0.41733825 0.07076893 0.5354045 0.4199043 0.12004683 0.66973376 0.48605856 0.002409763
-0.0058717816 0.36087826 0.027299134 0.45115823 0.42860115 0.36122087 0.54338634 0.37599066
0.41311067 0.2724105 0.53670424 0.10986674 0.040347774 0.8356984 0.5075717 0.0049245367
0.57097083 0.55218846 0.34055486 0.5786706 0.47517672 0.078439005 0.55312186 0.0034673023
0.34645405 0.67984664 0.518274 0.5099685 0.23975606 0.79760575 0.30918574 0.54238
0.77129847 0.13598649 0.38884726 0.47638777 0.69114417 0.31977674 0.55218714 0.36844516
0.46164107 0.6153374 0.031787496 0.5344464 0.5023873 0.6628983 0.018490057 0.57769495
0.027412126 0.35245442 0.50345486 0.010373917 0.26985058 0.6011114 0.6324691 0.5220514
0.36924937 0.4575726 0.39924094 0.4604731 0.8372476 0.51141614 0.9156023 0.545878
00000000: 2dd1 e03e 169f 043f 6b1e 173f 87a0 423d
00000010: 3c43 373e 50cd b73e 95f6 ed3c ffc6 0e3f
00000020: 9891 413d 61d7 1d3f 1567 123f 3393 543f
00000030: 78d0 173f b158 003f 1697 eb3e 43b6 f53e
00000040: 5f73 303f 93fd d5bb 4938 f03e 6a97 083f
00000050: 75ad b53e 57ea 1e3f f30a e03e ddf7 253f
00000060: bb2d eb3e c55f 543e 6053 233f 2f17 313f
00000070: ffdb ea3e a332 853f 5aef ae3e 8f2a da3e
00000080: 4d7a 0e3f 6111 183f 5b35 163f d360 b03e
00000090: 21eb 5f3c 1f8c 173f 955f cf3e c142 d53e
000000a0: 8310 ed3e 6dd1 053f a6c6 a03e 494f 1b3d
000000b0: a679 053b ba97 e13e 1882 733f 7ab5 c93e
000000c0: 47a2 b43e 1c20 013f c007 1c3f 4657 103f
000000d0: dbe8 ff3e 2d08 c53e 47f6 d03c 2475 b43e
000000e0: 7e96 2e3f ad62 053f 0f38 fb3d 9ddc eb3e
000000f0: f146 193f 13b7 623f e753 a73e b5cf 0f3f
00000100: fb71 053f e19e cd3e 97de 7b3f 78c5 f73e
00000110: 7b92 d23b c592 573f 6c07 0b3f 7318 a23e
00000120: 1085 ce3e 869c 683f c5bc e53e bde8 3f3f
00000130: 99e0 073f 1253 1b3f 1317 04b9 e00d 2d3f
00000140: 8e3c 0c3f 0c9c 563f b3c2 693c 6d9c 243f
00000150: cf5e 103f 63a9 f13e f10a 3e3f 471c 3cbb
00000160: d6f1 973e 6c23 153f 421a fa3e 2640 4f3f
00000170: 3e6e 97bb 0b7d 2e3f 2bbc 263f fbca 463f
00000180: cec5 053f bfd6 153f 12a4 0d3f 5891 6b3c
00000190: a55d f03e b48f a73e 9cce c53e bd17 4e3f
000001a0: 7a33 b33e af99 0c3f c49d 073f 1352 343f
000001b0: 2a3e 0f3f 3cc5 013f 1e7f dd3e e63a 363f
000001c0: 2280 0f3f 94e1 683c ac14 ee3b 55f0 073f
000001d0: 92c6 973e ac35 933c c435 8f3e 74eb c93e
000001e0: 4219 b23e e096 9b3e 97ba 773e dcb6 983f
000001f0: fb7c d03e 7475 393f 1659 d73e 99c6 e83d
00000200: be9e 6a3e c8ff 0c3f 2d69 d3b8 1c1d 6f3f
00000210: 2623 253f b1c0 c43e 9bb3 303c 5279 1d3f
00000220: 9378 c43b 702d c23e db3a 203e 8ce8 233f
00000230: 727a c93e 5bf0 6f3f be79 433f a057 013f
00000240: 42d1 473f e48d 183f b945 da3e b8fb a93e
00000250: 2ccb 063f b788 8c3e f128 f63e 1c4b 333f
00000260: 2fb0 e83c 4bc5 873c 8310 2b3f 9a59 aa3c
00000270: 0579 aa3d d134 393f f26a 3f3f 46ba b23e
00000280: 6c49 b53e c864 3b3f 8bdc a53c 4a83 fd3e
00000290: 8ec3 0d3f da31 ba3e 3f1a eb3e 389f 093f
000002a0: d383 9a3d 8b64 ad3e bb5d d33e 49ef 233f
000002b0: 866c 1b3f be02 113f d0db b13e 04e6 1f3f
000002c0: 07a9 053f 04ad 133f d551 993b 9936 f23e
000002d0: d652 d93d e5d4 823e 9cbd 983e c580 ea3b
000002e0: 5cad d53e 4def 903d 4510 093f b2fd d63e
000002f0: 1ddb f53d ac73 2b3f abdc f83e 1ded 1d3b
00000300: 1368 c0bb 09c5 b83e 6fa2 df3c 36fe e63e
00000310: 9c71 db3e f1f1 b83e 5e1b 0b3f d981 c03e
00000320: 3e83 d33e 6479 8b3e 7365 093f d001 e13d
00000330: b543 253d 55f0 553f 38f0 013f 025e a13b
00000340: 252b 123f 395c 0d3f 355d ae3e c223 143f
00000350: 5d4a f33e a1a4 a03d 6599 0d3f ae3b 633b
00000360: 6d62 b13e 6e0a 2e3f 9bad 043f 4c8d 023f
00000370: 9d82 753e e42f 4c3f 984d 9e3e 6ad9 0a3f
00000380: d173 453f 0b40 0b3e fd16 c73e 19e9 f33e
00000390: d3ee 303f c7b9 a33e 235c 0d3f d8a4 bc3e
000003a0: 385c ec3e c086 1d3f 9b33 023d 7bd1 083f
000003b0: 749c 003f b4b3 293f 7678 973c d1e3 133f
000003c0: 658f e03c e874 b43e 6be2 003f 5df7 293c
000003d0: db29 8a3e 70e2 193f 7fe9 213f 29a5 053f
000003e0: 410e bd3e f546 ea3e 4f69 cc3e 21c3 eb3e
000003f0: dc55 563f 2bec 023f ea64 6a3f a9be 0b3f

bn1.bias f4 [512]
-0.5236088 -0.49012494 -0.5921916 -0.17278792 -0.38797837 -0.49028584 -0.13511701 -0.3993009
-0.19143444 -0.51812446 -0.5262216 -0.7878648 -0.55657667 -0.34295532 -0.875524 -0.32988104
-0.20648074 -0.02649411 -0.80985236 -0.47576883 -0.6694422 -0.5997116 -0.451407 -0.31008744
-0.4711962 -0.36015216 -0.494066 -0.6353473 -0.51079553 -0.9789813 -0.6005659 -0.43112883
-0.51530284 -0.70545036 -0.6565056 -0.84640735 -0.07217259 -0.5229118 -0.8375631 -0.28916696
-0.765672 -0.4584991 -0.46825123 -0.15303117 -0.00967438 -0.5230605 -0.6658744 -0.40315038
-0.4000576 -0.30927 -0.9052075 -0.7811878 -0.5764588 -0.41814914 -0.13091429 -0.8206012
-0.5286346 -0.070733055 -0.41126692 -0.64024985 -0.6650341 -0.48308212 -0.54335624 -0.7855945
-0.79025316 -0.66732943 -0.6174495 -0.581447 -0.12140343 -0.57678753 -0.11139603 -0.12429105
-0.6544686 -0.22941512 -0.35640642 -0.658967 -0.59693056 -0.70858663 -0.013471435 -0.37684602
-0.3231594 -0.22038582 0.13335693 -0.85071176 -0.51665777 -0.6652467 -0.7269125 0.16420795
-0.63137114 -0.5223578 -0.4948172 -0.36989272 -0.034677997 -0.64855677 -0.49545014 -0.80406785
-0.31313625 -0.55289334 -0.6578558 -0.1087558 -0.5212484 -0.09181845 -0.58608115 -0.76203364
-0.46828926 -0.8149279 -0.3146328 -0.7620447 -0.54808116 -0.57970625 -0.4567868 -0.6922377
-0.7142311 -0.06536726 -0.03480155 -0.56264037 -0.57220864 -0.07841183 -0.32851905 -0.73277384
-0.5117062 -0.38983965 -0.35752928 -0.6242686 -0.75650316 -0.82780135 -0.82163185 -0.41226906
-0.6274597 -0.5327974 -0.019044502 -0.08782252 -0.25767994 -0.40730053 -0.04737167 -0.3337219
0.16806418 -0.52503186 -0.33495545 -0.6399982 -0.59805596 -0.58249116 -0.6920944 -0.6511015
-0.41570276 -0.6432968 -0.7498039 -0.37954098 -0.5244901 -0.20828877 -0.53200686 -0.6273906
-0.1367349 -0.089043096 -0.76956284 -0.13082556 -0.23438194 -0.6568296 -0.948989 -0.6516759
-0.43764314 -0.6132755 -0.06317954 -0.607323 -0.3854391 -0.7057409 -0.37209946 -0.5295869
-0.30281508 -0.550349 -0.35593697 -0.79781914 -0.20339754 -0.6149098 -0.5041608 -0.58929753
-0.20199166 -0.39217243 0.11612259 -0.6334094 0.05338435 -0.42331085 -0.34642747 -0.04519578
-0.50661576 -0.3067021 -0.48430806 -0.414813 -0.4562635 -0.21654306 -0.64910287 -0.011517944
-0.031905398 -0.50068027 -0.15445466 -0.5108469 -0.2855184 -0.56821233 -0.63937104 -0.7505339
-0.5761854 -0.6998938 -0.55399215 -0.48013055 -0.19011438 -0.6714351 -0.6081839 0.10602393
-0.96349734 -0.54228145 -0.48244137 -0.7966154 -0.3229729 -0.1654827 -0.59684986 -0.02004557
-0.45500556 -0.7587752 -0.7314036 -0.5450787 -0.39203876 -0.8798616 -0.69649523 -0.56885445
-0.8682246 -0.3755326 -0.22697832 -0.5604324 -0.63888377 -0.026631707 -0.4927095 -0.543499
-0.48205286 -0.45794845 -0.015785387 -0.5170226 -0.21517359 -0.32995838 -0.08995201 -0.46724534
-0.18375991 -0.5809892 -0.33392212 0.14890139 -0.54216397 -0.74298835 -0.7434334 -0.5958789
-0.39462927 -0.36509788 -0.48403296 -0.58566517 -0.37160018 -0.28389567 -0.5070723 -0.54319406
00000000: 3a0b 06bf a8f1 fabe de99 17bf 51ef 30be
00000010: 1aa5 c6be bf06 fbbe 1d5c 0abe 2b71 ccbe
00000020: 6407 44be cea3 04bf 75b6 06bf 82b1 49bf
00000030: cf7b 0ebf d797 afbe 5722 60bf 2be6 a8be
00000040: b06f 53be 2d0a d9bc 7c52 4fbf f997 f3be
00000050: 9060 2bbf b386 19bf d11e e7be c8c3 9ebe
00000060: a140 f1be dd65 b8be 38f6 fcbe 1fa6 22bf
00000070: 7fc3 02bf 859e 7abf b0be 19bf ebbc dcbe
00000080: e3ea 03bf 6598 34bf c010 28bf 27ae 58bf
00000090: 39cf 93bd 8cdd 05bf 896a 56bf b10d 94be
000000a0: 1503 44bf 65c0 eabe a0be efbe 34b4 1cbe
000000b0: 4a81 1ebc 4be7 05bf bf76 2abf ba69 cebe
000000c0: 5ad4 ccbe a358 9ebe aebb 67bf ecfb 47bf
000000d0: ce92 13bf a517 d6be 650e 06be ec12 52bf
000000e0: 9954 07bf 7edc 90bd 9491 d2be 6ae7 23bf
000000f0: ad3f 2abf 8a56 f7be 6519 0bbf b91c 49bf
00000100: 084e 4abf 1ad6 2abf 2c11 1ebf b6d9 14bf
00000110: 5da2 f8bd 59a8 13bf 9a23 e4bd 4e8c febd
00000120: 418b 27bf cceb 6abe e77a b6be 10b2 28bf
00000130: 71d0 18bf ef65 35bf 4bb7 5cbc f6f1 c0be
00000140: 2675 a5be d2ac 61be b88e 083e 3fc8 59bf
00000150: af43 04bf 9c4d 2abf f016 3abf 2126 283e
00000160: 8aa1 21bf 3eb9 05bf ae58 fdbe 9462 bdbe
00000170: 840a 0ebd d107 26bf a4ab fdbe 64d7 4dbf
00000180: 6553 a0be 6b8a 0dbf 3d69 28bf 5cbb debd
00000190: 8970 05bf 500b bcbd 6a09 16bf a314 43bf
000001a0: 9cc3 efbe 1d9f 50bf 8d17 a1be 5d15 43bf
000001b0: 0c4f 0cbf a167 14bf f6df e9be 7d36 31bf
000001c0: d9d7 36bf 45df 85bd 128c 0ebd 3309 10bf
000001d0: 447c 12bf 6296 a0bd a633 a8be 1197 3bbf
000001e0: 2dff 02bf 1099 c7be 140e b7be 11d0 1fbf
000001f0: 31aa 41bf caea 53bf 7756 52bf ee14 d3be
00000200: 33a1 20bf 6965 08bf 3703 9cbc 4bdc b3bd
00000210: a0ee 83be b289 d0be cc08 42bd 99dd aabe
00000220: 0419 2c3e 7d68 06bf 487f abbe ecd6 23bf
00000230: 321a 19bf 241e 15bf 192d 31bf 97ae 26bf
00000240: fed6 d4be 19af 24bf 26f3 3fbf 3253 c2be
00000250: fc44 06bf a749 55be 9a31 08bf ac9c 20bf
00000260: 3c04 0cbe 3a5c b6bd 1202 45bf 23f7 05be
00000270: d201 70be fc25 28bf f1f0 72bf 3bd4 26bf
00000280: c312 e0be a0ff 1cbf 4664 81bd 8579 1bbf
00000290: 4658 c5be 70ab 34bf d283 bebe 0293 07bf
000002a0: 940a 9bbe ace3 0cbf 5f3d b6be e03d 4cbf
000002b0: 7247 50be bb6a 1dbf af10 01bf 34dc 16bf
000002c0: e7d6 4ebe d3ca c8be aed1 ed3d 1e27 22bf
000002d0: 8ca9 5a3d 33bc d8be f15e b1be 361f 39bd
000002e0: 92b1 01bf 0f08 9dbe 3af7 f7be 5f62 d4be
000002f0: 5f9b e9be 77bd 5dbe 9b2b 26bf c2b5 3cbc
00000300: 3caf 02bd 952c 00bf 5d29 1ebe ddc6 02bf
00000310: 782f 92be 5d76 11bf d2ad 23bf fd22 40bf
00000320: e380 13bf 3d2c 33bf 6ed2 0dbf acd3 f5be
00000330: 58ad 42be 2ce3 2bbf f1b1 1bbf 1323 d93d
00000340: c3a7 76bf f5d2 0abf 8e02 f7be fdee 4bbf
00000350: b45c a5be 4c74 29be 27cb 18bf 9b36 a4bc
00000360: 7df6 e8be 173f 42bf 443d 3bbf 478a 0bbf
00000370: 4eb9 c8be 9c3e 61bf 834d 32bf 72a0 11bf
00000380: f843 5ebf cf45 c0be 016d 68be 7f78 0fbf
00000390: e38d 23bf bd2a dabc 6b44 fcbe c022 0bbf
000003a0: a2cf f6be 3878 eabe 5b50 81bc 985b 04bf
000003b0: 7756 5cbe 4ef0 a8be c238 b8bd c83a efbe
000003c0: 8f2b 3cbe b5bb 14bf d7f7 aabe 9b79 183e
000003d0: 42cb 0abf 7c34 3ebf a751 3ebf 858b 18bf
000003e0: d90c cabe 1cee babe 2bd3 f7be 27ee 15bf
000003f0: 6142 bebe c65a 91be 7ecf 01bf c40e 0bbf

bn1.running_mean f4 [512]
-3.007672 15.078144 -21.024479 0.6464601 12.678783 -27.08707 3.900655 7.67018
-0.0154065555 9.990408 6.1803694 -8.446782 4.8244667 5.599305 -6.2478595 4.7872963
8.227872 -0.26291528 -5.279717 25.394583 0.37998447 5.358918 4.8434463 25.1035
-4.736266 1.9372712 16.950403 -15.159011 9.289906 20.830332 -17.579964 2.4045553
3.9280112 0.7103864 -1.7325908 11.63616 1.3357271 15.411812 -13.882934 5.443595
7.57063 -7.8636312 -3.6007717 1.8324581 0.070050865 -19.930351 -0.94021773 10.180926
8.702581 23.797464 -11.867383 20.717709 2.2650163 -2.7040725 -5.0117745 3.6066277
0.2057589 12.138195 16.86552 -12.533877 11.352245 3.932615 19.65228 -14.780638
8.917152 11.098682 -12.312094 -2.064861 -0.6434115 -2.5033278 2.4176023 -0.09764433
-7.2913265 6.4675226 5.9382834 4.509462 -23.345695 -23.496607 -0.042134337 -7.165342
5.1627474 12.9352865 0.75482136 5.479911 5.0560265 -10.065779 5.917911 0.9122605
10.740783 12.080957 11.7725115 9.680406 -0.15585676 -6.0363827 15.994403 -16.883553
1.4608308 -6.9687014 -16.022305 -2.247597 0.97595775 -3.0904229 16.203232 -16.151443
10.208432 13.176041 14.4238205 16.652746 -22.480227 20.492882 15.275848 6.982026
1.4318321 -0.6510861 -0.030017864 -21.567934 -7.980064 -0.3016455 -9.959161 4.0255823
12.093563 -12.318286 0.58264405 -2.1108975 -14.735706 -7.044912 -7.2330375 -8.666728
-4.5981736 17.25925 0.85569054 10.553904 21.775787 -10.641342 -2.1716087 1.7781701
1.1342841 22.200611 2.6889226 -5.382999 3.130377 11.840535 1.8275225 8.061925
3.0915291 14.77215 -14.822747 -2.9506576 16.716213 1.5904212 -9.00136 11.464133
-1.084839 -0.5186255 10.60366 2.0657718 0.70323485 6.2952595 -2.4960787 -11.5522585
-4.053675 11.057051 -1.7133437 -9.407676 10.018851 -0.20779249 -11.089432 17.77991
7.1221266 -6.7722445 18.558294 15.704639 3.1588871 10.567331 -0.22819251 14.826962
14.639134 15.392717 -3.5383916 -4.5403647 6.5207 6.802937 0.86500335 0.057568558
1.5028954 -9.084651 -7.2046566 15.214198 7.8368907 7.811464 0.4682722 -0.20787477
-1.4130201 3.1471887 0.9136835 -10.296521 4.400012 -1.4331405 3.924415 -17.979385
8.14418 1.2667975 11.003978 -4.39547 -3.51943 -13.663971 16.31743 -0.32219893
13.536375 1.4154261 -17.26607 -2.1724002 4.3148627 1.3503978 10.261884 0.040130757
2.7996402 1.0023301 6.973138 -6.628222 0.5687149 20.510965 18.380228 2.6447096
-3.8052893 -0.52640295 4.9270883 -6.394231 19.76822 10.459911 -15.846296 -14.442157
-13.133091 6.934006 20.926676 8.412656 9.592828 -3.697956 0.71696824 7.654886
1.3328253 11.33018 -15.032689 -2.9272172 -6.931107 4.05775 13.28412 3.021463
9.379126 -10.147772 5.3012915 4.304857 7.020764 11.998284 -5.1341047 -15.533336
00000000: b37d 40c0 1440 7141 2232 a8c1 697e 253f
00000010: 4cdc 4a41 52b2 d8c1 55a4 7940 1d72 f540
00000020: c76b 7cbc b6d8 1f41 96c5 c540 0526 07c1
00000030: 0862 9a40 822d b340 77ee c7c0 8831 9940
00000040: 5da5 0341 d59c 86be 71f3 a8c0 1b28 cb41
00000050: 538d c23e 427c ab40 83fd 9a40 f8d3 c841
00000060: 7e8f 97c0 81f8 f73f 6d9a 8741 4f8b 72c1
00000070: 74a3 1441 85a4 a641 c4a3 8cc1 3ce4 1940
00000080: 8964 7b40 e2db 353f 89c5 ddbf b62d 3a41
00000090: 1bf9 aa3f c896 7641 7f20 5ec1 ee31 ae40
000000a0: 9a42 f240 dea2 fbc0 0b73 66c0 fd8d ea3f
000000b0: d476 8f3d 5c71 9fc1 1cb2 70bf 13e5 2241
000000c0: c63d 0b41 3561 be41 cde0 3dc1 debd a541
000000d0: 07f6 1040 860f 2dc0 7560 a0c0 fdd2 6640
000000e0: 76b2 523e 0c36 4241 96ec 8641 c38a 48c1
000000f0: cca2 3541 f7af 7b40 df37 9d41 7e7d 6cc1
00000100: a8ac 0e41 3494 3141 56fe 44c1 af26 04c0
00000110: 9eb6 24bf 8636 20c0 ffb9 1a40 c0f9 c7bd
00000120: 8c52 e9c0 f2f5 ce40 6b06 be40 834d 9040
00000130: fcc3 bac1 0df9 bbc1 0e95 2cbd 7b4a e5c0
00000140: 3a35 a540 eff6 4e41 f93b 413f 6e5b af40
00000150: f8ca a140 6e0d 21c1 875f bd40 e789 693f
00000160: 3fda 2b41 9a4b 4141 355c 3c41 f1e2 1a41
00000170: ea98 1fbe 0c2a c1c0 13e9 7f41 8411 87c1
00000180: 81fc ba3f 9aff dec0 ae2d 80c1 a1d8 0fc0
00000190: 5ed8 793f 7dc9 45c0 38a0 8141 2836 81c1
000001a0: bd55 2341 10d1 5241 f8c7 6641 d338 8541
000001b0: 81d7 b3c1 6cf1 a341 e069 7441 c26c df40
000001c0: 4646 b73f 94ad 26bf 06e8 f5bc 218b acc1
000001d0: af5c ffc0 4771 9abe b958 1fc1 92d1 8040
000001e0: 3c7f 4141 b317 45c1 2928 153f f218 07c0
000001f0: 74c5 6bc1 eb6f e1c0 0b75 e7c0 ebaa 0ac1
00000200: 3d24 93c0 f212 8a41 890e 5b3f cadc 2841
00000210: d034 ae41 f042 2ac1 a3fb 0ac0 149b e33f
00000220: 3930 913f da9a b141 4f17 2c40 8741 acc0
00000230: 1958 4840 d572 3d41 42ec e93f a5fd 0041
00000240: 9ddb 4540 ba5a 6c41 f929 6dc1 93d7 3cc0
00000250: ceba 8541 ec92 cb3f 9205 10c1 176d 3741
00000260: 01dc 8abf a4c4 04bf 97a8 2941 9b35 0440
00000270: 3307 343f c472 c940 c1bf 1fc0 0dd6 38c1
00000280: b5b7 81c0 aee9 3041 d94e dbbf d785 16c1
00000290: 374d 2041 8ec7 54be 506e 31c1 413d 8e41
000002a0: 76e8 e340 3ab6 d8c0 6377 9441 3446 7b41
000002b0: 352b 4a40 ca13 2941 4cab 69be 3d3b 6d41
000002c0: e539 6a41 9248 7641 0275 62c0 ab4a 91c0
000002d0: 93a9 d040 a9b1 d940 dc70 5d3f 02cd 6b3d
000002e0: e05e c03f bb5a 11c1 8c8c e6c0 5b6d 7341
000002f0: cfc7 fa40 83f7 f940 60c1 ef3e 20dd 54be
00000300: d8dd b4bf 8a6b 4940 29e7 693f 8dbe 24c1
00000310: e6cc 8c40 2671 b7bf 9e29 7b40 c8d5 8fc1
00000320: 904e 0241 6c26 a23f 4b10 3041 b1a7 8cc0
00000330: 573e 61c0 a09f 5ac1 198a 8241 42f7 a4be
00000340: fe94 5841 af2c b53f e920 8ac1 9b08 0bc0
00000350: 5b13 8a40 d6d9 ac3f ad30 2441 2660 243d
00000360: 4e2d 3340 5a4c 803f f223 df40 651a d4c0
00000370: 4d97 113f 7516 a441 b50a 9341 ec42 2940
00000380: dc89 73c0 58c2 06bf b5aa 9d40 8a9d ccc0
00000390: 5125 9e41 cc5b 2741 6e8a 7dc1 1313 67c1
000003a0: 2421 52c1 61e3 dd40 d569 a741 3d9a 0641
000003b0: 397c 1941 50ab 6cc0 3b8b 373f d3f4 f440
000003c0: 059a aa3f 6b48 3541 e585 70c1 8757 3bc0
000003d0: a1cb ddc0 17d9 8140 c18b 5441 a65f 4140
000003e0: e610 1641 465d 22c1 2ea4 a940 63c1 8940
000003f0: 19aa e040 f9f8 3f41 964a a4c0 8b88 78c1

bn1.running_var f4 [512]
161.4339 261.0061 158.3036 23.230537 175.49704 180.44315 16.106508 251.42616
10.521023 110.69685 402.00192 110.50258 108.19315 162.86638 620.091 101.25968
269.8849 38.310898 149.60545 161.62263 82.87119 161.15977 690.06396 163.1397
164.62169 101.18193 94.67972 79.37965 175.51451 135.4655 142.67346 194.72305
273.50116 161.779 204.89517 217.56299 8.054221 373.61642 75.304115 368.89713
85.18782 364.8378 623.47076 55.659843 0.5666539 105.89644 107.86893 62.14113
184.71172 206.25775 186.45859 135.51921 192.86151 490.703 29.668913 228.29851
93.880455 109.138725 101.09888 280.77472 619.5816 91.270584 132.995 100.88976
148.88934 345.79575 88.00613 236.66833 23.902021 66.72935 264.1856 215.75887
95.04026 111.28663 134.2173 125.51968 167.39526 145.0818 7.4830217 145.03693
51.624863 46.180008 262.51794 52.24643 82.840546 88.56128 104.48369 259.9886
140.17459 129.72708 137.38287 93.01107 46.232803 213.4913 350.47202 126.49008
228.1707 192.41849 164.59637 79.97593 170.97742 292.02008 89.54118 126.97645
112.049255 101.02356 205.92279 196.41287 155.19696 240.24057 691.4287 250.12686
43.614834 8.329906 1.3412744 74.420265 103.17224 4.3709936 259.99948 117.083435
137.69098 142.54941 275.75272 27.140966 149.90985 148.30894 136.68004 67.1834
486.12314 330.6906 1.0622331 290.53653 99.86264 518.2269 31.828886 80.41002
182.37909 357.468 156.9282 168.60971 121.205154 294.8557 149.89311 69.500946
27.528772 357.62762 129.79637 195.41792 175.7953 101.63076 98.973 125.72914
13.355335 23.179358 149.12135 10.560485 89.02253 232.37375 211.85547 109.01644
159.52406 39.200466 14.126683 125.708725 52.226196 200.89941 206.84695 142.12555
192.58128 179.68414 175.15892 75.966156 123.76739 72.15275 283.66788 132.18262
109.07735 83.69842 322.5599 370.49698 222.7085 68.415634 219.15034 2.0832238
154.68869 79.6529 345.73593 167.79442 186.11327 121.58468 69.648994 10.595795
25.369183 259.06644 34.8493 1675.2937 143.88791 211.98286 89.00076 83.854195
272.05807 111.23292 97.205 166.53355 43.90412 80.96183 536.56433 297.60226
91.69848 53.615917 202.71973 233.20906 219.54044 361.75876 123.414566 2.0166192
318.45184 362.86258 78.578186 25.390116 46.010098 78.0805 412.66534 518.5481
185.99678 128.83919 254.7613 449.94473 145.52118 339.51105 201.12218 112.49861
66.46181 147.87517 752.6121 338.65665 125.590485 174.89964 8.634066 73.635475
23.457752 408.1622 132.8851 277.20493 175.07918 74.10585 272.03815 175.40083
80.73914 164.8618 136.0742 74.44813 88.26378 101.88986 223.98906 163.83603
00000000: 146f 2143 c880 8243 b94d 1e43 24d8 b941
00000010: 3e7f 2f43 7271 3443 21da 8041 196d 7b43
00000020: 1c56 2841 ca64 dd42 3f00 c943 5201 dd42
00000030: e562 d842 cbdd 2243 d305 1b44 f584 ca42
00000040: 44f1 8643 5c3e 1942 ff9a 1543 659f 2143
00000050: 0dbe a542 e728 2143 1884 2c44 c323 2343
00000060: 279f 2443 265d ca42 045c bd42 61c2 9e42
00000070: b783 2f43 2b77 0743 68ac 0e43 1ab9 4243
00000080: 26c0 8843 6dc7 2143 2ae5 4c43 2090 5943
00000090: 17de 0041 e7ce ba43 b59b 9642 d572 b843
000000a0: 2a60 aa42 3d6b b643 21de 1b44 aea3 5e42
000000b0: 3b10 113f faca d342 e4bc d742 8490 7842
000000c0: 33b6 3843 fc41 4e43 6675 3a43 eb84 0743
000000d0: 8cdc 4043 fc59 f543 ef59 ed41 6b4c 6443
000000e0: cbc2 bb42 0747 da42 a032 ca42 2a63 8c43
000000f0: 39e5 1a44 8a8a b642 b8fe 0443 8fc7 c942
00000100: ace3 1443 dbe5 ac43 2303 b042 18ab 6c43
00000110: 5737 bf41 6d75 8542 c217 8443 45c2 5743
00000120: 9d14 be42 c192 de42 a137 0643 130a fb42
00000130: 3065 2743 f114 1143 ea74 ef40 7409 1143
00000140: dc7f 4e42 54b8 3842 4c42 8343 58fc 5042
00000150: 5cae a542 601f b142 a6f7 d042 8afe 8143
00000160: b22c 0c43 22ba 0143 0462 0943 ab05 ba42
00000170: 64ee 3842 c67d 5543 6b3c af43 ecfa fc42
00000180: b32b 6443 226b 4043 ac98 2443 adf3 9f42
00000190: 38fa 2a43 9202 9243 1615 b342 f1f3 fd42
000001a0: 3819 e042 100c ca42 3cec 4d43 b269 4443
000001b0: 6c32 1b43 963d 7043 70db 2c44 7a20 7a43
000001c0: 9775 2e42 4c47 0541 e1ae ab3f 2dd7 9442
000001d0: 3058 ce42 2edf 8b40 efff 8143 b82a ea42
000001e0: e4b0 0943 a68c 0e43 59e0 8943 b320 d941
000001f0: ece8 1543 174f 1443 17ae 0843 e75d 8642
00000200: c30f f343 6658 a543 41f7 873f ad44 9143
00000210: acb9 c742 868e 0144 8fa1 fe41 eed1 a042
00000220: 0c61 3643 e7bb b243 9fed 1c43 169c 2843
00000230: 0a69 f242 886d 9343 a3e4 1543 7c00 8b42
00000240: ed3a dc41 56d0 b243 dfcb 0143 fd6a 4343
00000250: 99cb 2f43 f342 cb42 2df2 c542 5275 fb42
00000260: 74af 5541 536f b941 111f 1543 bff7 2841
00000270: 890b b242 ae5f 6843 00db 5343 6b08 da42
00000280: 2986 1f43 47cd 1c42 e506 6241 de6a fb42
00000290: a0e7 5042 40e6 4843 d2d8 4e43 2420 0e43
000002a0: cf94 4043 24af 3343 af28 2f43 acee 9742
000002b0: e788 f742 354e 9042 7dd5 8d43 c02e 0443
000002c0: 9a27 da42 9765 a742 ab47 a143 9d3f b943
000002d0: 60b5 5e43 ced4 8842 7d26 5b43 8a53 0540
000002e0: 4eb0 1a43 494e 9f42 33de ac43 5fcb 2743
000002f0: ff1c 3a43 5b2b f342 494c 8b42 6088 2941
00000300: 16f4 ca41 8188 8143 af65 0b42 6669 d144
00000310: 4ee3 0f43 9dfb 5343 6400 b242 59b5 a742
00000320: 6f07 8843 4177 de42 f668 c242 9788 2643
00000330: d29d 2f42 75ec a142 1e24 0644 17cd 9443
00000340: 9f65 b742 b376 5642 40b8 4a43 8535 6943
00000350: 5a8a 5b43 1fe1 b443 42d4 f642 4a10 0140
00000360: d639 9f43 696e b543 0828 9d42 f51e cb41
00000370: 570a 3842 3729 9c42 2a55 ce43 14a3 0144
00000380: 2dff 3943 d5d6 0043 e5c2 7e43 edf8 e043
00000390: 6c85 1143 6ac1 a943 471f 4943 4aff e042
000003a0: 72ec 8442 0be0 1343 2d27 3c44 0d54 a943
000003b0: 542e fb42 4fe6 2e43 2225 0a41 5d45 9342
000003c0: 7aa9 bb41 c314 cc43 96e2 0443 3b9a 8a43
000003d0: 4514 2f43 3236 9442 e204 8843 9d66 2f43
000003e0: 717a a142 9fdc 2443 ff12 0843 71e5 9442
000003f0: 0e87 b042 9cc7 cb42 33fd 5f43 06d6 2343

fc2.weight f4 [256, 512]
-0.49160397 0.26402515 0.5814337 -0.043334577 0.45508114 -0.029917171 -0.06554353 -0.30131793
0.075284496 0.2650556 -0.7745206 0.21254894 0.0021658998 -0.117319435 -0.3902435 -0.6671851
0.12927027 -0.016705845 -0.06229876 -0.24937604 0.39321795 0.14581351 0.020454044 -0.49110705
0.22117037 -0.05119332 0.40447956 -0.28433785 0.29418367 0.21195024 -0.42200518 -0.18558303
-0.14982057 0.13806987 -0.31131184 0.33462462 -0.012708252 0.19565171 0.32618698 0.0054597734
-0.3022628 -0.43100047 0.08079977 0.24799144 -0.04994263 0.4179094 0.12542441 0.16191292
0.31805366 -1.2060442 -0.41289523 0.99246573 0.21158397 -0.47455746 -0.25004974 0.054226827
0.25992507 -0.14848457 0.22631218 0.12158969 0.21145085 0.29554114 0.38736293 0.2893359
-0.23661734 -0.18315522 0.6808972 0.028110692 -0.024034344 0.41200045 -0.06889683 -0.3433686
0.3064382 0.687603 0.035634004 0.07237735 -0.18759917 -0.49098426 0.0373648 0.1940991
0.3353858 0.16826046 -0.00800489 0.084633775 -0.34267852 -0.27407694 0.15367271 -0.20573686
0.26873198 -0.65908945 0.38402134 -0.48338866 -0.09417098 -0.1686727 0.519247 0.19975322
-0.5053163 -0.16978529 0.078817554 0.056439493 -0.067898355 -0.41597176 -0.01344936 -0.009667714
-0.8311572 -0.39793536 -0.2935437 -0.013122214 0.029340731 0.17454302 0.057556104 0.40494815
-0.07870808 -0.014757037 0.03117932 0.6028545 0.19806066 0.0518243 -0.05485242 0.16356564
-0.16974324 -0.5630746 0.18052225 -0.63675016 -0.0826329 -0.11381903 -0.5533906 -0.11950597
-0.2870224 -0.002539031 0.008131805 0.18794936 -0.08029275 0.043183114 -0.017066361 0.26950037
0.32209277 -0.66750723 -0.14084318 0.5183052 -0.2354044 -0.63123447 -0.7245756 0.07172578
-0.32329667 -0.5419052 -0.34133083 -0.43850732 -0.849279 -0.20904309 -0.76857597 0.3496281
0.07036509 0.037000675 -1.1244929 0.05857486 -0.043628503 0.0534089 -0.6804648 0.70089984
0.53000355 -0.32571876 0.017993748 0.11561673 0.041217398 0.5417227 -0.27757683 -0.16438131
0.099149406 0.45839763 0.25360236 0.39413643 0.33837882 -0.019151222 0.020449206 0.23173526
0.06709465 -0.32251823 -0.11552437 0.054217037 0.5146199 0.13756597 -0.03518417 0.02726644
0.3873127 -0.14291851 0.051150165 0.24043009 0.20634122 -0.13602489 0.29088446 -0.02060255
-0.050291084 -0.45250115 0.07173647 -0.63618594 -1.054085 -0.043794718 -0.06066536 -0.45533016
-0.36178672 0.37556335 -0.14126521 -0.35877618 -0.069377266 0.18577431 0.4000445 0.06571631
-0.10843075 -0.3510855 0.12276999 0.48493814 0.30507898 -0.30335993 0.2465406 -0.04990829
0.2724978 0.1005911 0.5000128 -0.03892914 0.1202116 0.06301863 -0.22880812 0.20003302
0.10503056 -0.17662434 0.026861953 0.24599965 -0.12433161 -0.17924124 -0.39481363 -0.56735367
-0.10768638 0.1784233 0.4867179 0.20839347 0.23652124 -0.7706432 0.045934375 0.2603957
0.0017463336 0.012281195 -0.08373647 0.17343928 0.4501451 0.571103 0.20771731 -0.011768048
0.5385695 0.27014995 0.15189582 -0.0318439 0.019353444 0.3663753 -0.043385264 0.06429759
00000000: 84b3 fbbe 4e2e 873e d7d8 143f 997f 31bd
00000010: 6500 e93e db14 f5bc b03b 86bd 5846 9abe
00000020: c22e 9a3d 5eb5 873e fb46 46bf 6ea6 593e
00000030: c5f1 0d3b 2c45 f0bd ffcd c7be a5cc 2abf
00000040: 6d5f 043e b2da 88bc fc2c 7fbd 6f5c 7fbe
00000050: dd53 c93e 2350 153e 3d8f a73c 6272 fbbe
00000060: 7c7a 623e 16b0 51bd f217 cf3e bb94 91be
00000070: 3e9f 963e 7c09 593e 1011 d8be 7a09 3ebe
00000080: 906a 19be 3062 0d3e 4464 9fbe eb53 ab3e
00000090: 4636 50bc ec58 483e fb01 a73e e6e7 b23b
000000a0: 31c2 9abe 18ac dcbe 5a7a a53d 78f1 7d3e
000000b0: a590 4cbd 39f8 d53e 426f 003e 80cc 253e
000000c0: eed7 a23e a85f 9abf 0167 d3be 3c12 7e3f
000000d0: 78a9 583e 32f9 f2be 8506 80be f31c 5e3d
000000e0: e614 853e 570c 18be 61be 673e 0404 f93d
000000f0: 9286 583e 2b51 973e 6f54 c63e d623 943e
00000100: d14b 72be 0b8d 3bbe 474f 2e3f 6548 e63c
00000110: ace3 c4bc b9f1 d23e c819 8dbd 02ce afbe
00000120: 78e5 9c3e c006 303f f6f4 113d 933a 943d
00000130: ff19 40be 4a62 fbbe d50b 193d eac1 463e
00000140: b0b7 ab3e 784c 2c3e f126 03bc 7954 ad3d
00000150: 8f73 afbe d053 8cbe 615c 1d3e afac 52be
00000160: 3d97 893e 16ba 28bf 729e c43e b87e f7be
00000170: b7dc c0bd 89b8 2cbe 5fed 043f 1c8c 4c3e
00000180: 695c 01bf 32dc 2dbe 196b a13d 192d 673d
00000190: 4b0e 8bbd 40fa d4be b45a 5cbc 5565 1ebc
000001a0: b8c6 54bf 2fbe cbbe 5c4b 96be 8efe 56bc
000001b0: f95b f03c 68bb 323e f3bf 6b3d 5d55 cf3e
000001c0: b431 a1bd 80c7 71bc c66b ff3c ac54 1a3f
000001d0: 6ad0 4a3e b845 543d eeac 60bd c07d 273e
000001e0: 2cd1 2dbe a825 10bf d3da 383e 0f02 23bf
000001f0: 703b a9bd f419 e9bd 02ab 0dbf 8cbf f4bd
00000200: 9af4 92be df65 26bb 433b 053c cc75 403e
00000210: 8670 a4bd c7e0 303d c1ce 8bbc f4fb 893e
00000220: 58e9 a43e c1e1 2abf 3239 10be a6af 043f
00000230: da0d 71be 9598 21bf c97d 39bf f7e4 923d
00000240: 2487 a5be 4dba 0abf eac2 aebe 0884 e0be
00000250: 596a 59bf 640f 56be 65c1 44bf 7402 b33e
00000260: 931b 903d 058e 173d 62ef 8fbf 31ec 6f3d
00000270: cdb3 32bd 4ac3 5a3d f132 2ebf 2c6e 333f
00000280: 50ae 073f 9cc4 a6be a067 933c 77c8 ec3d
00000290: 93d3 283d 57ae 0a3f 8d1e 8ebe 9353 28be
000002a0: d80e cb3d 18b3 ea3e 2bd8 813e 40cc c93e
000002b0: fd3f ad3e 06e3 9cbc 1885 a73c 024c 6d3e
000002c0: eb68 893d 1c21 a5be 0a98 ecbd af12 5e3d
000002d0: 21be 033f 18de 0c3e 471d 10bd df5d df3c
000002e0: da4d c63e 3b59 12be d682 513d 4e33 763e
000002f0: 1d4b 533e 1c4a 0bbe cfee 943e aec6 a8bc
00000300: 06fe 4dbd 3bae e7be 92ea 923d 15dd 22bf
00000310: 42ec 86bf 1762 33bd 3e7c 78bd 0921 e9be
00000320: 1c3c b9be d749 c03e d4a7 10be 83b1 b7be
00000330: ab15 8ebd 9f3b 3e3e a2d2 cc3e 4696 863d
00000340: f110 debd 7bc1 b3be d56e fb3d d049 f83e
00000350: 5033 9c3e fe51 9bbe 2475 7c3e a36c 4cbd
00000360: d584 8b3e b502 ce3d d700 003f 2974 1fbd
00000370: 8031 f63d e90f 813d ad4c 6abe 75d5 4c3e
00000380: 431a d73d 03dd 34be 990d dc3c 55e7 7b3e
00000390: 92a1 febd 048b 37be 0325 cabe 173e 11bf
000003a0: ad8a dcbd 99b4 363e 1733 f93e 1965 553e
000003b0: a032 723e df48 45bf af25 3c3d 9652 853e
000003c0: 3be5 e43a 1137 493c 077e abbd 119a 313e
000003d0: 6b79 e63e ce33 123f d9b3 543e c5ce 40bc
000003e0: b1df 093f 1851 8a3e 948a 1b3e c06e 02bd
000003f0: 1d8b 9e3c 8b95 bb3e bfb4 31bd 74ae 833d

fc2.bias f4 [256]
-0.00044710294 0.03872843 -0.016666502 -0.011945635 -0.007033287 -0.004303541 -0.027538572 -0.020660223
-0.0032398072 -0.043663207 -0.028748263 0.026087195 0.021075534 -0.028333016 0.03183355 0.018492445
-0.031771295 0.03676777 0.028734364 -0.009069437 -0.03530048 -0.014721862 0.029514946 0.011124334
0.016850427 0.022312433 -0.01465282 -0.032822672 0.009810599 -0.030869495 -0.0028089236 -0.0072745658
0.03669727 -0.025305327 -0.043361902 0.038182482 -0.02339563 -0.0004817851 0.026806392 0.0021727215
0.0024972528 -0.02381975 -0.034297734 0.030265747 0.030538749 0.024998004 0.033720993 -0.013000465
0.03254335 0.02780751 -0.0258908 -0.015520345 0.0330427 -0.04342994 0.023370674 0.017966468
-0.015511784 0.0067757056 -0.017091222 -0.025139807 0.021726161 0.0013159352 0.027627965 0.005175666
-0.033030648 -0.02549423 0.007078844 0.026857728 0.0033672922 0.0038164128 0.0160673 0.0009904988
0.019588511 0.032503024 0.042056177 -0.041265707 0.030213382 -0.038588036 -0.03234973 -0.039019432
-0.029451076 0.007966702 0.00066928146 -0.043791648 0.0323686 0.013372349 -0.00443964 -0.026130728
-0.0014594495 0.040623356 -0.032457616 0.011122903 -0.036522504 -0.042839363 0.031301763 0.04327203
-0.030615106 -0.027567482 0.021923456 -0.03751979 -0.01294527 -0.03252396 -0.000563937 -0.00043759946
0.020185359 -0.003725589 0.025360033 -0.01847421 0.018232984 -0.02502284 -0.018390482 -0.03175816
-0.03033318 -0.015673978 -0.016238317 0.024484927 0.025069918 -0.042270545 0.01356504 -0.011611115
-0.027371125 -0.042849045 0.017939879 0.032681085 -0.040583726 0.011501156 -0.012290437 0.013453658
0.016844105 0.041297358 -0.0009555725 -0.0318511 -0.02682471 -0.004634169 0.0073385565 0.017386638
0.022383278 0.029873881 -0.033259906 -0.0063820085 0.041834377 0.03623508 -0.026037998 0.021947842
0.0053675263 0.026017785 -0.010465609 0.0093542 0.030374061 -1.8797423e-06 0.0033696468 0.00113359
0.0043750224 -0.013757233 0.008109981 -0.042571124 -0.0020398907 -0.0050418507 -0.0042051733 0.03755612
0.0021516439 0.0014021333 0.0059524784 -0.034842692 -0.031507235 0.001874416 -0.035603076 -0.039017584
-0.009618718 0.036898717 0.009028549 -0.020033604 0.006118584 -0.019182093 -0.030332543 0.014429075
-0.010987106 0.0017200826 -0.03301216 -0.028777687 0.006116555 0.02400808 0.010055355 -0.023137262
-0.039348222 0.04397718 0.017654171 -0.014377595 -0.042514578 0.005464596 -0.019115005 0.009650538
0.027991658 0.026224453 0.036037676 -0.043247145 0.015717048 0.03909097 0.021770393 0.042448837
0.03583487 -0.0063861124 0.03550765 -0.034323767 0.004845716 0.03830965 0.020161405 -0.001384594
0.025410088 -0.009725512 -0.0010364145 0.027249368 0.018299058 0.026038796 -0.014018293 0.015793113
0.042824075 -0.04147494 0.04212671 0.028216634 -0.008284998 -0.0362466 -0.03718647 0.017759904
0.0142351845 0.004138531 -0.029206803 -0.00093392946 -0.033066496 -0.031111682 0.03531316 -0.027881142
-0.0044758697 -0.033368234 0.04357327 0.023925483 -0.008434161 0.016713204 0.03624727 -0.037330296
0.021775585 0.034004625 0.008769172 0.04018885 -0.020909542 -0.025266025 0.012705184 -0.02207279
-0.022308555 0.0167679 -0.0047511836 0.0076757763 0.015426353 0.014425633 0.0072476137 0.02230769
00000000: 2469 eab9 b4a1 1e3d 3088 88bc a0b7 43bc
00000010: 7d77 e6bb b804 8dbb 9298 e1bc a13f a9bc
00000020: f252 54bb 31d8 32bd 7a81 ebbc d0b4 d53c
00000030: 99a6 ac3c a41a e8bc e663 023d 787d 973c
00000040: 9e22 02bd cd99 163d 5464 eb3c fa97 14bc
00000050: 3c97 10bd f733 71bc 54c9 f13c d742 363c
00000060: e809 8a3c 90c8 b63c 6212 70bc 1171 06bd
00000070: a2bc 203c 06e2 fcbc eb15 38bb 7b5f eebb
00000080: e04f 163d 1e4d cfbc 409c 31bd 3c65 1c3d
00000090: 31a8 bfbc 1a98 fcb9 1499 db3c 3864 0e3b
000000a0: f3a8 233b a321 c3bc c87b 0cbd dfef f73c
000000b0: 662c fa3c 9dc8 cc3c 061f 0a3d e7ff 54bc
000000c0: 2d4c 053d 93cc e33c f118 d4bc 0c49 7ebc
000000d0: c857 073d 98e3 31bd db73 bf3c 6a2e 933c
000000e0: 2325 7ebc bd06 de3b e402 8cbc fff1 cdbc
000000f0: 10fb b13c 757b ac3a 0b54 e23c a298 a93b
00000100: 254b 07bd 47d9 d0bc a6f5 e73b bd04 dc3c
00000110: caad 5c3b c81c 7a3b 929f 833c a0d3 813a
00000120: 1678 a03c e421 053d 1943 2c3d 3b06 29bd
00000130: 0e82 f73c 7d0e 1ebd 2781 04bd d7d2 1fbd
00000140: 6243 f1bc c586 023c b872 2f3a df5e 33bd
00000150: f094 043d b217 5b3c 667a 91bb 1c10 d6bc
00000160: 004b bfba ad64 263d 47f2 04bd d63c 363c
00000170: 9f98 15bd 5478 2fbd 4736 003d 033e 313d
00000180: 88cc fabc 33d5 e1bc d298 b33c 5aae 19bd
00000190: 6618 54bc d837 05bd 2cd5 13ba 9b6d e5b9
000001a0: c45b a53c 0329 74bb d8bf cf3c 3a57 97bc
000001b0: 575d 953c b3fc ccbc a3a7 96bc d814 02bd
000001c0: 4a7d f8bc b766 80bc 3806 85bc 9d94 c83c
000001d0: 6e5f cd3c e123 2dbd e73f 5e3c 8c3c 3ebc
000001e0: 6939 e0bc 7b82 2fbd a7f6 923c 9adc 053d
000001f0: 1f3b 26bd 586f 3c3c d45d 49bc bb6c 5c3c
00000200: a6fc 893c 6b27 293d 637f 7aba 4d76 02bd
00000210: 7fbf dbbc 3ada 97bb 4678 f03b 6c6e 8e3c
00000220: 235d b73c 12ba f43c 8a3b 08bd 2b20 d1bb
00000230: 865a 2b3d 3c6b 143d a44d d5bc f6cb b33c
00000240: 13e2 af3b 4023 d53c f277 2bbc 5c42 193c
00000250: 06d3 f83c 744b fcb5 4bd5 5c3b f894 943a
00000260: 595c 8f3b 0466 61bc badf 043c 0f5f 2ebd
00000270: b0af 05bb 1c36 a5bb 8dcb 89bb 72d4 193d
00000280: 9802 0d3b c9c7 b73a 020d c33b 36b7 0ebd
00000290: bb0d 01bd f7ae f53a 88d4 11bd e7d0 1fbd
000002a0: d497 1dbc 1c23 173d 7bec 133c 831d a4bc
000002b0: 677e c83b c423 9dbc f47b f8bc ed67 6c3c
000002c0: 4303 34bc 6574 e13a c237 07bd 2fbf ebbc
000002d0: 626d c83b 98ac c43c 37bf 243c 5b8a bdbc
000002e0: 9a2b 21bd 6a21 343d 7b9f 903c 0190 6bbc
000002f0: c423 2ebd 5b10 b33b 1297 9cbc 4a1d 1e3c
00000300: c34e e53c aad4 d63c 3e9c 133d eb23 31bd
00000310: 0ac1 803c da1d 203d d357 b23c d5de 2d3d
00000320: 96c7 123d 9842 d1bb 7870 113d 1497 0cbd
00000330: d0c8 9e3b 94ea 1c3d 8829 a53c 447b b5ba
00000340: d128 d03c c157 1fbc 4dd8 87ba 113a df3c
00000350: e8e7 953c 504f d53c fbac 65bc 8f60 813c
00000360: 4c68 2f3d a0e1 29bd 0f8d 2c3d 9226 e73c
00000370: cdbd 07bc 5177 14bd d750 18bd 387d 913c
00000380: b13a 693c 849c 873b 1b43 efbc f2d2 74ba
00000390: bc70 07bd eddd febc 88a4 103d fe66 e4bc
000003a0: 51aa 92bb 21ad 08bd e379 323d 60ff c33c
000003b0: 6f2f 0abc 21ea 883c 0478 143d a7e7 18bd
000003c0: b662 b23c 6f48 0b3d 93ac 0f3c 109d 243d
000003d0: 7d4a abbc b2fa cebc 6729 503c ffd1 b4bc
000003e0: 6ec0 b6bc d65c 893c d1af 9bbb 1485 fb3b
000003f0: d0be 7c3c 7d59 6c3c 647d ed3b 9ebe b63c
