DRLND-1-navigation-master/checkpoint.pth (torch_old, 778323 bytes, 12 tensors)

fc1.weight f4 [512, 37]
0	0x3d0277e3	0.031852614
1	0x3db1a594	0.0867416
2	0xbe16f1b7	-0.14740644
3	0xbe32bbba	-0.17454425
4	0xbd8587b2	-0.065200225
5	0xbce8a447	-0.028398646
6	0x3ce01360	0.027352989
7	0x3debf63e	0.11521576
8	0x3d8f50f1	0.0699786
9	0x3d037939	0.03209803
10	0xbd790372	-0.0607943
11	0x3a6b4ad4	0.0008975689
12	0xbe339742	-0.17538169
13	0xbdcc8d64	-0.099879056
14	0xbe2989d7	-0.16556488
15	0xbd2a4abb	-0.041575175
16	0x3d82f513	0.063944004
17	0x3e0b6b96	0.1361526
18	0xbde255b3	-0.11051502
19	0xbd7aca9c	-0.06122838
20	0x3dd94618	0.106090724
21	0x3e00181e	0.125092
22	0xbd610d9c	-0.05494462
23	0x3d58f60b	0.05296902
24	0xbe73e9e5	-0.23819692
25	0xbce11755	-0.027476946
26	0x3e290d44	0.16508967
27	0xbdf556b5	-0.11979429
28	0xbdc77066	-0.09738235
29	0xbc9a987e	-0.018871542
30	0xbd695681	-0.056967262
31	0x3e17a865	0.14810331
32	0xbe22bd24	-0.15892464
33	0xbde01da6	-0.10943155
34	0xbdfbd0cd	-0.12295685
35	0xbe6128cd	-0.2198822
36	0xbd62f62c	-0.05541055
37	0x3e19053f	0.14943407
38	0x3d44330c	0.047900245
39	0x3d361dce	0.044462018
40	0xbd1cca0f	-0.038278636
41	0xbe81dd82	-0.2536431
42	0xbc882809	-0.016620653
43	0xbe28fed1	-0.16503455
44	0xbdf38e38	-0.118923604
45	0xbdb7bd92	-0.089717045
46	0x3e0eb294	0.1393531
47	0x3da1f021	0.07907129
48	0xbdf154dc	-0.11783764
49	0xbcff926f	-0.031197755
50	0x3e1a8e9a	0.1509346
51	0x3dc3792d	0.09544597
52	0x3d929434	0.07157174
53	0x3bda1587	0.0066553983
54	0x3da83498	0.082131565
55	0xbe30b048	-0.17254746
56	0xbe5676ec	-0.20943803
57	0xbe101139	-0.1406907
58	0xbe0d8204	-0.13819128
59	0xbdd368f7	-0.10322755
60	0x3d652a7e	0.055948727
61	0x3cab91c6	0.020943534
62	0xbe0eb869	-0.13937534
63	0x3d12cdd7	0.035840835
64	0x3dd5bfe0	0.10436988
65	0xbd667cb3	-0.056271266
66	0x3da226e5	0.07917575
67	0xbcd0a355	-0.025468508
68	0x3dce062c	0.10059771
69	0x3e260033	0.16211013
70	0xbe038237	-0.12842642
71	0xbcc5af86	-0.024131548
72	0x3d12ae95	0.035811026
73	0x3d686512	0.056737013
74	0x3e251d65	0.16124494
75	0x3e02b0f7	0.12762819
76	0x3dc5e110	0.09662068
77	0xbe2019b5	-0.15634806
78	0xbd605071	-0.054764215
79	0xbdb0c7df	-0.086318724
80	0xbe343600	-0.17598724
81	0x3e384828	0.17996275
82	0x3e09d9ad	0.13461943
83	0xbe87bfb6	-0.2651345
84	0x3dcc4ff2	0.09976186
85	0x3bff12bf	0.007784217
86	0xbd61410f	-0.054993685
87	0xbdd880a0	-0.10571408
88	0x3d0f9165	0.03505077
89	0xbda0725a	-0.07834311
90	0x3d5fd806	0.054649375
91	0x3def38c3	0.11680748
92	0x3dfc7c1b	0.12328359
93	0x3daf8b75	0.08571521
94	0xbe1858ff	-0.148777
95	0xbd93a4f4	-0.07209197
96	0x3da6d293	0.081456326
97	0x3d492a3d	0.049112547
98	0xbe30f0b1	-0.17279316
99	0xbdb6e167	-0.08929711
100	0x3e1d3efd	0.1535606
101	0x3e2751c5	0.16339786
102	0xbd9e5a24	-0.07732037
103	0xbc8a79c6	-0.01690377
104	0xbe4041cb	-0.18775098
105	0x3d833c45	0.0640798
106	0xbdb31a16	-0.0874521
107	0xbe0fd39e	-0.1404557
108	0x3cdd0a05	0.026982317
109	0x3d53380b	0.05156712
110	0xbcf444dc	-0.029817991
111	0x3e3e60f4	0.18591672
112	0xbe8fe536	-0.28104562
113	0x3db5e94a	0.08882387
114	0x3de2807a	0.11059661
115	0xbebf765b	-0.37394986
116	0xbca7c07d	-0.020477528
117	0x3ceb0542	0.02868903
118	0x3d0c0927	0.034188416
119	0x3c8b2a9e	0.016988095
120	0x3c4da66c	0.012551885
121	0x3c4707b3	0.012147832
122	0xbdb6e6b8	-0.08930725
123	0x3d94b943	0.07261898
124	0xbdd7204c	-0.10504207
125	0xbde097c8	-0.1096645
126	0xbd8c8e9c	-0.06863138
127	0x3ce18836	0.02753077
128	0xbd9c3752	-0.07627739
129	0xbdf4f002	-0.1195984
130	0xbdde905d	-0.10867379
131	0x3d388735	0.04505082
132	0xbd992c66	-0.074791715
133	0xbb9f67d3	-0.0048646717
134	0x3de3e790	0.111281514
135	0x3c6eb646	0.014569825
136	0xbd3ad9ed	-0.045617986
137	0x3d792420	0.060825467
138	0x3d700da6	0.058606766
139	0x3e0b8c66	0.13627777
140	0x3e30e3af	0.17274354
141	0x3df49b99	0.119437404
142	0x3e3d8e74	0.18511373
143	0xbcd2cdd6	-0.025732916
144	0xbdc654e7	-0.096841626
145	0xbe20a577	-0.1568812
146	0x3d60d5e3	0.05489148
147	0x3b74bc4e	0.0037343684
148	0xbdc605d2	-0.09669079
149	0xbe1a5a31	-0.15073468
150	0xbe0808af	-0.13284563
151	0xbe0f53c5	-0.139968
152	0xbcbd757b	-0.023127308
153	0x3d7d4b54	0.061839417
154	0x3d93cc27	0.07216673
155	0xbe19cba4	-0.15019089
156	0x3e2344a0	0.15944147
157	0xbdf83628	-0.121197045
158	0xbd8818c0	-0.06645346
159	0xbcce9a17	-0.02521996
160	0xbd401933	-0.04689903
161	0xbcbbaa9b	-0.0229085
162	0xbe0f5f09	-0.14001097
163	0xbe318dd1	-0.17339255
164	0xbdbf7e7b	-0.09350296
165	0x3d8bbe62	0.06823422
166	0xbd2255b7	-0.039632525
167	0x3e33e4b5	0.17567714
168	0xbe21ed06	-0.15813074
169	0xbcc81dc3	-0.024428254
170	0x3e22aaa2	0.15885404
171	0xbd93ddc9	-0.072200365
172	0x3e80b1a8	0.2513554
173	0x3bf2a90c	0.007405406
174	0xbe192d2b	-0.14958636
175	0x3e15f1d3	0.1464303
176	0x3cd5f759	0.026118921
177	0x3db20776	0.08692829
178	0x3dcefe9b	0.10107156
179	0xbe3b863e	-0.18312928
180	0x3d14c61c	0.036321744
181	0x3d553a3b	0.052057486
182	0x3e365221	0.17804767
183	0x3d979f4e	0.07403432
184	0x3d54ebcd	0.05198269
185	0x3d48ef95	0.04905661
186	0xbd6c59dd	-0.057702888
187	0xbcb03ffe	-0.021514889
188	0xbe16be39	-0.14721002
189	0x3dd9a8f3	0.10627928
190	0x3e28d354	0.16486865
191	0x3d8e8e5e	0.06960748
192	0xbe55d97c	-0.20883745
193	0xbd2949be	-0.04133009
194	0xbed777a9	-0.4208348
195	0xbd57b4fd	-0.05266284
196	0xbe0d6214	-0.13806945
197	0x3d24f13a	0.040269114
198	0xbde4b529	-0.11167366
199	0xbca8ae5c	-0.020590954
200	0xbcd72e0a	-0.02626707
201	0x3e076fac	0.13226193
202	0xbe070be6	-0.13188133
203	0xbdd8b06e	-0.10580526
204	0xbd86f085	-0.06588844
205	0x3df4027e	0.11914538
206	0xbd52ca3a	-0.05146239
207	0x3dc8f746	0.09812789
208	0x3d1d50c5	0.038407106
209	0x3d1c189f	0.038109418
210	0x3ca6a4ae	0.020342197
211	0xbd40cde7	-0.047071364
212	0xbc9f4f0d	-0.019446874
213	0xbd839e6e	-0.064267024
214	0xbd320822	-0.043464787
215	0x3d34ae36	0.044111453
216	0xbe1c7360	-0.15278387
217	0xbe1cd28a	-0.1531469
218	0x3e045fa1	0.12927105
219	0xbe629be0	-0.22129774
220	0xbc924799	-0.017856406
221	0x3e07d9cd	0.13266678
222	0x3da7d887	0.08195596
223	0xbce237bc	-0.027614467
224	0xbe025a96	-0.12729868
225	0x3dbf26b4	0.09333554
226	0xbe656c30	-0.22404552
227	0xbc98aff7	-0.018638594
228	0xbdb64460	-0.0889976
229	0xbd0c5e38	-0.03426954
230	0x3c97a937	0.018513305
231	0x3d618543	0.05505873
232	0x3d1b23b4	0.037875846
233	0x3e09d0ef	0.13458608
234	0x3dcc266d	0.09968267
235	0xbd9e6e20	-0.077358484
236	0x3e05c836	0.13064656
237	0xbdef8475	-0.11695186
238	0xbdaf332f	-0.08554684
239	0x3d46bd6d	0.048520494
240	0x3d734196	0.05938872
241	0x3dda8642	0.10670139
242	0xbd4fe4f2	-0.05075545
243	0xbbeb9304	-0.0071891565
244	0x3dbdd19d	0.09268496
245	0xbe1e5334	-0.15461427
246	0x3e37754d	0.1791584
247	0xbdedc621	-0.11610056
248	0xbbab3ef0	-0.0052260086
249	0xbdad25c4	-0.08454469
250	0xbd1eedeb	-0.038801115
251	0xbc96c863	-0.018406099
252	0x3e3ac64b	0.18239705
253	0xbdcb61a8	-0.09930736
254	0xbe051c23	-0.12999015
255	0xbdc9d64e	-0.098553285

fc1.bias f4 [512]
0	0xbe1b2a5d	-0.15152879
1	0x3d835f29	0.06414635
2	0x3df56c47	0.11983543
3	0xbb5ae3c9	-0.003339993
4	0x3ae489c3	0.0017436076
5	0xbdf3b2f6	-0.118993685
6	0x3dd6feb7	0.10497802
7	0xbdadcdf6	-0.084865496
8	0xbd636bcd	-0.05552273
9	0x3e1c33c1	0.15254118
10	0xbddfbff8	-0.10925287
11	0x3e0b3dcb	0.13597791
12	0x3db1c0f2	0.086793795
13	0xbd56142b	-0.052265327
14	0xbdb10a1e	-0.08644508
15	0xbe09e484	-0.13466078
16	0x3dfba4af	0.1228727
17	0xbc203adc	-0.009779658
18	0xbd400560	-0.046880126
19	0x3dfeaa8b	0.12434872
20	0xbd85637e	-0.06513117
21	0x3d866288	0.06561762
22	0x3d2b8a62	0.04188002
23	0xbd295e2a	-0.041349567
24	0xbdc285a5	-0.09498147
25	0xbd929537	-0.07157367
26	0xbdfcbafb	-0.12340351
27	0x3e167f46	0.14696988
28	0x3e1ea180	0.15491295
29	0x3e2f87c2	0.17141631
30	0x3ddc1564	0.107462674
31	0xbd99d85c	-0.075119704
32	0xbe00a99e	-0.12564704
33	0xbe238ff3	-0.15972881
34	0xbd6ec4ba	-0.05829308
35	0xbdc2f95f	-0.0952022
36	0xbd18ecd3	-0.03733523
37	0xbda9a968	-0.08284265
38	0xbdb79960	-0.08964801
39	0xbc1d5801	-0.009603501
40	0xbdbf1510	-0.09330189
41	0x398d65a0	0.00026969332
42	0x3bd7b1e3	0.006582485
43	0x3dde31bb	0.10849329
44	0x3dba4603	0.09095385
45	0x3d2c503f	0.042068716
46	0xbe10adf5	-0.1412886
47	0x3cb2fa90	0.021847993
48	0xbdc42012	-0.095764294
49	0x3df8c6a3	0.12147262
50	0x3e21dbed	0.15806551
51	0xbe118e75	-0.142145
52	0x3de278bb	0.11058184
53	0xbd69108b	-0.056900542
54	0xbda9f447	-0.08298545
55	0xbe074e3c	-0.13213438
56	0x3d07ac9f	0.03312361
57	0xbdc33af2	-0.09532727
58	0xbdb33e18	-0.08752078
59	0x3bfc46e6	0.0076988814
60	0xbd890015	-0.06689469
61	0x3e204006	0.15649423
62	0xbcdfde03	-0.027327543
63	0x3daca0fa	0.08429141
64	0x3d955784	0.07292083
65	0xbe009ee1	-0.12560607
66	0x3de71f4a	0.11285265
67	0x3de82cf3	0.113366984
68	0x3d1578c2	0.036492117
69	0xbe0d16b2	-0.13778189
70	0x3e054121	0.13013126
71	0xbdbbc8ca	-0.09169157
72	0x3df3cf39	0.11904759
73	0x3e123c45	0.14280804
74	0x3c7ffe8c	0.015624654
75	0x3dbf1157	0.09329479
76	0xbdd61c6a	-0.10454638
77	0x3d6134e7	0.054982092
78	0xbd1328a0	-0.035927415
79	0x3d2b0f80	0.04176283
80	0xbc0ecd7e	-0.008715985
81	0x3df82f89	0.121184416
82	0xbdc4f8d1	-0.096177705
83	0x3bf199a6	0.0073730526
84	0x3db438ac	0.08799872
85	0x3e0438bb	0.12912266
86	0xbdd38fa8	-0.10330135
87	0x3c2e3cd2	0.010634618
88	0x3d84acf6	0.06478302
89	0xbdabad04	-0.083826095
90	0xbd4645bc	-0.048406348
91	0xbc8542c0	-0.01626718
92	0xbdcad4ea	-0.099038914
93	0x3e291e18	0.16515386
94	0x3d7468a1	0.059670094
95	0xbd19a050	-0.0375064
96	0x3d39ffe5	0.045410056
97	0xbd935110	-0.07193196
98	0xbc2f5fea	-0.01070402
99	0x3ce0b74e	0.027431156
100	0x3d5e6699	0.054297063
101	0x3ca3e0c9	0.020004647
102	0x3be8e920	0.007107869
103	0xbdc235c3	-0.094829105
104	0xbe144a10	-0.14481378
105	0x3e0b7cc2	0.1362181
106	0xbd4b8e64	-0.04969634
107	0xbe455fa4	-0.19274765
108	0x3ddc2db1	0.107509024
109	0x3e1cc88e	0.1531088
110	0xbd324e1a	-0.043531515
111	0x3b54821f	0.003242619
112	0xbe02010b	-0.1269571
113	0x3df48f02	0.11941339
114	0xbe188e8f	-0.14898132
115	0x3e0e3f88	0.13891423
116	0x3dac31ef	0.084079616
117	0x3e1c4d4a	0.15263858
118	0xbda6e8af	-0.081498496
119	0xbd1836e4	-0.037161723
120	0x3c54b365	0.012982224
121	0x3d56db28	0.052455097
122	0x3c36996d	0.011144978
123	0xbbcfc1af	-0.0063402276
124	0x3e335b48	0.1751529
125	0x3c3fed14	0.011714239
126	0xbdeaad42	-0.114588276
127	0xbd912e34	-0.07088891
128	0x3dcf7e7f	0.10131549
129	0x3e159a5f	0.14609669
130	0xbe37ac88	-0.17936909
131	0xbe066a09	-0.13126387
132	0xbdfe8d1d	-0.12429259
133	0x3ddd80f5	0.10815612
134	0xbdbf8849	-0.09352166
135	0x3dc0e6f5	0.094190516
136	0xbd8fa5c5	-0.0701404
137	0x3d908ca4	0.07058075
138	0xbc615f29	-0.013755598
139	0xbd065d25	-0.032803673
140	0x3df550c5	0.11978296
141	0x3e4f9b8c	0.2027418
142	0xbdbcde64	-0.09222105
143	0x3e0c5e33	0.13707809
144	0xbe2f00cc	-0.17090148
145	0xbe0ccb6e	-0.13749477
146	0xbcb867d4	-0.022510447
147	0x3dde6317	0.10858744
148	0x3b3f5c0f	0.0029199158
149	0x3e0fe9a7	0.14053975
150	0x3ddb5b6a	0.10710795
151	0x3d6f8a8e	0.058481745
152	0x3d12df4b	0.03585748
153	0xbe2e9655	-0.17049535
154	0xbd7d310f	-0.061814364
155	0xbe16436d	-0.14674158
156	0x3d20fad9	0.039301727
157	0x3d2b2fe7	0.04179373
158	0x3cb16465	0.021654317
159	0xbe2e6feb	-0.17034881
160	0x3c6c0b32	0.014406966
161	0xbdca5736	-0.098799154
162	0xbe296148	-0.16541016
163	0x3c960278	0.018311724
164	0xbd35ff63	-0.04443301
165	0xbe0a6150	-0.13513684
166	0xbcce3303	-0.025170809
167	0x3d4c010a	0.04980568
168	0xbe05e632	-0.13076094
169	0xbbe3ded5	-0.006954054
170	0x3dd00ec2	0.10159065
171	0x3e0c925f	0.13727711
172	0xbd8af520	-0.06785035
173	0xbd61636d	-0.05502646
174	0xbd9a952c	-0.075479835
175	0xbe3067d7	-0.17227112
176	0xbd9ec779	-0.0775289
177	0x3d93859b	0.072032176
178	0x3d7f2f51	0.062300984
179	0xbd4bf20e	-0.04979139
180	0xbca5d400	-0.020242691
181	0xbdd0d5dd	-0.10197041
182	0xbcc2a472	-0.023760054
183	0x3dadd49f	0.0848782
184	0x3d664e48	0.056227
185	0xbc859841	-0.016307952
186	0xbde5c596	-0.11219327
187	0x3c82110e	0.015877273
188	0xbd857801	-0.065170296
189	0x3d22326e	0.039598875
190	0x3e33dcaa	0.17564645
191	0xbb8e8bfd	-0.004350184
192	0x3c669ebd	0.014075932
193	0xbce5daa7	-0.028058363
194	0x3bfc4cfe	0.007699608
195	0x3dbaea26	0.091266915
196	0x3c59b1c7	0.013287014
197	0xbe06b6c6	-0.1315566
198	0x3e09ccec	0.13457078
199	0xbd8b0daf	-0.06789719
200	0x3e3bda70	0.18345046
201	0xbbaf945f	-0.0053582634
202	0x3d05afac	0.032638237
203	0x3dbe70c9	0.09298856
204	0xbdd95d16	-0.10613458
205	0xba6f89c0	-0.0009137653
206	0xbdc0b165	-0.09408835
207	0xbd814ab0	-0.06313074
208	0x3dddca23	0.1082957
209	0x3dcce031	0.100036986
210	0xbc3fcfb3	-0.011707234
211	0x3e0db46f	0.13838361
212	0x3dc2f0b8	0.0951857
213	0x3e0b372e	0.13595268
214	0xbd1469c0	-0.036233664
215	0x3e098e1a	0.13433114
216	0x3d7aaf6d	0.061202455
217	0xbd252024	-0.040313855
218	0x3de850bc	0.11343524
219	0xbe08d17f	-0.13361166
220	0x3c8e2eb9	0.017356263
221	0xbdaad89c	-0.08342096
222	0x3e38eace	0.18058321
223	0xbaf948e7	-0.0019018919
224	0xbbfa1ed4	-0.0076330695
225	0x3df9e718	0.12202281
226	0x3ddacb07	0.10683256
227	0xbd88a8f5	-0.06672851
228	0x3d10c4ec	0.03534405
229	0x3d6ae941	0.057351355
230	0xbdd93ce0	-0.10607314
231	0x3cd6e31d	0.026231343
232	0xbe394a29	-0.18094696
233	0x3d440f7c	0.04786633
234	0x3db475f2	0.08811559
235	0xbc078918	-0.008272432
236	0x3d1ca197	0.03824004
237	0x3e27df59	0.16393794
238	0xbc50d30f	-0.012745633
239	0xbd37c7a7	-0.044868138
240	0x3e179122	0.14801458
241	0xbde95eb8	-0.11395019
242	0x3d6b5e70	0.05746311
243	0x3de72d07	0.11287885
244	0xbbc42a0f	-0.005986459
245	0xbe0c3c23	-0.13694815
246	0x3d75d392	0.060016222
247	0x3de1563e	0.110027775
248	0x3af95ae5	0.0019024281
249	0x3daa31c0	0.0831027
250	0x3d4b8893	0.049690794
251	0x3d4abc9c	0.04949628
252	0x3e1aff36	0.15136418
253	0xbcf9819b	-0.030457309
254	0x3bccc20f	0.0062487195
255	0xbde6ce94	-0.112698704

fc2.weight f4 [256, 512]
0	0x3be9e7bc	0.0071382206
1	0xbc9af3e9	-0.018915134
2	0x3d0430a6	0.032272957
3	0x3c8f02da	0.017457414
4	0xbc720840	-0.014772475
5	0xbc386eb6	-0.011256864
6	0x3d9fb361	0.07797886
7	0xbcf96143	-0.030441886
8	0x3c858e81	0.016303303
9	0x3d8eac44	0.06966451
10	0x3bd66e66	0.0065439222
11	0xbcb7a469	-0.022417264
12	0xbd425008	-0.047439605
13	0x3cbb6410	0.022874862
14	0x3d4f3705	0.05058958
15	0xbd05c193	-0.03265531
16	0x3d0a94cc	0.03383331
17	0xbcf3feea	-0.029784638
18	0x3cdd384f	0.02700439
19	0xbc902a6d	-0.017598355
20	0xbb8bfd74	-0.0042721573
21	0xbd9ea024	-0.07745388
22	0x3c17047f	0.009217381
23	0xbcb54cff	-0.022131441
24	0xbcea8423	-0.02862746
25	0xbd8854ea	-0.06656821
26	0x3cd68516	0.026186507
27	0x3c07eb51	0.00829585
28	0x3d833523	0.064066194
29	0x3c9b7828	0.018978193
30	0x3c4c09a4	0.01245347
31	0xbc978afd	-0.018498892
32	0xbc8626d2	-0.016375933
33	0x3d0de905	0.034646053
34	0x3c94b523	0.018152779
35	0x3ce346a1	0.02774364
36	0xbb0b751f	-0.0021279526
37	0x3d0a83ba	0.03381703
38	0x3d3f220c	0.04666333
39	0xbd2bb5cf	-0.041921433
40	0x3cc2409d	0.02371245
41	0xbd02e937	-0.031960692
42	0x3cda7d79	0.026671158
43	0x3d6528c3	0.055947077
44	0x3d874e10	0.06606686
45	0x3bc607c5	0.0060434067
46	0x3cb8c33b	0.02255403
47	0x3d4448a2	0.04792083
48	0x3cfe9bfc	0.031080239
49	0xbcaa67c2	-0.020801429
50	0x3c208961	0.009798379
51	0x3c9f0201	0.019410135
52	0x3d63f500	0.055653572
53	0x3ddfd9bb	0.10930201
54	0xbd50ce54	-0.05097802
55	0xbc8338bb	-0.016018262
56	0x3d1644e8	0.036686808
57	0xbce06a58	-0.027394459
58	0xbd87bbc0	-0.06627607
59	0x3d1b8d39	0.037976477
60	0x3cfb19d3	0.030651962
61	0x3cf1ab4f	0.029500632
62	0x3d10d71f	0.035361405
63	0x3d534fe7	0.051589873
64	0x3d756dc6	0.05991914
65	0xbd4c4d41	-0.049878363
66	0xbc378ad8	-0.0112025365
67	0x3be45efe	0.0069693318
68	0x3cd8394b	0.026394507
69	0xbc9e0967	-0.019291593
70	0xbcac3de9	-0.021025615
71	0xb9c3e062	-0.00037360477
72	0xbba79fa5	-0.0051154667
73	0x3cb18f4d	0.021674776
74	0x3cbc9662	0.023020927
75	0x3c60db6f	0.013724192
76	0x3a6c67e7	0.0009018168
77	0xbc9b5a25	-0.018963883
78	0xbc3254eb	-0.010884504
79	0x3c2a74fc	0.010403868
80	0xbcfe6b11	-0.031056913
81	0xbd84845e	-0.064705595
82	0x3c28256a	0.010262826
83	0xbcdfbc9c	-0.027311616
84	0x3cc9ca47	0.024632586
85	0x3c9de27b	0.019273033
86	0xbd0ee207	-0.034883525
87	0x3d18bcad	0.03728931
88	0x3d425d9c	0.047452554
89	0xbd43b047	-0.047775533
90	0x3cb3c168	0.02194281
91	0x3bcf612f	0.006328724
92	0x3d22435a	0.039615013
93	0xbd72b14f	-0.059251126
94	0xbd32111b	-0.043473344
95	0xbd902502	-0.07038309
96	0xbdde4e4d	-0.108547784
97	0xbc1d137a	-0.009587163
98	0xb9e9877c	-0.00044542167
99	0x3c2acc5d	0.010424701
100	0x3cd2a735	0.025714496
101	0xbcad2ee0	-0.021140516
102	0x3d67d5ed	0.0566005
103	0x3d1584f4	0.036503747
104	0x3c49c4b0	0.01231496
105	0xbc562479	-0.013070219
106	0x3a3a971b	0.00071178534
107	0x3b8826e1	0.0041550254
108	0xbd87def1	-0.066343196
109	0x3cee32db	0.029076984
110	0xbd540005	-0.05175783
111	0x3b33bb71	0.0027424956
112	0xbda7cf85	-0.08193878
113	0x3d24f338	0.040271014
114	0x3cddad67	0.027060224
115	0x3d2aff67	0.041747477
116	0x3c9dee7a	0.019278754
117	0x3d674fc3	0.05647255
118	0xbc887b9c	-0.016660504
119	0x3cb43715	0.021998921
120	0xbd83a8f4	-0.064287096
121	0xbcd4c79f	-0.025974093
122	0x3c1997e1	0.00937459
123	0xbc218af6	-0.009859791
124	0x3d202f51	0.039107624
125	0xbc0bd94a	-0.0085356925
126	0xbcb2da84	-0.021832712
127	0x3d634fd7	0.055496063
128	0x3da51a1c	0.080616206
129	0x3d167968	0.036736876
130	0xbc8d0ecf	-0.017218975
131	0xbcd5d76a	-0.026103694
132	0xbd42e932	-0.047585674
133	0x3b793c97	0.00380305
134	0x3d354c76	0.044262372
135	0xbd1a7588	-0.037709743
136	0xbc33e1fb	-0.010979171
137	0xbc22929f	-0.0099226525
138	0x3d10677a	0.035254933
139	0xbb72374e	-0.0036959234
140	0x3c76d9cb	0.015066574
141	0xbcfc7445	-0.03081716
142	0x3cb5fba2	0.022214714
143	0xbcee83d3	-0.029115593
144	0xbdaeb8b2	-0.085313216
145	0xbd3e53d4	-0.046466663
146	0xbcf2c6d3	-0.029635822
147	0xbcd94b17	-0.026525063
148	0xbcea3df3	-0.028593993
149	0xbc4370fe	-0.011928795
150	0xbc0ad3c8	-0.008473344
151	0x3c6ae4ff	0.0143368235
152	0xbd82aacd	-0.06380234
153	0x3d0d321e	0.034471624
154	0xbd77b9b1	-0.060479823
155	0xbd54fb35	-0.051997382
156	0x3a1745b9	0.00057705824
157	0xbccfa3c0	-0.025346637
158	0xbc7f7c59	-0.015593612
159	0xbb42f5da	-0.002974859
160	0x3d236db1	0.03989953
161	0x3c925caf	0.01786646
162	0x3c1c0970	0.009523734
163	0xbbcabc54	-0.0061870012
164	0x3cc78749	0.024356501
165	0x3b03a4e6	0.00200873
166	0xbd2791ed	-0.04091065
167	0x3d03735c	0.032092437
168	0xbd528c7e	-0.051403515
169	0xbbbddf2f	-0.005794428
170	0xbcfa4683	-0.0305512
171	0xbd900116	-0.07031457
172	0xbc6f17a1	-0.014593036
173	0xbcdd21d2	-0.026993666
174	0xbbb3a0c9	-0.0054818136
175	0xbccd5bf8	-0.025068268
176	0xbd77f892	-0.06053979
177	0xbd00585c	-0.031334266
178	0xbd11b7ee	-0.0355758
179	0x3d09ce15	0.0336438
180	0x3bd6d0ee	0.006555668
181	0xbbf562bc	-0.0074885767
182	0x3cf43582	0.02981067
183	0x3d0ec012	0.03485114
184	0xbd06d8a1	-0.032921437
185	0x3c76ba34	0.015059043
186	0x3d8b9fc6	0.06817584
187	0xbc2db1df	-0.01060149
188	0xbd645b25	-0.055750985
189	0xbb5e46c9	-0.0033916703
190	0x3b5a2c8e	0.0033290717
191	0x3d5560fe	0.052094452
192	0xbc807d00	-0.015684605
193	0x3c578dad	0.013156337
194	0xbcdd40e6	-0.027008485
195	0xbd37c7cb	-0.04486827
196	0xbd77186b	-0.06032602
197	0x3bfc156c	0.0076929834
198	0x3c05c6d5	0.008165081
199	0x3dc81afc	0.09770772
200	0x3d6bea97	0.05759677
201	0x3c987a38	0.018612966
202	0xbc174116	-0.009231826
203	0xbce5714e	-0.02800813
204	0xbd059117	-0.03260907
205	0x3d3eb80b	0.046562236
206	0xbcfbdf0d	-0.030746007
207	0xbdcfd1bf	-0.10147428
208	0xbd150c1b	-0.036388498
209	0x3b8ca64c	0.004292285
210	0xbcc21a43	-0.023694163
211	0xbb780143	-0.003784255
212	0xbcaf8e7f	-0.021430252
213	0x3d3e293d	0.046426047
214	0xbb9caa6c	-0.004781058
215	0x3c1d56a7	0.009603179
216	0xbc52bd94	-0.012862582
217	0x3b61180d	0.003434661
218	0xbd4cb189	-0.049974
219	0x3c9ef54a	0.019404072
220	0x3db6435f	0.08899569
221	0xbaa162a5	-0.0012312724
222	0xbd02476f	-0.031806406
223	0x3c9bad1a	0.01900344
224	0x3b5079d8	0.0031810906
225	0xbbe977b4	-0.0071248654
226	0x3cd7c076	0.02633689
227	0x3b9ae8b4	0.0047274474
228	0x3ca3f83b	0.020015826
229	0xbccc35a2	-0.024927918
230	0x3c208ccd	0.0097991945
231	0xbd359318	-0.044329733
232	0xbbcb0894	-0.006196091
233	0xbd0ccbcf	-0.034374055
234	0x3cd96a92	0.026540074
235	0xbab28f67	-0.001362306
236	0x3beb1b87	0.0071749124
237	0xbcfd2617	-0.030901952
238	0xbc07f7b9	-0.008298808
239	0xbafbb885	-0.0019204771
240	0xbc92cc9a	-0.017919827
241	0xbb313987	-0.0027042346
242	0xbd06c20e	-0.03289991
243	0x3c2acb3f	0.010424434
244	0xbc93bc81	-0.018034222
245	0x3d9657c3	0.07340958
246	0x3cec45e6	0.028841924
247	0xbcbcca8c	-0.0230458
248	0xbca50914	-0.02014593
249	0x3c8e9fd5	0.017410198
250	0x3b363a9d	0.0027805932
251	0xbc02391f	-0.007948189
252	0xbc8173c1	-0.015802266
253	0x3dd1c40b	0.1024247
254	0x3d1caf54	0.038253143
255	0xbe03a5f7	-0.1285628

fc2.bias f4 [256]
0	0x3bf00ea5	0.0073259645
1	0x3d1a33b2	0.037646957
2	0x3c1020ee	0.008796914
3	0x3c89003f	0.01672375
4	0xbc2712fd	-0.010197398
5	0xbc17c80a	-0.009264002
6	0xbd430225	-0.047609467
7	0x3bce593f	0.00629726
8	0xbc8c12ba	-0.017098773
9	0x3c836290	0.01603821
10	0x3b2f399b	0.0026737216
11	0x3d11ddd7	0.035611954
12	0x3cfea5d0	0.031084925
13	0x3c1199c5	0.008886759
14	0x3cfa6382	0.030565027
15	0xbb377db9	-0.002799852
16	0x3d35d85d	0.044395793
17	0x3c9a6d99	0.018851088
18	0xbd1380f7	-0.036011662
19	0x3d012199	0.03152618
20	0x3cb5bace	0.022183802
21	0x3cc0b4ff	0.023523806
22	0x3d145c56	0.03622087
23	0x3d254d81	0.040357117
24	0xbc0c942c	-0.008580249
25	0x3c712de9	0.0147204185
26	0xbcdc948a	-0.026926298
27	0x3a43cc50	0.00074691046
28	0xbcf7c7fa	-0.030246723
29	0xba65fd0f	-0.00087733654
30	0x3b9b43a6	0.004738289
31	0x3c5c247c	0.013436433
32	0x3d11193e	0.035424463
33	0x3d144fc1	0.03620887
34	0x3c2d897c	0.010591861
35	0xbc833818	-0.016017959
36	0x3d025f17	0.031828966
37	0xbca3a2a2	-0.01997501
38	0x3d428717	0.047492113
39	0x3d2f9f39	0.042876456
40	0xbce332df	-0.027734218
41	0x3c5f14a8	0.013615765
42	0x3d438196	0.047731005
43	0xbc63d3bc	-0.013905462
44	0xbc871ab1	-0.01649222
45	0x3ad7342a	0.0016418744
46	0x3d1415ea	0.03615371
47	0xbbd29c3c	-0.006427316
48	0x3c455b4f	0.012045695
49	0x3c48470d	0.012223971
50	0x3cb0da9e	0.02158862
51	0x3c495a5b	0.012289609
52	0xbb3c42db	-0.0028726372
53	0x3d294be4	0.04133214
54	0x3d293bdf	0.041316863
55	0x3c946a1c	0.018117003
56	0x3cc6ff99	0.0242918
57	0x3d20a802	0.039222725
58	0xbcdac18c	-0.026703618
59	0x3bbe6850	0.005810775
60	0xbcc2a4cc	-0.023760222
61	0x3d5261f4	0.051362947
62	0x3d00c979	0.03144214
63	0x3d67ba26	0.05657401
64	0x3c6ea409	0.014565476
65	0x3c941a41	0.018078925
66	0x3d1c626d	0.038179804
67	0x3d339786	0.043845676
68	0x3cda84dc	0.02667468
69	0xbbaa1787	-0.005190793
70	0x3ca64fe1	0.020301761
71	0x3cb37f2f	0.021911232
72	0x3c8055be	0.015665885
73	0x3d8a4a90	0.06752503
74	0x3a3c37c2	0.00071799394
75	0x3d234f94	0.039870813
76	0x3c14af84	0.009075049
77	0xbc4a52c3	-0.0123488335
78	0x3bc99c8d	0.0061526955
79	0x3d25fa87	0.040522125
80	0xbcf8fc33	-0.030393695
81	0x3c926106	0.01786853
82	0xbd0cd8ea	-0.034386553
83	0xbc271590	-0.010198012
84	0xbc81dde0	-0.015852869
85	0xbb9cd94d	-0.0047866465
86	0xbc5caa10	-0.01346828
87	0x3d44b16e	0.048020773
88	0xbd00b14e	-0.03141909
89	0xbb1e8eeb	-0.0024194072
90	0x3cc99e47	0.024611605
91	0xbc5c52f0	-0.013447508
92	0x3bda05e3	0.006653534
93	0x3d540413	0.051761698
94	0x3ad41754	0.0016181269
95	0x3cc64a3a	0.024205316
96	0xbcbbb907	-0.022915376
97	0xbd026044	-0.031830087
98	0xbc9ee3bf	-0.019395707
99	0x3cde39c8	0.027127162
100	0x3ccbf111	0.024895223
101	0xbcda5a59	-0.02665441
102	0xbc3d1da7	-0.011542714
103	0xbca7c00e	-0.020477321
104	0x3d5fa153	0.05459721
105	0x3d447dac	0.047971413
106	0x39bd9a90	0.00036164047
107	0xbd090911	-0.033455912
108	0x3d1788b6	0.036995612
109	0x3c58ad91	0.013224975
110	0xbbd10269	-0.006378461
111	0xbd0d2cea	-0.03446666
112	0x3ca20ac9	0.019780533
113	0x3d09cf9f	0.03364527
114	0xbc47a0e3	-0.0121843545
115	0x3d70c753	0.05878384
116	0xbd32cba8	-0.043651253
117	0xbb7533ae	-0.0037414837
118	0xbbcacbb7	-0.0061888355
119	0x3cd5a8fa	0.02608155
120	0x3cf5dc4c	0.030012272
121	0x3c50fa20	0.012754947
122	0xbc96e596	-0.018420022
123	0xbc86eaef	-0.016469447
124	0xbbcad7c4	-0.006190272
125	0x3cc58ef1	0.024116011
126	0xba9f5cbd	-0.0012158375
127	0x3bfd805a	0.007736248
128	0xbd17f3c7	-0.03709772
129	0xbd118125	-0.035523552
130	0x3c4b77d7	0.012418709
131	0x3d134950	0.035958588
132	0xb9b149f5	-0.00033815173
133	0x3aa4def3	0.0012578651
134	0xbbed4752	-0.007241168
135	0x3d32dad0	0.043665707
136	0xbbd0c21b	-0.0063707954
137	0x3c9b2920	0.018940508
138	0x3d85c32f	0.06531369
139	0x3d0d2b32	0.034465022
140	0xbcde1f4a	-0.02711453
141	0xbd38a6df	-0.045081016
142	0xbc9f0b31	-0.019414516
143	0xbc7d8e7d	-0.015475866
144	0xbb88d6a0	-0.004175976
145	0x3cdee205	0.027207384
146	0xbccefe3c	-0.025267713
147	0xbc5c1312	-0.013432281
148	0x3b124195	0.0022316922
149	0x3cfde002	0.030990604
150	0xbd50b8c8	-0.05095747
151	0x3bb1568c	0.0054119285
152	0xbd29a987	-0.04142144
153	0xbc3d443e	-0.011551915
154	0x3d576cea	0.052594103
155	0x3d83e3e3	0.0643995
156	0x3d0172da	0.03160367
157	0xbce352a6	-0.02774937
158	0x3cc5cab9	0.024144517
159	0xbcccfc0b	-0.025022527
160	0xbcc5ff0e	-0.024169471
161	0x3dab5d56	0.08367412
162	0x3d0b909f	0.03407347
163	0xbbea43e9	-0.007149209
164	0xbc83e7dc	-0.01610177
165	0xbccf647a	-0.025316466
166	0xbd1c6e1c	-0.038190946
167	0x3be638c8	0.007025812
168	0xbd0bc9a4	-0.034127846
169	0xbc731222	-0.014835866
170	0x3d1e2f20	0.03861916
171	0x3bd71b15	0.0065645077
172	0x3d2c9796	0.04213675
173	0xbcab0d4c	-0.020880364
174	0xbbaf551b	-0.0053507215
175	0x3d576056	0.052582107
176	0xbca10850	-0.019657284
177	0xbc73f7e1	-0.014890642
178	0xbd2c4d5a	-0.042065956
179	0xbd111422	-0.03541959
180	0x3d2684b5	0.040653903
181	0x3c14724d	0.009060455
182	0x3c7f7a79	0.015593165
183	0x3bb2f5a2	0.0054614106
184	0x3b07190e	0.00206143
185	0xbd3c449c	-0.04596387
186	0x3d17d02a	0.037063755
187	0x3cab3073	0.020897126
188	0x3d1e9b00	0.03872204
189	0x3c7ef6fe	0.015561817
190	0xba82640d	-0.000994803
191	0x3c367c13	0.01113798
192	0xbcd8679b	-0.02641659
193	0xbd2d7239	-0.04234526
194	0x3cd59766	0.026073169
195	0xbc8a85d6	-0.016909521
196	0x3be6ac27	0.007039565
197	0xbb20bc20	-0.0024526194
198	0xbd25847d	-0.040409554
199	0x3d4f0d6e	0.050549917
200	0xbd2c6121	-0.042084817
201	0xbac4f0cd	-0.0015025378
202	0x3d97d0f9	0.07412905
203	0x3d335809	0.04378513
204	0x3d2d6fe6	0.042343043
205	0x3c65ccff	0.014025926
206	0xb9cabe20	-0.00038670097
207	0xbd53e72c	-0.051734135
208	0xbc1e7b6b	-0.00967298
209	0xbc699d74	-0.014258731
210	0xbc9de932	-0.019276235
211	0x3c14dc0e	0.009085668
212	0xbc3cca73	-0.011522877
213	0x3cd4a42b	0.025957188
214	0xbd66a8c5	-0.056313295
215	0xbcb78437	-0.022401912
216	0xbc7f9a22	-0.015600713
217	0x3d92aaa3	0.071614526
218	0x3d08925f	0.033342715
219	0x3d4ce2b8	0.050020903
220	0x3bd221bc	0.006412713
221	0xbcc77de2	-0.024352018
222	0x3ce0b505	0.027430067
223	0x3d184c3d	0.03718208
224	0xbcad3394	-0.021142758
225	0xbce2cb6c	-0.02768489
226	0x3ae4c2c6	0.0017453067
227	0xbd61614f	-0.05502444
228	0x3cb8ea5c	0.022572689
229	0xbd23d99f	-0.04000246
230	0x3c27f08b	0.010250221
231	0xbbd574d8	-0.006514173
232	0xbc9347bd	-0.017978543
233	0xbcf988ff	-0.030460833
234	0x3d0a2c73	0.033733796
235	0x3d42dbbb	0.047572833
236	0xbcbba0e5	-0.022903869
237	0x3ce71da6	0.02821238
238	0x3bf4d8a4	0.0074721146
239	0x3c0feed8	0.008784972
240	0xbd19b48a	-0.03752569
241	0xbc7602a6	-0.01501528
242	0x3d110fcc	0.035415456
243	0x3cc1cafa	0.023656357
244	0x3c6f3bae	0.014601631
245	0xbc7393bc	-0.014866766
246	0x3b8e046a	0.0043340223
247	0x3cad5151	0.021156939
248	0xbc71273d	-0.014718828
249	0xbd535b19	-0.05160055
250	0x39606f08	0.00021403667
251	0x3c3ebc25	0.011641537
252	0x3d1346bf	0.03595614
253	0x3cd7c5ce	0.026339438
254	0x3cedc6e4	0.029025503
255	0x3c4142e6	0.011795735

fc3.weight f4 [128, 256]
0	0x3ccf9917	0.025341554
1	0xbd94c149	-0.07263429
2	0xbdb112d3	-0.086461686
3	0xbda838e5	-0.08213977
4	0x3d74191b	0.059594255
5	0x3c9dc10a	0.019257087
6	0x3d37b3df	0.044849273
7	0xbd4e7dbf	-0.05041289
8	0x3db42303	0.087957405
9	0x3d38ccae	0.045117073
10	0xbd36ded1	-0.044646088
11	0xbcd3e8ec	-0.025867902
12	0xbd8fa6d9	-0.070142455
13	0xbd4d21df	-0.05008113
14	0xbda2cef7	-0.07949632
15	0xbca10267	-0.019654466
16	0x3d5a974c	0.053366944
17	0xbcc3dac9	-0.023908036
18	0x3c5065cd	0.012719584
19	0x3d005914	0.03133495
20	0xba768ba3	-0.0009404963
21	0xbd2fa1d6	-0.04287895
22	0xbcc5214c	-0.024063729
23	0xbd962e64	-0.07333067
24	0x394f38da	0.00019762237
25	0xbd8d7f54	-0.069090515
26	0x3d61b045	0.055099744
27	0xbd17ef4e	-0.037093453
28	0x3bc0233b	0.005863575
29	0xbaf1f040	-0.0018458441
30	0xbddf6e7a	-0.109097436
31	0x3c035d0a	0.008017788
32	0xbd105e40	-0.035246134
33	0x3d1a6def	0.037702497
34	0xbcbf9bb8	-0.023389682
35	0xbd6e2a0c	-0.058145568
36	0xbd928b25	-0.07155446
37	0xba490ea4	-0.0007669723
38	0xbdafac8f	-0.08577835
39	0xbc5b3520	-0.013379365
40	0x3c3b2a70	0.011423692
41	0xbd227a5a	-0.039667465
42	0x3d206ba9	0.039165173
43	0xb9d09f15	-0.00039791377
44	0x3d2481bb	0.040162783
45	0xbd4d9717	-0.05019292
46	0x3cc5920f	0.024117498
47	0x3a8979b4	0.0010488541
48	0xbdc18492	-0.09449114
49	0xbd1e7231	-0.03868312
50	0xbd29819e	-0.04138338
51	0xbd44989f	-0.047997113
52	0xbc7d77c9	-0.015470454
53	0xbd73b335	-0.059497077
54	0xbd02967a	-0.031881787
55	0xbc170c9a	-0.009219313
56	0x3bb1e0db	0.005428416
57	0x3d7655fe	0.060140602
58	0xbc2356ac	-0.009969395
59	0xbcb17a42	-0.021664742
60	0x3d670f2e	0.05641096
61	0xb8bbf0db	-8.961718e-05
62	0x3d384696	0.04498919
63	0x3d1f7b15	0.03893574
64	0xbd80a946	-0.06282286
65	0x3cd6d5ae	0.026224937
66	0x3d213e2f	0.039365944
67	0xbcbc3f0e	-0.022979286
68	0x3d91a26d	0.071110584
69	0xbd08cfa3	-0.033401143
70	0x3d4d284d	0.050087262
71	0xbddbbbb2	-0.107291594
72	0x3c4c947b	0.012486572
73	0xbd93cd16	-0.072168514
74	0x3d888000	0.06665039
75	0xbe0812df	-0.13288449
76	0xbd3043f5	-0.04303356
77	0xbc780ef3	-0.015140283
78	0xbd499d8e	-0.04922252
79	0x3a24effa	0.0006291863
80	0xbc9723bd	-0.018449659
81	0x3d210aaa	0.03931681
82	0xbd52b997	-0.051446524
83	0x3d7389bd	0.05945753
84	0xbdc3e6e5	-0.09565524
85	0xbd8b4695	-0.06800572
86	0x3c8483b6	0.016176086
87	0x39502828	0.00019851385
88	0xbd7a36ac	-0.061087295
89	0xbcb7e4be	-0.02244794
90	0x3cdd2265	0.02699394
91	0x3d0f9cac	0.035061523
92	0xbc9be487	-0.019029869
93	0xbc0eadd7	-0.008708439
94	0x3ba1c571	0.004936867
95	0xbd8b2ade	-0.06795286
96	0x3cdabc3f	0.02670109
97	0x3ca48aa8	0.020085648
98	0xbd89bee9	-0.06725866
99	0x3d582c11	0.0527764
100	0x3bc07d94	0.005874345
101	0x3cb5f20c	0.022210144
102	0xbd8d0fbd	-0.068877675
103	0x3c9065a6	0.017626595
104	0x3d3e5671	0.046469156
105	0xbd85e70f	-0.065382116
106	0xbd0a27ef	-0.03372949
107	0x3d249744	0.04018332
108	0x3d869c08	0.06572729
109	0xbd17d131	-0.037064735
110	0x3d8468ec	0.06465325
111	0xbdb0fb6f	-0.08641707
112	0xbd11c459	-0.035587642
113	0xbdf36581	-0.11884595
114	0x3c5fb786	0.013654595
115	0x3ca6091e	0.02026802
116	0xbd020a29	-0.03174797
117	0x3d23eb12	0.040019102
118	0x39fa506a	0.0004774363
119	0xbd2f5dd6	-0.0428141
120	0x3c8b3241	0.016991736
121	0xbcf16c5b	-0.029470613
122	0xbd38e5ab	-0.045140903
123	0x3b2c174e	0.0026259008
124	0xbd77c9c8	-0.060495168
125	0xbc62d137	-0.013843826
126	0x3cc347cc	0.023837946
127	0xbc803412	-0.015649829
128	0xbcf7487a	-0.030185927
129	0xbcb437f0	-0.02199933
130	0xbd585d3b	-0.052823287
131	0xbd7c4c5b	-0.061596256
132	0xbd1193b7	-0.035541262
133	0x3cb80c36	0.02246676
134	0xbd8d7af1	-0.06908215
135	0x3c984483	0.018587356
136	0x3dbab859	0.09117193
137	0x3c50e63b	0.012750204
138	0xbcbfb6af	-0.02340254
139	0xbcb52d34	-0.022116281
140	0x3ce0fce9	0.027464347
141	0xbd5d0144	-0.053956285
142	0xbc87920c	-0.016549133
143	0xbc91968b	-0.01777198
144	0xbc9b57c7	-0.018962754
145	0x3a3c08da	0.000717295
146	0xbe0a0de0	-0.13481855
147	0x3de2adcc	0.110683054
148	0x3d7e5d7f	0.062100884
149	0x3d1b8eee	0.037978105
150	0xbd1f940c	-0.038959548
151	0x3b87c29f	0.0041430737
152	0x3cb10125	0.021606991
153	0x3cfb95a6	0.030711006
154	0x3d2f4999	0.042794798
155	0xbbd8b213	-0.006613025
156	0xbb59fc3b	-0.0033261913
157	0x3c86940e	0.01642802
158	0xbd5781b3	-0.052613925
159	0xbd84feea	-0.064939335
160	0xbd8032d2	-0.06259693
161	0xbd0de124	-0.03463854
162	0x3ce1bb7e	0.027555224
163	0x3ce032ae	0.027367916
164	0x3d8e9745	0.06962446
165	0xbcb79e66	-0.022414397
166	0xbdcc6b15	-0.09981362
167	0xbabe730b	-0.0014530135
168	0xbc828307	-0.01593162
169	0x3d2e47c8	0.042548925
170	0xbc85f0e0	-0.01635021
171	0xbd58bb96	-0.05291327
172	0x3d58e40e	0.052951865
173	0xbd700c72	-0.05860562
174	0xbd82eec6	-0.06393199
175	0x3bc402d5	0.005981783
176	0x3d9168f4	0.07100096
177	0xbaaf01c9	-0.0013351972
178	0xbda5f0ac	-0.08102545
179	0x3c87d9b7	0.016583307
180	0xbbfe0960	-0.0077525824
181	0xbcf3ede9	-0.02977653
182	0x3d45c86e	0.048286848
183	0xbd79a3ae	-0.060947113
184	0xbcfba842	-0.03071988
185	0xbd4fcff5	-0.050735433
186	0x3ca29468	0.019846156
187	0x3cb62f91	0.022239478
188	0xbd68be25	-0.05682196
189	0xbd4cb215	-0.04997452
190	0xbd37ab90	-0.04484135
191	0x3d08bd25	0.033383507
192	0x3d3344f7	0.043766942
193	0x3d47fce2	0.048825152
194	0x3c8d9f74	0.017287947
195	0x3d2066d2	0.039160557
196	0xbd406a3f	-0.046976324
197	0x3d0ffd06	0.03515341
198	0x3d3e9cf6	0.04653641
199	0xbd676ab9	-0.056498263
200	0x3a4be680	0.00077781826
201	0x3d5f3a7f	0.054499146
202	0x3bfe2890	0.0077563003
203	0xbcf04a97	-0.029332442
204	0xbd90ebbb	-0.07076212
205	0x3cc0666a	0.023486335
206	0x3d4b3cd4	0.049618557
207	0x3d39313b	0.045212965
208	0xbbfbf242	-0.0076887915
209	0x3daf1005	0.08547977
210	0x3b94b62d	0.0045383186
211	0xbb89c501	-0.004204393
212	0x3d84ce54	0.064846665
213	0xbd28ffe1	-0.04125965
214	0xbd9b1442	-0.07572223
215	0x3d2c6652	0.042089768
216	0xbd0284b2	-0.03186483
217	0x3c3b68eb	0.011438589
218	0x3d2cfca9	0.042233143
219	0xbd4abff5	-0.04949947
220	0xbd933d0b	-0.071893774
221	0xbd5fa72a	-0.05460278
222	0xbce36aba	-0.027760852
223	0xbdc2bb54	-0.09508386
224	0xbc99c275	-0.018769482
225	0xba574292	-0.0008211519
226	0xbd064ac8	-0.03278616
227	0xbdcccc35	-0.09999887
228	0xbd0480b6	-0.03234931
229	0x3c746118	0.014915727
230	0xbcbbed2b	-0.022940239
231	0x3c711c76	0.014716258
232	0x3c0a2f41	0.008434118
233	0xbbdb817c	-0.0066987853
234	0xbd99d4aa	-0.075112656
235	0xbd9a8eca	-0.07546766
236	0x3b398a79	0.0028311296
237	0x3d0911b1	0.033464137
238	0xbdc339ca	-0.09532507
239	0xbc03e7d2	-0.008050876
240	0xbd9239d8	-0.07139939
241	0xbdad1b3e	-0.08452462
242	0x3d196493	0.03744943
243	0x3d125d2e	0.035733394
244	0xbc6d29e4	-0.01447532
245	0xbd81550e	-0.06315051
246	0xbd0bab09	-0.03409866
247	0x3d282b08	0.041056663
248	0x3beb29d7	0.0071766186
249	0xbcb74f7c	-0.022376768
250	0x3ceff122	0.029289786
251	0x3cd90fb6	0.02649675
252	0xbc17fef6	-0.009277096
253	0xbd8aa3fb	-0.06769558
254	0x3cd8e7d6	0.026477735
255	0xbdbddd3b	-0.09270712

fc3.bias f4 [128]
0	0xbd621770	-0.055198133
1	0xbd2340a4	-0.039856568
2	0xbd34cecf	-0.04414254
3	0x3d3bc8e5	0.045845885
4	0xbc19ee00	-0.0093951225
5	0xba3138ea	-0.0006760495
6	0x3b857ca7	0.0040736976
7	0x3d206213	0.03915603
8	0xbcaf7f55	-0.021423021
9	0x3d6dae6f	0.05802768
10	0x3dd75f90	0.10516274
11	0x3d165512	0.036702223
12	0x3c581d5a	0.013190592
13	0x3b6275e6	0.0034555136
14	0x3d1767ef	0.036964353
15	0x3dc004bc	0.09375903
16	0xbd9fa432	-0.0779499
17	0x3aebb8e4	0.0017984179
18	0x3d7bcc08	0.061473876
19	0xbd4e7e0e	-0.050413184
20	0xbcaaa08c	-0.020828508
21	0x3c6399b3	0.013891625
22	0xbd2ce223	-0.04220785
23	0x3b550888	0.0032506306
24	0xbd0ad432	-0.03389377
25	0x3db9bc0d	0.09069071
26	0xbd497cb9	-0.04919121
27	0xbd7fa984	-0.062417522
28	0x3c118b48	0.008883305
29	0xbcfad523	-0.03061921
30	0xbd2e0411	-0.042484347
31	0xbd83b79a	-0.064315036
32	0x3b29f548	0.0025933553
33	0xbd8a726f	-0.06760108
34	0xbce55d9f	-0.027998744
35	0x3c25087e	0.0100728255
36	0x3b9d0d3c	0.0047928374
37	0x3d298820	0.041389585
38	0x3d2d842e	0.042362384
39	0x3d567a0c	0.052362487
40	0x3d93b7bc	0.07212779
41	0x3cfe586b	0.03104802
42	0xbd864955	-0.06556956
43	0xbd62fbb5	-0.055415828
44	0x3c5580a4	0.013031159
45	0x3d942c00	0.07234955
46	0xbcf1edc1	-0.029532315
47	0x3da930c6	0.08261256
48	0x3d7b446c	0.06134455
49	0xbd2d74e4	-0.042347804
50	0x3b3bd0c1	0.0028658363
51	0x3cef5e76	0.029219847
52	0xbca3e64b	-0.020007273
53	0x3d57ecfd	0.052716244
54	0x3d3bc1f7	0.045839276
55	0x3dafc370	0.085821986
56	0x3dd269e4	0.10274103
57	0x3d31a03a	0.043365695
58	0x3d166f8a	0.036727466
59	0x3db22729	0.086988755
60	0x3ce20985	0.02759243
61	0xbd2f3ba3	-0.042781483
62	0x3d55c5b6	0.052190505
63	0xbcd7df6c	-0.026351653
64	0x3db3678e	0.08759986
65	0x3c9f2707	0.01942779
66	0xbd8dc577	-0.06922429
67	0xbcec48b2	-0.028843258
68	0xbd39bf3a	-0.045348383
69	0x3db478b7	0.08812087
70	0x3a1df89b	0.000602612
71	0xbd298010	-0.041381896
72	0x3d66781a	0.05626688
73	0x3db6eecb	0.08932265
74	0xbd6d622f	-0.057954963
75	0xbc830d5f	-0.015997587
76	0xbd40bca8	-0.047054917
77	0x3b6006fc	0.003418385
78	0xbd1133b6	-0.035449706
79	0xbd7510fc	-0.05983065
80	0xbcd37430	-0.025812238
81	0xba9db11b	-0.0012030931
82	0xbc5c508f	-0.013446941
83	0x3d34871f	0.044074174
84	0xbc5b0489	-0.0133677805
85	0xbd43c161	-0.047791842
86	0x3cc53ba4	0.02407629
87	0x3cd00b5f	0.025396047
88	0x3d30c4d3	0.043156456
89	0x3d312eb5	0.043257434
90	0xbc84996c	-0.016186439
91	0xbcda1917	-0.026623292
92	0xbc4cf40f	-0.01250936
93	0x3d0ef18e	0.034898333
94	0x3d149b07	0.036280658
95	0x3ce4da07	0.027935995
96	0x3ca8d330	0.020608515
97	0xbce757b7	-0.028240068
98	0xbd96b4b4	-0.07358685
99	0x3d6c077b	0.05762432
100	0xbce0799e	-0.027401742
101	0x3ce4a045	0.027908454
102	0x3ce63d5f	0.028105436
103	0xbc14ef13	-0.009090203
104	0xbd789005	-0.060684223
105	0x3c5663ba	0.0130853
106	0xbce553e8	-0.027994111
107	0xbd381e7e	-0.044950955
108	0x3c1e76d5	0.009671886
109	0x3dad0d7c	0.084498376
110	0xbc19d970	-0.00939022
111	0x3d59e9c9	0.05320147
112	0xbd4cba61	-0.049982432
113	0xbc8195c6	-0.015818488
114	0x3dafb93d	0.08580253
115	0x3b3b228a	0.0028554522
116	0x3db504fd	0.08838842
117	0x3daf074a	0.08546312
118	0x3aee5d87	0.0018185832
119	0xbcb430ff	-0.02199602
120	0xbd6517aa	-0.05593077
121	0x3bb7d873	0.0056105196
122	0x3c50ee38	0.012752108
123	0x3cea1a87	0.028577102
124	0xbd83f786	-0.06443696
125	0x3de19e86	0.11016564
126	0xbd4baf13	-0.04972751
127	0x3d441912	0.04787547

fc4.weight f4 [64, 128]
0	0xbd879a94	-0.0662128
1	0x3cbaaca0	0.022787392
2	0x3da9c863	0.08290174
3	0x3cfd7266	0.030938338
4	0x3d7eacd7	0.06217655
5	0xbd2ebc24	-0.042659894
6	0xbdda17aa	-0.10649045
7	0xbbd4594b	-0.006480371
8	0xbdc9e011	-0.098571904
9	0xbdc17559	-0.094462104
10	0xbd452b7b	-0.04813717
11	0xbc6aef27	-0.014339245
12	0x3d9bf0e3	0.07614305
13	0xbc7d4169	-0.0154574895
14	0x3d8a25d7	0.067454986
15	0x3d597710	0.053092062
16	0x3dac231c	0.08405134
17	0xbdbeb048	-0.09310967
18	0x3d871a14	0.06596771
19	0xbd5d927b	-0.054094773
20	0xbcfe3e7b	-0.031035652
21	0xbdc46720	-0.09589982
22	0x3d53c635	0.051702697
23	0x3add5da1	0.0016888866
24	0xbdee9040	-0.11648607
25	0xbdae9961	-0.085253485
26	0x3cc5e284	0.024155863
27	0x3dc5c27b	0.09656235
28	0xbc97fd89	-0.018553512
29	0xbd2bd27d	-0.041948784
30	0xbdcb70e6	-0.09933643
31	0x3d04e5ca	0.032445706
32	0x3c8d73c4	0.017267115
33	0x3d23bb5d	0.039973605
34	0xbd0d3f22	-0.034484036
35	0xbd01a014	-0.031646803
36	0x3d1ac22a	0.037782826
37	0xbc71eb0f	-0.014765515
38	0xbda78919	-0.08180446
39	0xbd4b5cbf	-0.049648996
40	0x3cf5d3ea	0.030008275
41	0xbd3e18c4	-0.046410337
42	0xbd1d7925	-0.03844561
43	0x3d0bd368	0.03413716
44	0xbd9d0ea4	-0.07668808
45	0x3d3711b4	0.044694617
46	0x3deb7e40	0.1149869
47	0xbc55b2f4	-0.013043154
48	0x3d0c7717	0.03429326
49	0x3bdbe260	0.0067103356
50	0x3d6f9ec4	0.05850102
51	0x3da20c90	0.07912552
52	0xbba7c842	-0.005120308
53	0x3d716dfa	0.058942772
54	0xbdac25c6	-0.08405642
55	0xbc3d57f6	-0.011556616
56	0xbd6bbf8d	-0.057555724
57	0x3dc43bf6	0.09581749
58	0xbc809d19	-0.01569991
59	0x3cd1ce0c	0.025610946
60	0xbc99080b	-0.018680593
61	0xbdaba06c	-0.083802074
62	0x3d553dec	0.052061006
63	0xbd166bf1	-0.036724035
64	0xbdc6bcde	-0.09703992
65	0xbd84e905	-0.064897574
66	0xbdd56fcf	-0.104217164
67	0xbc410933	-0.011781978
68	0xbc5f5fc6	-0.013633674
69	0x3d111063	0.03541602
70	0xbd20e46b	-0.039280336
71	0x3d08bb6e	0.033381872
72	0xbdf28404	-0.11841586
73	0xbdb6864f	-0.08912336
74	0xbac159cc	-0.0014751493
75	0x3e086238	0.13318717
76	0xbbbcc566	-0.0057608364
77	0x3d6cb93e	0.05779385
78	0xbda3868d	-0.07984648
79	0xbdadbdb5	-0.08483449
80	0xbcc199e6	-0.023632955
81	0x3cdcb6e4	0.026942678
82	0x3d031cef	0.032010015
83	0xbd40324c	-0.046922967
84	0x3db308e7	0.08741932
85	0x3c980213	0.018555677
86	0xbd51bd90	-0.05120617
87	0x3d450d2d	0.04810827
88	0x3daa64fd	0.08320043
89	0x3d56e1c8	0.052461416
90	0x3b60a861	0.003428005
91	0x3cd27007	0.025688184
92	0xbdb67f2c	-0.08910975
93	0xbc9b8c04	-0.018987663
94	0xbda9d68a	-0.08292873
95	0x3d34e788	0.044166118
96	0xbdb93190	-0.090426564
97	0x3d025c0c	0.031826064
98	0xbc9f0d07	-0.019415392
99	0xbd562a52	-0.052286454
100	0xbce97cd4	-0.028501906
101	0x3bcf3670	0.006323628
102	0xbdab978f	-0.08378517
103	0xbd928b3b	-0.07155462
104	0xbd2a2609	-0.04154018
105	0xbd735a35	-0.0594122
106	0xbc20bb37	-0.0098102605
107	0x3cad63e3	0.021165794
108	0x3da922e2	0.082586065
109	0xbc98a0bd	-0.018631333
110	0x3d151d84	0.0364051
111	0x3da28874	0.079361826
112	0x3d89e591	0.067332394
113	0xbd84e59b	-0.06489106
114	0xbd3e97ee	-0.04653161
115	0x3d92e9e4	0.07173517
116	0xbd56d0cb	-0.052445214
117	0x3d1359d4	0.03597434
118	0xbd57ac3f	-0.0526545
119	0x3cee4b1b	0.029088547
120	0xbd36dc90	-0.04464394
121	0xbdb49c9e	-0.08818935
122	0xbd8b6b99	-0.06807632
123	0x3d6bc4c4	0.057560697
124	0x3d94efd1	0.07272304
125	0xbc7471a2	-0.01491967
126	0x3de4714a	0.11154421
127	0x3d64a789	0.055823836
128	0x3c335a70	0.010946855
129	0xbd855b00	-0.065114975
130	0x3d5682d9	0.05237088
131	0x3d63ac7b	0.055584412
132	0x3dba3370	0.09091842
133	0xbd0d029a	-0.03442631
134	0x3d3328f8	0.043740243
135	0x3cbfac93	0.02339772
136	0x3ce4a264	0.027909465
137	0xbd19b19e	-0.037522905
138	0xbd9a1a8d	-0.075245954
139	0x3e065edf	0.13122128
140	0xbc24b0b4	-0.010051895
141	0x3dac2af3	0.084066294
142	0x3d47fb49	0.04882363
143	0xbd79a4b1	-0.060948078
144	0x3d84d4d6	0.06485908
145	0x3c73b603	0.014874938
146	0xbd6d1d31	-0.057889167
147	0x3cce8d5f	0.025213895
148	0x3d762f88	0.060103923
149	0xbb882960	-0.004155323
150	0xbd13c6ed	-0.036078382
151	0xbceb2b0c	-0.02870705
152	0xbdd08d55	-0.10183207
153	0x3c527276	0.012844672
154	0x3c2f4748	0.010698147
155	0xbd51e1dc	-0.051240787
156	0xbbbfbb3c	-0.0058511775
157	0x3d6bc3fc	0.057559952
158	0xbdeda0b8	-0.1160292
159	0xbd79b830	-0.06096667
160	0xbc50c839	-0.012743049
161	0xbaeae533	-0.001792109
162	0xbd7d4108	-0.061829597
163	0xbd4f8e89	-0.05067304
164	0xbda4ce78	-0.08047193
165	0x3cccc355	0.024995485
166	0xbda3fa0e	-0.080066785
167	0xbe2ebbdb	-0.17063849
168	0xbd8297b9	-0.06376595
169	0x3e0091fb	0.12555687
170	0xbc9fd844	-0.019512303
171	0xbdb57663	-0.08860471
172	0xbbf2e86d	-0.007412961
173	0x3d79cb6f	0.060985025
174	0xbdb12656	-0.0864989
175	0x3c45a16d	0.012062413
176	0x3d4d50a4	0.050125733
177	0xbd575e9e	-0.05258047
178	0x3b45dca6	0.0030191331
179	0xbd6319f0	-0.055444658
180	0x3d85af4f	0.06527578
181	0xbd4bc0f6	-0.04974457
182	0xbd6202f8	-0.055178612
183	0xbd606749	-0.054786
184	0x3ced080d	0.028934503
185	0xbc8ac888	-0.016941324
186	0xbcd96114	-0.026535548
187	0x3d92a454	0.07160249
188	0x39c8ea55	0.00038321564
189	0xbb1532bf	-0.0022765843
190	0x3b9e2792	0.0048264945
191	0x3dcaf092	0.099091664
192	0xbd2f2b32	-0.042765804
193	0x3d070a68	0.03296891
194	0xbd7d14b5	-0.061787326
195	0x3d5c237f	0.05374479
196	0xbd7c624e	-0.06161719
197	0x3d8b3b1c	0.067983836
198	0xbb85fd09	-0.004089002
199	0xbd29faaa	-0.041498818
200	0xbb878183	-0.004135312
201	0x3b69c141	0.0035668167
202	0xbd602211	-0.05471999
203	0xbe0bac7b	-0.13640015
204	0xbd0864a3	-0.0332991
205	0xbdf89408	-0.1213761
206	0xbca3a290	-0.019974977
207	0x3b59f7a0	0.0033259168
208	0xbdc3c4ce	-0.09559022
209	0x3d39f03d	0.045395125
210	0x3d47e33d	0.048800696
211	0xbdc79956	-0.097460434
212	0xbd6b862a	-0.057500996
213	0xbd2bed5a	-0.041974403
214	0x3d75c192	0.059999056
215	0x3dac5bfd	0.08415983
216	0x3cf9bd9d	0.030485922
217	0x3dbbf308	0.09177214
218	0x3d6d32e6	0.05790987
219	0xbd107213	-0.03526504
220	0xbcfef903	-0.031124597
221	0xbd830029	-0.06396515
222	0x3dca1901	0.0986805
223	0xbd843389	-0.06455142
224	0x3d866549	0.06562287
225	0xbe034b31	-0.12821652
226	0xbc878593	-0.016543185
227	0x3c20789f	0.009794383
228	0x3d9afb9b	0.07567521
229	0xbd01f1fe	-0.031724922
230	0xbd05bdb3	-0.032651614
231	0xbc7c7f0e	-0.015411152
232	0x3d0b5c09	0.03402332
233	0x3dc361cb	0.09540137
234	0x3ca0e1ce	0.019638922
235	0x3d3b06be	0.045660727
236	0xbd86aa5f	-0.065754645
237	0x3dd4496c	0.103655666
238	0x3cbcd317	0.023049874
239	0x3d9762db	0.07391902
240	0xbd56e817	-0.052467432
241	0x3c6cc628	0.014451541
242	0xbda85510	-0.082193494
243	0xbd611f2c	-0.05496137
244	0x3c4199d5	0.011816462
245	0xbd9fbcfc	-0.07799718
246	0xbd2c99b6	-0.042138778
247	0xbb63d5ff	-0.0034765003
248	0xbd820ab2	-0.06349696
249	0x3d5a158a	0.053243198
250	0xbc9fb654	-0.01949612
251	0xbbd0a281	-0.006367028
252	0x3cee5c01	0.029096605
253	0xbda344b8	-0.079720914
254	0xbc9e7c06	-0.019346248
255	0xbde36061	-0.11102367

fc4.bias f4 [64]
0	0xbdc36c6d	-0.09542165
1	0xbd9b2863	-0.075760625
2	0xbcf2cac0	-0.029637694
3	0xbcce47ac	-0.02518066
4	0x3d9b2596	0.07575528
5	0x3b7201d4	0.003692736
6	0xbc592f1f	-0.013255863
7	0x3ba85771	0.005137377
8	0x3dc58b34	0.096456915
9	0x3db4f6c9	0.08836133
10	0x3d2ad956	0.041711174
11	0x3d7a1c1e	0.06106197
12	0xbd42669c	-0.047461137
13	0x3dab9b80	0.08379269
14	0xbdb8a9df	-0.09016775
15	0x3e174183	0.14771084
16	0xbcf65b8e	-0.030072954
17	0x3b584900	0.0033002496
18	0xbd77e6fb	-0.060523015
19	0x3d9492d8	0.07254571
20	0x3ad3fb35	0.0016172888
21	0x3c950c80	0.018194437
22	0x3b28b755	0.002574404
23	0x3cbda134	0.023148157
24	0xbd5a49bf	-0.053292986
25	0x3d43199e	0.047631852
26	0x3d2f5a54	0.042810753
27	0x3d084fb6	0.033279143
28	0xbd910921	-0.07081819
29	0x3dfce3cb	0.123481356
30	0x3ca4c6d9	0.02011435
31	0xbd2b759e	-0.041860215
32	0x3bb9ca1b	0.005669845
33	0x3b6cce7a	0.0036133812
34	0x3d25f945	0.040520925
35	0x3db067ca	0.08613546
36	0xbc528673	-0.012849438
37	0xbc8b1da2	-0.016981903
38	0xbd6e9e97	-0.05825671
39	0xbcc016a9	-0.023448305
40	0x3e14eaff	0.14542769
41	0x3a302eb9	0.00067208294
42	0xbd529298	-0.051409334
43	0xbd7e831b	-0.06213675
44	0xbd93a326	-0.072088525
45	0xbd70a7ae	-0.05875366
46	0xbdf007be	-0.11720227
47	0xbc978415	-0.018495599
48	0x3e1094bf	0.14119242
49	0x3c778090	0.015106335
50	0x3d6170eb	0.055039328
51	0xbb73f76f	-0.003722634
52	0xbbd6bc5f	-0.0065532173
53	0x3d5841e2	0.052797206
54	0xbb68be33	-0.0035513758
55	0x3dc00552	0.09376015
56	0x3c96544d	0.018350745
57	0x3c2cf4c2	0.010556402
58	0x3bd205cd	0.006409383
59	0x3c7301ec	0.014832001
60	0xbd676e76	-0.056501828
61	0x3c239ea2	0.0099865515
62	0x3cc0cd03	0.023535257
63	0x3d8080fe	0.06274603
